,model,variables,layer,accuracy
0,"PyTorchCNN(
  (conv1): Conv2d(1, 16, kernel_size=(3, 3), stride=(1, 1), padding=(1, 1))
  (relu1): ReLU()
  (pool1): MaxPool2d(kernel_size=2, stride=2, padding=0, dilation=1, ceil_mode=False)
  (conv2): Conv2d(16, 32, kernel_size=(3, 3), stride=(1, 1), padding=(1, 1))
  (relu2): ReLU()
  (pool2): MaxPool2d(kernel_size=2, stride=2, padding=0, dilation=1, ceil_mode=False)
  (conv3): Conv2d(32, 64, kernel_size=(3, 3), stride=(1, 1), padding=(1, 1))
  (relu3): ReLU()
  (flatten): Flatten(start_dim=1, end_dim=-1)
  (fc1): Linear(in_features=3136, out_features=3, bias=True)
  (relu4): ReLU()
  (fc2): Linear(in_features=3, out_features=1, bias=True)
  (sigmoid): Sigmoid()
)","[0, 1, 2]",conv1,0.9340000152587891
1,"PyTorchCNN(
  (conv1): Conv2d(1, 16, kernel_size=(3, 3), stride=(1, 1), padding=(1, 1))
  (relu1): ReLU()
  (pool1): MaxPool2d(kernel_size=2, stride=2, padding=0, dilation=1, ceil_mode=False)
  (conv2): Conv2d(16, 32, kernel_size=(3, 3), stride=(1, 1), padding=(1, 1))
  (relu2): ReLU()
  (pool2): MaxPool2d(kernel_size=2, stride=2, padding=0, dilation=1, ceil_mode=False)
  (conv3): Conv2d(32, 64, kernel_size=(3, 3), stride=(1, 1), padding=(1, 1))
  (relu3): ReLU()
  (flatten): Flatten(start_dim=1, end_dim=-1)
  (fc1): Linear(in_features=3136, out_features=3, bias=True)
  (relu4): ReLU()
  (fc2): Linear(in_features=3, out_features=1, bias=True)
  (sigmoid): Sigmoid()
)","[0, 1, 2]",conv2,0.9259999990463257
2,"PyTorchCNN(
  (conv1): Conv2d(1, 16, kernel_size=(3, 3), stride=(1, 1), padding=(1, 1))
  (relu1): ReLU()
  (pool1): MaxPool2d(kernel_size=2, stride=2, padding=0, dilation=1, ceil_mode=False)
  (conv2): Conv2d(16, 32, kernel_size=(3, 3), stride=(1, 1), padding=(1, 1))
  (relu2): ReLU()
  (pool2): MaxPool2d(kernel_size=2, stride=2, padding=0, dilation=1, ceil_mode=False)
  (conv3): Conv2d(32, 64, kernel_size=(3, 3), stride=(1, 1), padding=(1, 1))
  (relu3): ReLU()
  (flatten): Flatten(start_dim=1, end_dim=-1)
  (fc1): Linear(in_features=3136, out_features=3, bias=True)
  (relu4): ReLU()
  (fc2): Linear(in_features=3, out_features=1, bias=True)
  (sigmoid): Sigmoid()
)","[0, 1, 2]",conv3,0.949999988079071
3,"PyTorchCNN(
  (conv1): Conv2d(1, 16, kernel_size=(3, 3), stride=(1, 1), padding=(1, 1))
  (relu1): ReLU()
  (pool1): MaxPool2d(kernel_size=2, stride=2, padding=0, dilation=1, ceil_mode=False)
  (conv2): Conv2d(16, 32, kernel_size=(3, 3), stride=(1, 1), padding=(1, 1))
  (relu2): ReLU()
  (pool2): MaxPool2d(kernel_size=2, stride=2, padding=0, dilation=1, ceil_mode=False)
  (conv3): Conv2d(32, 64, kernel_size=(3, 3), stride=(1, 1), padding=(1, 1))
  (relu3): ReLU()
  (flatten): Flatten(start_dim=1, end_dim=-1)
  (fc1): Linear(in_features=3136, out_features=3, bias=True)
  (relu4): ReLU()
  (fc2): Linear(in_features=3, out_features=1, bias=True)
  (sigmoid): Sigmoid()
)","[0, 1, 2]",fc1,0.5669999718666077
4,"PyTorchCNN(
  (conv1): Conv2d(1, 16, kernel_size=(3, 3), stride=(1, 1), padding=(1, 1))
  (relu1): ReLU()
  (pool1): MaxPool2d(kernel_size=2, stride=2, padding=0, dilation=1, ceil_mode=False)
  (conv2): Conv2d(16, 32, kernel_size=(3, 3), stride=(1, 1), padding=(1, 1))
  (relu2): ReLU()
  (pool2): MaxPool2d(kernel_size=2, stride=2, padding=0, dilation=1, ceil_mode=False)
  (conv3): Conv2d(32, 64, kernel_size=(3, 3), stride=(1, 1), padding=(1, 1))
  (relu3): ReLU()
  (flatten): Flatten(start_dim=1, end_dim=-1)
  (fc1): Linear(in_features=3136, out_features=3, bias=True)
  (relu4): ReLU()
  (fc2): Linear(in_features=3, out_features=1, bias=True)
  (sigmoid): Sigmoid()
)","[0, 1]",conv1,0.9100000262260437
5,"PyTorchCNN(
  (conv1): Conv2d(1, 16, kernel_size=(3, 3), stride=(1, 1), padding=(1, 1))
  (relu1): ReLU()
  (pool1): MaxPool2d(kernel_size=2, stride=2, padding=0, dilation=1, ceil_mode=False)
  (conv2): Conv2d(16, 32, kernel_size=(3, 3), stride=(1, 1), padding=(1, 1))
  (relu2): ReLU()
  (pool2): MaxPool2d(kernel_size=2, stride=2, padding=0, dilation=1, ceil_mode=False)
  (conv3): Conv2d(32, 64, kernel_size=(3, 3), stride=(1, 1), padding=(1, 1))
  (relu3): ReLU()
  (flatten): Flatten(start_dim=1, end_dim=-1)
  (fc1): Linear(in_features=3136, out_features=3, bias=True)
  (relu4): ReLU()
  (fc2): Linear(in_features=3, out_features=1, bias=True)
  (sigmoid): Sigmoid()
)","[0, 1]",conv2,0.890999972820282
6,"PyTorchCNN(
  (conv1): Conv2d(1, 16, kernel_size=(3, 3), stride=(1, 1), padding=(1, 1))
  (relu1): ReLU()
  (pool1): MaxPool2d(kernel_size=2, stride=2, padding=0, dilation=1, ceil_mode=False)
  (conv2): Conv2d(16, 32, kernel_size=(3, 3), stride=(1, 1), padding=(1, 1))
  (relu2): ReLU()
  (pool2): MaxPool2d(kernel_size=2, stride=2, padding=0, dilation=1, ceil_mode=False)
  (conv3): Conv2d(32, 64, kernel_size=(3, 3), stride=(1, 1), padding=(1, 1))
  (relu3): ReLU()
  (flatten): Flatten(start_dim=1, end_dim=-1)
  (fc1): Linear(in_features=3136, out_features=3, bias=True)
  (relu4): ReLU()
  (fc2): Linear(in_features=3, out_features=1, bias=True)
  (sigmoid): Sigmoid()
)","[0, 1]",conv3,0.8989999890327454
7,"PyTorchCNN(
  (conv1): Conv2d(1, 16, kernel_size=(3, 3), stride=(1, 1), padding=(1, 1))
  (relu1): ReLU()
  (pool1): MaxPool2d(kernel_size=2, stride=2, padding=0, dilation=1, ceil_mode=False)
  (conv2): Conv2d(16, 32, kernel_size=(3, 3), stride=(1, 1), padding=(1, 1))
  (relu2): ReLU()
  (pool2): MaxPool2d(kernel_size=2, stride=2, padding=0, dilation=1, ceil_mode=False)
  (conv3): Conv2d(32, 64, kernel_size=(3, 3), stride=(1, 1), padding=(1, 1))
  (relu3): ReLU()
  (flatten): Flatten(start_dim=1, end_dim=-1)
  (fc1): Linear(in_features=3136, out_features=3, bias=True)
  (relu4): ReLU()
  (fc2): Linear(in_features=3, out_features=1, bias=True)
  (sigmoid): Sigmoid()
)","[0, 1]",fc1,0.7239999771118164
8,"PyTorchCNN(
  (conv1): Conv2d(1, 16, kernel_size=(3, 3), stride=(1, 1), padding=(1, 1))
  (relu1): ReLU()
  (pool1): MaxPool2d(kernel_size=2, stride=2, padding=0, dilation=1, ceil_mode=False)
  (conv2): Conv2d(16, 32, kernel_size=(3, 3), stride=(1, 1), padding=(1, 1))
  (relu2): ReLU()
  (pool2): MaxPool2d(kernel_size=2, stride=2, padding=0, dilation=1, ceil_mode=False)
  (conv3): Conv2d(32, 64, kernel_size=(3, 3), stride=(1, 1), padding=(1, 1))
  (relu3): ReLU()
  (flatten): Flatten(start_dim=1, end_dim=-1)
  (fc1): Linear(in_features=3136, out_features=3, bias=True)
  (relu4): ReLU()
  (fc2): Linear(in_features=3, out_features=1, bias=True)
  (sigmoid): Sigmoid()
)","[0, 2]",conv1,0.9259999990463257
9,"PyTorchCNN(
  (conv1): Conv2d(1, 16, kernel_size=(3, 3), stride=(1, 1), padding=(1, 1))
  (relu1): ReLU()
  (pool1): MaxPool2d(kernel_size=2, stride=2, padding=0, dilation=1, ceil_mode=False)
  (conv2): Conv2d(16, 32, kernel_size=(3, 3), stride=(1, 1), padding=(1, 1))
  (relu2): ReLU()
  (pool2): MaxPool2d(kernel_size=2, stride=2, padding=0, dilation=1, ceil_mode=False)
  (conv3): Conv2d(32, 64, kernel_size=(3, 3), stride=(1, 1), padding=(1, 1))
  (relu3): ReLU()
  (flatten): Flatten(start_dim=1, end_dim=-1)
  (fc1): Linear(in_features=3136, out_features=3, bias=True)
  (relu4): ReLU()
  (fc2): Linear(in_features=3, out_features=1, bias=True)
  (sigmoid): Sigmoid()
)","[0, 2]",conv2,0.9200000166893005
10,"PyTorchCNN(
  (conv1): Conv2d(1, 16, kernel_size=(3, 3), stride=(1, 1), padding=(1, 1))
  (relu1): ReLU()
  (pool1): MaxPool2d(kernel_size=2, stride=2, padding=0, dilation=1, ceil_mode=False)
  (conv2): Conv2d(16, 32, kernel_size=(3, 3), stride=(1, 1), padding=(1, 1))
  (relu2): ReLU()
  (pool2): MaxPool2d(kernel_size=2, stride=2, padding=0, dilation=1, ceil_mode=False)
  (conv3): Conv2d(32, 64, kernel_size=(3, 3), stride=(1, 1), padding=(1, 1))
  (relu3): ReLU()
  (flatten): Flatten(start_dim=1, end_dim=-1)
  (fc1): Linear(in_features=3136, out_features=3, bias=True)
  (relu4): ReLU()
  (fc2): Linear(in_features=3, out_features=1, bias=True)
  (sigmoid): Sigmoid()
)","[0, 2]",conv3,0.9100000262260437
11,"PyTorchCNN(
  (conv1): Conv2d(1, 16, kernel_size=(3, 3), stride=(1, 1), padding=(1, 1))
  (relu1): ReLU()
  (pool1): MaxPool2d(kernel_size=2, stride=2, padding=0, dilation=1, ceil_mode=False)
  (conv2): Conv2d(16, 32, kernel_size=(3, 3), stride=(1, 1), padding=(1, 1))
  (relu2): ReLU()
  (pool2): MaxPool2d(kernel_size=2, stride=2, padding=0, dilation=1, ceil_mode=False)
  (conv3): Conv2d(32, 64, kernel_size=(3, 3), stride=(1, 1), padding=(1, 1))
  (relu3): ReLU()
  (flatten): Flatten(start_dim=1, end_dim=-1)
  (fc1): Linear(in_features=3136, out_features=3, bias=True)
  (relu4): ReLU()
  (fc2): Linear(in_features=3, out_features=1, bias=True)
  (sigmoid): Sigmoid()
)","[0, 2]",fc1,0.6179999709129333
12,"PyTorchCNN(
  (conv1): Conv2d(1, 16, kernel_size=(3, 3), stride=(1, 1), padding=(1, 1))
  (relu1): ReLU()
  (pool1): MaxPool2d(kernel_size=2, stride=2, padding=0, dilation=1, ceil_mode=False)
  (conv2): Conv2d(16, 32, kernel_size=(3, 3), stride=(1, 1), padding=(1, 1))
  (relu2): ReLU()
  (pool2): MaxPool2d(kernel_size=2, stride=2, padding=0, dilation=1, ceil_mode=False)
  (conv3): Conv2d(32, 64, kernel_size=(3, 3), stride=(1, 1), padding=(1, 1))
  (relu3): ReLU()
  (flatten): Flatten(start_dim=1, end_dim=-1)
  (fc1): Linear(in_features=3136, out_features=3, bias=True)
  (relu4): ReLU()
  (fc2): Linear(in_features=3, out_features=1, bias=True)
  (sigmoid): Sigmoid()
)","[1, 2]",conv1,0.9129999876022339
13,"PyTorchCNN(
  (conv1): Conv2d(1, 16, kernel_size=(3, 3), stride=(1, 1), padding=(1, 1))
  (relu1): ReLU()
  (pool1): MaxPool2d(kernel_size=2, stride=2, padding=0, dilation=1, ceil_mode=False)
  (conv2): Conv2d(16, 32, kernel_size=(3, 3), stride=(1, 1), padding=(1, 1))
  (relu2): ReLU()
  (pool2): MaxPool2d(kernel_size=2, stride=2, padding=0, dilation=1, ceil_mode=False)
  (conv3): Conv2d(32, 64, kernel_size=(3, 3), stride=(1, 1), padding=(1, 1))
  (relu3): ReLU()
  (flatten): Flatten(start_dim=1, end_dim=-1)
  (fc1): Linear(in_features=3136, out_features=3, bias=True)
  (relu4): ReLU()
  (fc2): Linear(in_features=3, out_features=1, bias=True)
  (sigmoid): Sigmoid()
)","[1, 2]",conv2,0.890999972820282
14,"PyTorchCNN(
  (conv1): Conv2d(1, 16, kernel_size=(3, 3), stride=(1, 1), padding=(1, 1))
  (relu1): ReLU()
  (pool1): MaxPool2d(kernel_size=2, stride=2, padding=0, dilation=1, ceil_mode=False)
  (conv2): Conv2d(16, 32, kernel_size=(3, 3), stride=(1, 1), padding=(1, 1))
  (relu2): ReLU()
  (pool2): MaxPool2d(kernel_size=2, stride=2, padding=0, dilation=1, ceil_mode=False)
  (conv3): Conv2d(32, 64, kernel_size=(3, 3), stride=(1, 1), padding=(1, 1))
  (relu3): ReLU()
  (flatten): Flatten(start_dim=1, end_dim=-1)
  (fc1): Linear(in_features=3136, out_features=3, bias=True)
  (relu4): ReLU()
  (fc2): Linear(in_features=3, out_features=1, bias=True)
  (sigmoid): Sigmoid()
)","[1, 2]",conv3,0.8849999904632568
15,"PyTorchCNN(
  (conv1): Conv2d(1, 16, kernel_size=(3, 3), stride=(1, 1), padding=(1, 1))
  (relu1): ReLU()
  (pool1): MaxPool2d(kernel_size=2, stride=2, padding=0, dilation=1, ceil_mode=False)
  (conv2): Conv2d(16, 32, kernel_size=(3, 3), stride=(1, 1), padding=(1, 1))
  (relu2): ReLU()
  (pool2): MaxPool2d(kernel_size=2, stride=2, padding=0, dilation=1, ceil_mode=False)
  (conv3): Conv2d(32, 64, kernel_size=(3, 3), stride=(1, 1), padding=(1, 1))
  (relu3): ReLU()
  (flatten): Flatten(start_dim=1, end_dim=-1)
  (fc1): Linear(in_features=3136, out_features=3, bias=True)
  (relu4): ReLU()
  (fc2): Linear(in_features=3, out_features=1, bias=True)
  (sigmoid): Sigmoid()
)","[1, 2]",fc1,0.7210000157356262
16,"PyTorchCNN(
  (conv1): Conv2d(1, 16, kernel_size=(3, 3), stride=(1, 1), padding=(1, 1))
  (relu1): ReLU()
  (pool1): MaxPool2d(kernel_size=2, stride=2, padding=0, dilation=1, ceil_mode=False)
  (conv2): Conv2d(16, 32, kernel_size=(3, 3), stride=(1, 1), padding=(1, 1))
  (relu2): ReLU()
  (pool2): MaxPool2d(kernel_size=2, stride=2, padding=0, dilation=1, ceil_mode=False)
  (conv3): Conv2d(32, 64, kernel_size=(3, 3), stride=(1, 1), padding=(1, 1))
  (relu3): ReLU()
  (flatten): Flatten(start_dim=1, end_dim=-1)
  (fc1): Linear(in_features=3136, out_features=3, bias=True)
  (relu4): ReLU()
  (fc2): Linear(in_features=3, out_features=1, bias=True)
  (sigmoid): Sigmoid()
)",[0],conv1,0.9169999957084656
17,"PyTorchCNN(
  (conv1): Conv2d(1, 16, kernel_size=(3, 3), stride=(1, 1), padding=(1, 1))
  (relu1): ReLU()
  (pool1): MaxPool2d(kernel_size=2, stride=2, padding=0, dilation=1, ceil_mode=False)
  (conv2): Conv2d(16, 32, kernel_size=(3, 3), stride=(1, 1), padding=(1, 1))
  (relu2): ReLU()
  (pool2): MaxPool2d(kernel_size=2, stride=2, padding=0, dilation=1, ceil_mode=False)
  (conv3): Conv2d(32, 64, kernel_size=(3, 3), stride=(1, 1), padding=(1, 1))
  (relu3): ReLU()
  (flatten): Flatten(start_dim=1, end_dim=-1)
  (fc1): Linear(in_features=3136, out_features=3, bias=True)
  (relu4): ReLU()
  (fc2): Linear(in_features=3, out_features=1, bias=True)
  (sigmoid): Sigmoid()
)",[0],conv2,0.902999997138977
18,"PyTorchCNN(
  (conv1): Conv2d(1, 16, kernel_size=(3, 3), stride=(1, 1), padding=(1, 1))
  (relu1): ReLU()
  (pool1): MaxPool2d(kernel_size=2, stride=2, padding=0, dilation=1, ceil_mode=False)
  (conv2): Conv2d(16, 32, kernel_size=(3, 3), stride=(1, 1), padding=(1, 1))
  (relu2): ReLU()
  (pool2): MaxPool2d(kernel_size=2, stride=2, padding=0, dilation=1, ceil_mode=False)
  (conv3): Conv2d(32, 64, kernel_size=(3, 3), stride=(1, 1), padding=(1, 1))
  (relu3): ReLU()
  (flatten): Flatten(start_dim=1, end_dim=-1)
  (fc1): Linear(in_features=3136, out_features=3, bias=True)
  (relu4): ReLU()
  (fc2): Linear(in_features=3, out_features=1, bias=True)
  (sigmoid): Sigmoid()
)",[0],conv3,0.8840000033378601
19,"PyTorchCNN(
  (conv1): Conv2d(1, 16, kernel_size=(3, 3), stride=(1, 1), padding=(1, 1))
  (relu1): ReLU()
  (pool1): MaxPool2d(kernel_size=2, stride=2, padding=0, dilation=1, ceil_mode=False)
  (conv2): Conv2d(16, 32, kernel_size=(3, 3), stride=(1, 1), padding=(1, 1))
  (relu2): ReLU()
  (pool2): MaxPool2d(kernel_size=2, stride=2, padding=0, dilation=1, ceil_mode=False)
  (conv3): Conv2d(32, 64, kernel_size=(3, 3), stride=(1, 1), padding=(1, 1))
  (relu3): ReLU()
  (flatten): Flatten(start_dim=1, end_dim=-1)
  (fc1): Linear(in_features=3136, out_features=3, bias=True)
  (relu4): ReLU()
  (fc2): Linear(in_features=3, out_features=1, bias=True)
  (sigmoid): Sigmoid()
)",[0],fc1,0.7179999947547913
20,"PyTorchCNN(
  (conv1): Conv2d(1, 16, kernel_size=(3, 3), stride=(1, 1), padding=(1, 1))
  (relu1): ReLU()
  (pool1): MaxPool2d(kernel_size=2, stride=2, padding=0, dilation=1, ceil_mode=False)
  (conv2): Conv2d(16, 32, kernel_size=(3, 3), stride=(1, 1), padding=(1, 1))
  (relu2): ReLU()
  (pool2): MaxPool2d(kernel_size=2, stride=2, padding=0, dilation=1, ceil_mode=False)
  (conv3): Conv2d(32, 64, kernel_size=(3, 3), stride=(1, 1), padding=(1, 1))
  (relu3): ReLU()
  (flatten): Flatten(start_dim=1, end_dim=-1)
  (fc1): Linear(in_features=3136, out_features=3, bias=True)
  (relu4): ReLU()
  (fc2): Linear(in_features=3, out_features=1, bias=True)
  (sigmoid): Sigmoid()
)",[1],conv1,0.9580000042915344
21,"PyTorchCNN(
  (conv1): Conv2d(1, 16, kernel_size=(3, 3), stride=(1, 1), padding=(1, 1))
  (relu1): ReLU()
  (pool1): MaxPool2d(kernel_size=2, stride=2, padding=0, dilation=1, ceil_mode=False)
  (conv2): Conv2d(16, 32, kernel_size=(3, 3), stride=(1, 1), padding=(1, 1))
  (relu2): ReLU()
  (pool2): MaxPool2d(kernel_size=2, stride=2, padding=0, dilation=1, ceil_mode=False)
  (conv3): Conv2d(32, 64, kernel_size=(3, 3), stride=(1, 1), padding=(1, 1))
  (relu3): ReLU()
  (flatten): Flatten(start_dim=1, end_dim=-1)
  (fc1): Linear(in_features=3136, out_features=3, bias=True)
  (relu4): ReLU()
  (fc2): Linear(in_features=3, out_features=1, bias=True)
  (sigmoid): Sigmoid()
)",[1],conv2,0.9629999995231628
22,"PyTorchCNN(
  (conv1): Conv2d(1, 16, kernel_size=(3, 3), stride=(1, 1), padding=(1, 1))
  (relu1): ReLU()
  (pool1): MaxPool2d(kernel_size=2, stride=2, padding=0, dilation=1, ceil_mode=False)
  (conv2): Conv2d(16, 32, kernel_size=(3, 3), stride=(1, 1), padding=(1, 1))
  (relu2): ReLU()
  (pool2): MaxPool2d(kernel_size=2, stride=2, padding=0, dilation=1, ceil_mode=False)
  (conv3): Conv2d(32, 64, kernel_size=(3, 3), stride=(1, 1), padding=(1, 1))
  (relu3): ReLU()
  (flatten): Flatten(start_dim=1, end_dim=-1)
  (fc1): Linear(in_features=3136, out_features=3, bias=True)
  (relu4): ReLU()
  (fc2): Linear(in_features=3, out_features=1, bias=True)
  (sigmoid): Sigmoid()
)",[1],conv3,0.9589999914169312
23,"PyTorchCNN(
  (conv1): Conv2d(1, 16, kernel_size=(3, 3), stride=(1, 1), padding=(1, 1))
  (relu1): ReLU()
  (pool1): MaxPool2d(kernel_size=2, stride=2, padding=0, dilation=1, ceil_mode=False)
  (conv2): Conv2d(16, 32, kernel_size=(3, 3), stride=(1, 1), padding=(1, 1))
  (relu2): ReLU()
  (pool2): MaxPool2d(kernel_size=2, stride=2, padding=0, dilation=1, ceil_mode=False)
  (conv3): Conv2d(32, 64, kernel_size=(3, 3), stride=(1, 1), padding=(1, 1))
  (relu3): ReLU()
  (flatten): Flatten(start_dim=1, end_dim=-1)
  (fc1): Linear(in_features=3136, out_features=3, bias=True)
  (relu4): ReLU()
  (fc2): Linear(in_features=3, out_features=1, bias=True)
  (sigmoid): Sigmoid()
)",[1],fc1,0.6840000152587891
24,"PyTorchCNN(
  (conv1): Conv2d(1, 16, kernel_size=(3, 3), stride=(1, 1), padding=(1, 1))
  (relu1): ReLU()
  (pool1): MaxPool2d(kernel_size=2, stride=2, padding=0, dilation=1, ceil_mode=False)
  (conv2): Conv2d(16, 32, kernel_size=(3, 3), stride=(1, 1), padding=(1, 1))
  (relu2): ReLU()
  (pool2): MaxPool2d(kernel_size=2, stride=2, padding=0, dilation=1, ceil_mode=False)
  (conv3): Conv2d(32, 64, kernel_size=(3, 3), stride=(1, 1), padding=(1, 1))
  (relu3): ReLU()
  (flatten): Flatten(start_dim=1, end_dim=-1)
  (fc1): Linear(in_features=3136, out_features=3, bias=True)
  (relu4): ReLU()
  (fc2): Linear(in_features=3, out_features=1, bias=True)
  (sigmoid): Sigmoid()
)",[2],conv1,0.9430000185966492
25,"PyTorchCNN(
  (conv1): Conv2d(1, 16, kernel_size=(3, 3), stride=(1, 1), padding=(1, 1))
  (relu1): ReLU()
  (pool1): MaxPool2d(kernel_size=2, stride=2, padding=0, dilation=1, ceil_mode=False)
  (conv2): Conv2d(16, 32, kernel_size=(3, 3), stride=(1, 1), padding=(1, 1))
  (relu2): ReLU()
  (pool2): MaxPool2d(kernel_size=2, stride=2, padding=0, dilation=1, ceil_mode=False)
  (conv3): Conv2d(32, 64, kernel_size=(3, 3), stride=(1, 1), padding=(1, 1))
  (relu3): ReLU()
  (flatten): Flatten(start_dim=1, end_dim=-1)
  (fc1): Linear(in_features=3136, out_features=3, bias=True)
  (relu4): ReLU()
  (fc2): Linear(in_features=3, out_features=1, bias=True)
  (sigmoid): Sigmoid()
)",[2],conv2,0.9330000281333923
26,"PyTorchCNN(
  (conv1): Conv2d(1, 16, kernel_size=(3, 3), stride=(1, 1), padding=(1, 1))
  (relu1): ReLU()
  (pool1): MaxPool2d(kernel_size=2, stride=2, padding=0, dilation=1, ceil_mode=False)
  (conv2): Conv2d(16, 32, kernel_size=(3, 3), stride=(1, 1), padding=(1, 1))
  (relu2): ReLU()
  (pool2): MaxPool2d(kernel_size=2, stride=2, padding=0, dilation=1, ceil_mode=False)
  (conv3): Conv2d(32, 64, kernel_size=(3, 3), stride=(1, 1), padding=(1, 1))
  (relu3): ReLU()
  (flatten): Flatten(start_dim=1, end_dim=-1)
  (fc1): Linear(in_features=3136, out_features=3, bias=True)
  (relu4): ReLU()
  (fc2): Linear(in_features=3, out_features=1, bias=True)
  (sigmoid): Sigmoid()
)",[2],conv3,0.8970000147819519
27,"PyTorchCNN(
  (conv1): Conv2d(1, 16, kernel_size=(3, 3), stride=(1, 1), padding=(1, 1))
  (relu1): ReLU()
  (pool1): MaxPool2d(kernel_size=2, stride=2, padding=0, dilation=1, ceil_mode=False)
  (conv2): Conv2d(16, 32, kernel_size=(3, 3), stride=(1, 1), padding=(1, 1))
  (relu2): ReLU()
  (pool2): MaxPool2d(kernel_size=2, stride=2, padding=0, dilation=1, ceil_mode=False)
  (conv3): Conv2d(32, 64, kernel_size=(3, 3), stride=(1, 1), padding=(1, 1))
  (relu3): ReLU()
  (flatten): Flatten(start_dim=1, end_dim=-1)
  (fc1): Linear(in_features=3136, out_features=3, bias=True)
  (relu4): ReLU()
  (fc2): Linear(in_features=3, out_features=1, bias=True)
  (sigmoid): Sigmoid()
)",[2],fc1,0.6340000033378601
28,"PyTorchCNN(
  (conv1): Conv2d(1, 16, kernel_size=(3, 3), stride=(1, 1), padding=(1, 1))
  (relu1): ReLU()
  (pool1): MaxPool2d(kernel_size=2, stride=2, padding=0, dilation=1, ceil_mode=False)
  (conv2): Conv2d(16, 32, kernel_size=(3, 3), stride=(1, 1), padding=(1, 1))
  (relu2): ReLU()
  (pool2): MaxPool2d(kernel_size=2, stride=2, padding=0, dilation=1, ceil_mode=False)
  (conv3): Conv2d(32, 64, kernel_size=(3, 3), stride=(1, 1), padding=(1, 1))
  (relu3): ReLU()
  (flatten): Flatten(start_dim=1, end_dim=-1)
  (fc1): Linear(in_features=3136, out_features=3, bias=True)
  (relu4): ReLU()
  (fc2): Linear(in_features=3, out_features=1, bias=True)
  (sigmoid): Sigmoid()
)","[0, 1, 2]",conv1,0.9409999847412109
29,"PyTorchCNN(
  (conv1): Conv2d(1, 16, kernel_size=(3, 3), stride=(1, 1), padding=(1, 1))
  (relu1): ReLU()
  (pool1): MaxPool2d(kernel_size=2, stride=2, padding=0, dilation=1, ceil_mode=False)
  (conv2): Conv2d(16, 32, kernel_size=(3, 3), stride=(1, 1), padding=(1, 1))
  (relu2): ReLU()
  (pool2): MaxPool2d(kernel_size=2, stride=2, padding=0, dilation=1, ceil_mode=False)
  (conv3): Conv2d(32, 64, kernel_size=(3, 3), stride=(1, 1), padding=(1, 1))
  (relu3): ReLU()
  (flatten): Flatten(start_dim=1, end_dim=-1)
  (fc1): Linear(in_features=3136, out_features=3, bias=True)
  (relu4): ReLU()
  (fc2): Linear(in_features=3, out_features=1, bias=True)
  (sigmoid): Sigmoid()
)","[0, 1, 2]",conv2,0.9409999847412109
30,"PyTorchCNN(
  (conv1): Conv2d(1, 16, kernel_size=(3, 3), stride=(1, 1), padding=(1, 1))
  (relu1): ReLU()
  (pool1): MaxPool2d(kernel_size=2, stride=2, padding=0, dilation=1, ceil_mode=False)
  (conv2): Conv2d(16, 32, kernel_size=(3, 3), stride=(1, 1), padding=(1, 1))
  (relu2): ReLU()
  (pool2): MaxPool2d(kernel_size=2, stride=2, padding=0, dilation=1, ceil_mode=False)
  (conv3): Conv2d(32, 64, kernel_size=(3, 3), stride=(1, 1), padding=(1, 1))
  (relu3): ReLU()
  (flatten): Flatten(start_dim=1, end_dim=-1)
  (fc1): Linear(in_features=3136, out_features=3, bias=True)
  (relu4): ReLU()
  (fc2): Linear(in_features=3, out_features=1, bias=True)
  (sigmoid): Sigmoid()
)","[0, 1, 2]",conv3,0.9480000138282776
31,"PyTorchCNN(
  (conv1): Conv2d(1, 16, kernel_size=(3, 3), stride=(1, 1), padding=(1, 1))
  (relu1): ReLU()
  (pool1): MaxPool2d(kernel_size=2, stride=2, padding=0, dilation=1, ceil_mode=False)
  (conv2): Conv2d(16, 32, kernel_size=(3, 3), stride=(1, 1), padding=(1, 1))
  (relu2): ReLU()
  (pool2): MaxPool2d(kernel_size=2, stride=2, padding=0, dilation=1, ceil_mode=False)
  (conv3): Conv2d(32, 64, kernel_size=(3, 3), stride=(1, 1), padding=(1, 1))
  (relu3): ReLU()
  (flatten): Flatten(start_dim=1, end_dim=-1)
  (fc1): Linear(in_features=3136, out_features=3, bias=True)
  (relu4): ReLU()
  (fc2): Linear(in_features=3, out_features=1, bias=True)
  (sigmoid): Sigmoid()
)","[0, 1, 2]",fc1,0.5329999923706055
32,"PyTorchCNN(
  (conv1): Conv2d(1, 16, kernel_size=(3, 3), stride=(1, 1), padding=(1, 1))
  (relu1): ReLU()
  (pool1): MaxPool2d(kernel_size=2, stride=2, padding=0, dilation=1, ceil_mode=False)
  (conv2): Conv2d(16, 32, kernel_size=(3, 3), stride=(1, 1), padding=(1, 1))
  (relu2): ReLU()
  (pool2): MaxPool2d(kernel_size=2, stride=2, padding=0, dilation=1, ceil_mode=False)
  (conv3): Conv2d(32, 64, kernel_size=(3, 3), stride=(1, 1), padding=(1, 1))
  (relu3): ReLU()
  (flatten): Flatten(start_dim=1, end_dim=-1)
  (fc1): Linear(in_features=3136, out_features=3, bias=True)
  (relu4): ReLU()
  (fc2): Linear(in_features=3, out_features=1, bias=True)
  (sigmoid): Sigmoid()
)","[0, 1]",conv1,0.8830000162124634
33,"PyTorchCNN(
  (conv1): Conv2d(1, 16, kernel_size=(3, 3), stride=(1, 1), padding=(1, 1))
  (relu1): ReLU()
  (pool1): MaxPool2d(kernel_size=2, stride=2, padding=0, dilation=1, ceil_mode=False)
  (conv2): Conv2d(16, 32, kernel_size=(3, 3), stride=(1, 1), padding=(1, 1))
  (relu2): ReLU()
  (pool2): MaxPool2d(kernel_size=2, stride=2, padding=0, dilation=1, ceil_mode=False)
  (conv3): Conv2d(32, 64, kernel_size=(3, 3), stride=(1, 1), padding=(1, 1))
  (relu3): ReLU()
  (flatten): Flatten(start_dim=1, end_dim=-1)
  (fc1): Linear(in_features=3136, out_features=3, bias=True)
  (relu4): ReLU()
  (fc2): Linear(in_features=3, out_features=1, bias=True)
  (sigmoid): Sigmoid()
)","[0, 1]",conv2,0.9350000023841858
34,"PyTorchCNN(
  (conv1): Conv2d(1, 16, kernel_size=(3, 3), stride=(1, 1), padding=(1, 1))
  (relu1): ReLU()
  (pool1): MaxPool2d(kernel_size=2, stride=2, padding=0, dilation=1, ceil_mode=False)
  (conv2): Conv2d(16, 32, kernel_size=(3, 3), stride=(1, 1), padding=(1, 1))
  (relu2): ReLU()
  (pool2): MaxPool2d(kernel_size=2, stride=2, padding=0, dilation=1, ceil_mode=False)
  (conv3): Conv2d(32, 64, kernel_size=(3, 3), stride=(1, 1), padding=(1, 1))
  (relu3): ReLU()
  (flatten): Flatten(start_dim=1, end_dim=-1)
  (fc1): Linear(in_features=3136, out_features=3, bias=True)
  (relu4): ReLU()
  (fc2): Linear(in_features=3, out_features=1, bias=True)
  (sigmoid): Sigmoid()
)","[0, 1]",conv3,0.9089999794960022
35,"PyTorchCNN(
  (conv1): Conv2d(1, 16, kernel_size=(3, 3), stride=(1, 1), padding=(1, 1))
  (relu1): ReLU()
  (pool1): MaxPool2d(kernel_size=2, stride=2, padding=0, dilation=1, ceil_mode=False)
  (conv2): Conv2d(16, 32, kernel_size=(3, 3), stride=(1, 1), padding=(1, 1))
  (relu2): ReLU()
  (pool2): MaxPool2d(kernel_size=2, stride=2, padding=0, dilation=1, ceil_mode=False)
  (conv3): Conv2d(32, 64, kernel_size=(3, 3), stride=(1, 1), padding=(1, 1))
  (relu3): ReLU()
  (flatten): Flatten(start_dim=1, end_dim=-1)
  (fc1): Linear(in_features=3136, out_features=3, bias=True)
  (relu4): ReLU()
  (fc2): Linear(in_features=3, out_features=1, bias=True)
  (sigmoid): Sigmoid()
)","[0, 1]",fc1,0.7450000047683716
36,"PyTorchCNN(
  (conv1): Conv2d(1, 16, kernel_size=(3, 3), stride=(1, 1), padding=(1, 1))
  (relu1): ReLU()
  (pool1): MaxPool2d(kernel_size=2, stride=2, padding=0, dilation=1, ceil_mode=False)
  (conv2): Conv2d(16, 32, kernel_size=(3, 3), stride=(1, 1), padding=(1, 1))
  (relu2): ReLU()
  (pool2): MaxPool2d(kernel_size=2, stride=2, padding=0, dilation=1, ceil_mode=False)
  (conv3): Conv2d(32, 64, kernel_size=(3, 3), stride=(1, 1), padding=(1, 1))
  (relu3): ReLU()
  (flatten): Flatten(start_dim=1, end_dim=-1)
  (fc1): Linear(in_features=3136, out_features=3, bias=True)
  (relu4): ReLU()
  (fc2): Linear(in_features=3, out_features=1, bias=True)
  (sigmoid): Sigmoid()
)","[0, 2]",conv1,0.9340000152587891
37,"PyTorchCNN(
  (conv1): Conv2d(1, 16, kernel_size=(3, 3), stride=(1, 1), padding=(1, 1))
  (relu1): ReLU()
  (pool1): MaxPool2d(kernel_size=2, stride=2, padding=0, dilation=1, ceil_mode=False)
  (conv2): Conv2d(16, 32, kernel_size=(3, 3), stride=(1, 1), padding=(1, 1))
  (relu2): ReLU()
  (pool2): MaxPool2d(kernel_size=2, stride=2, padding=0, dilation=1, ceil_mode=False)
  (conv3): Conv2d(32, 64, kernel_size=(3, 3), stride=(1, 1), padding=(1, 1))
  (relu3): ReLU()
  (flatten): Flatten(start_dim=1, end_dim=-1)
  (fc1): Linear(in_features=3136, out_features=3, bias=True)
  (relu4): ReLU()
  (fc2): Linear(in_features=3, out_features=1, bias=True)
  (sigmoid): Sigmoid()
)","[0, 2]",conv2,0.925000011920929
38,"PyTorchCNN(
  (conv1): Conv2d(1, 16, kernel_size=(3, 3), stride=(1, 1), padding=(1, 1))
  (relu1): ReLU()
  (pool1): MaxPool2d(kernel_size=2, stride=2, padding=0, dilation=1, ceil_mode=False)
  (conv2): Conv2d(16, 32, kernel_size=(3, 3), stride=(1, 1), padding=(1, 1))
  (relu2): ReLU()
  (pool2): MaxPool2d(kernel_size=2, stride=2, padding=0, dilation=1, ceil_mode=False)
  (conv3): Conv2d(32, 64, kernel_size=(3, 3), stride=(1, 1), padding=(1, 1))
  (relu3): ReLU()
  (flatten): Flatten(start_dim=1, end_dim=-1)
  (fc1): Linear(in_features=3136, out_features=3, bias=True)
  (relu4): ReLU()
  (fc2): Linear(in_features=3, out_features=1, bias=True)
  (sigmoid): Sigmoid()
)","[0, 2]",conv3,0.9200000166893005
39,"PyTorchCNN(
  (conv1): Conv2d(1, 16, kernel_size=(3, 3), stride=(1, 1), padding=(1, 1))
  (relu1): ReLU()
  (pool1): MaxPool2d(kernel_size=2, stride=2, padding=0, dilation=1, ceil_mode=False)
  (conv2): Conv2d(16, 32, kernel_size=(3, 3), stride=(1, 1), padding=(1, 1))
  (relu2): ReLU()
  (pool2): MaxPool2d(kernel_size=2, stride=2, padding=0, dilation=1, ceil_mode=False)
  (conv3): Conv2d(32, 64, kernel_size=(3, 3), stride=(1, 1), padding=(1, 1))
  (relu3): ReLU()
  (flatten): Flatten(start_dim=1, end_dim=-1)
  (fc1): Linear(in_features=3136, out_features=3, bias=True)
  (relu4): ReLU()
  (fc2): Linear(in_features=3, out_features=1, bias=True)
  (sigmoid): Sigmoid()
)","[0, 2]",fc1,0.746999979019165
40,"PyTorchCNN(
  (conv1): Conv2d(1, 16, kernel_size=(3, 3), stride=(1, 1), padding=(1, 1))
  (relu1): ReLU()
  (pool1): MaxPool2d(kernel_size=2, stride=2, padding=0, dilation=1, ceil_mode=False)
  (conv2): Conv2d(16, 32, kernel_size=(3, 3), stride=(1, 1), padding=(1, 1))
  (relu2): ReLU()
  (pool2): MaxPool2d(kernel_size=2, stride=2, padding=0, dilation=1, ceil_mode=False)
  (conv3): Conv2d(32, 64, kernel_size=(3, 3), stride=(1, 1), padding=(1, 1))
  (relu3): ReLU()
  (flatten): Flatten(start_dim=1, end_dim=-1)
  (fc1): Linear(in_features=3136, out_features=3, bias=True)
  (relu4): ReLU()
  (fc2): Linear(in_features=3, out_features=1, bias=True)
  (sigmoid): Sigmoid()
)","[1, 2]",conv1,0.9160000085830688
41,"PyTorchCNN(
  (conv1): Conv2d(1, 16, kernel_size=(3, 3), stride=(1, 1), padding=(1, 1))
  (relu1): ReLU()
  (pool1): MaxPool2d(kernel_size=2, stride=2, padding=0, dilation=1, ceil_mode=False)
  (conv2): Conv2d(16, 32, kernel_size=(3, 3), stride=(1, 1), padding=(1, 1))
  (relu2): ReLU()
  (pool2): MaxPool2d(kernel_size=2, stride=2, padding=0, dilation=1, ceil_mode=False)
  (conv3): Conv2d(32, 64, kernel_size=(3, 3), stride=(1, 1), padding=(1, 1))
  (relu3): ReLU()
  (flatten): Flatten(start_dim=1, end_dim=-1)
  (fc1): Linear(in_features=3136, out_features=3, bias=True)
  (relu4): ReLU()
  (fc2): Linear(in_features=3, out_features=1, bias=True)
  (sigmoid): Sigmoid()
)","[1, 2]",conv2,0.9070000052452087
42,"PyTorchCNN(
  (conv1): Conv2d(1, 16, kernel_size=(3, 3), stride=(1, 1), padding=(1, 1))
  (relu1): ReLU()
  (pool1): MaxPool2d(kernel_size=2, stride=2, padding=0, dilation=1, ceil_mode=False)
  (conv2): Conv2d(16, 32, kernel_size=(3, 3), stride=(1, 1), padding=(1, 1))
  (relu2): ReLU()
  (pool2): MaxPool2d(kernel_size=2, stride=2, padding=0, dilation=1, ceil_mode=False)
  (conv3): Conv2d(32, 64, kernel_size=(3, 3), stride=(1, 1), padding=(1, 1))
  (relu3): ReLU()
  (flatten): Flatten(start_dim=1, end_dim=-1)
  (fc1): Linear(in_features=3136, out_features=3, bias=True)
  (relu4): ReLU()
  (fc2): Linear(in_features=3, out_features=1, bias=True)
  (sigmoid): Sigmoid()
)","[1, 2]",conv3,0.9150000214576721
43,"PyTorchCNN(
  (conv1): Conv2d(1, 16, kernel_size=(3, 3), stride=(1, 1), padding=(1, 1))
  (relu1): ReLU()
  (pool1): MaxPool2d(kernel_size=2, stride=2, padding=0, dilation=1, ceil_mode=False)
  (conv2): Conv2d(16, 32, kernel_size=(3, 3), stride=(1, 1), padding=(1, 1))
  (relu2): ReLU()
  (pool2): MaxPool2d(kernel_size=2, stride=2, padding=0, dilation=1, ceil_mode=False)
  (conv3): Conv2d(32, 64, kernel_size=(3, 3), stride=(1, 1), padding=(1, 1))
  (relu3): ReLU()
  (flatten): Flatten(start_dim=1, end_dim=-1)
  (fc1): Linear(in_features=3136, out_features=3, bias=True)
  (relu4): ReLU()
  (fc2): Linear(in_features=3, out_features=1, bias=True)
  (sigmoid): Sigmoid()
)","[1, 2]",fc1,0.7990000247955322
44,"PyTorchCNN(
  (conv1): Conv2d(1, 16, kernel_size=(3, 3), stride=(1, 1), padding=(1, 1))
  (relu1): ReLU()
  (pool1): MaxPool2d(kernel_size=2, stride=2, padding=0, dilation=1, ceil_mode=False)
  (conv2): Conv2d(16, 32, kernel_size=(3, 3), stride=(1, 1), padding=(1, 1))
  (relu2): ReLU()
  (pool2): MaxPool2d(kernel_size=2, stride=2, padding=0, dilation=1, ceil_mode=False)
  (conv3): Conv2d(32, 64, kernel_size=(3, 3), stride=(1, 1), padding=(1, 1))
  (relu3): ReLU()
  (flatten): Flatten(start_dim=1, end_dim=-1)
  (fc1): Linear(in_features=3136, out_features=3, bias=True)
  (relu4): ReLU()
  (fc2): Linear(in_features=3, out_features=1, bias=True)
  (sigmoid): Sigmoid()
)",[0],conv1,0.9100000262260437
45,"PyTorchCNN(
  (conv1): Conv2d(1, 16, kernel_size=(3, 3), stride=(1, 1), padding=(1, 1))
  (relu1): ReLU()
  (pool1): MaxPool2d(kernel_size=2, stride=2, padding=0, dilation=1, ceil_mode=False)
  (conv2): Conv2d(16, 32, kernel_size=(3, 3), stride=(1, 1), padding=(1, 1))
  (relu2): ReLU()
  (pool2): MaxPool2d(kernel_size=2, stride=2, padding=0, dilation=1, ceil_mode=False)
  (conv3): Conv2d(32, 64, kernel_size=(3, 3), stride=(1, 1), padding=(1, 1))
  (relu3): ReLU()
  (flatten): Flatten(start_dim=1, end_dim=-1)
  (fc1): Linear(in_features=3136, out_features=3, bias=True)
  (relu4): ReLU()
  (fc2): Linear(in_features=3, out_features=1, bias=True)
  (sigmoid): Sigmoid()
)",[0],conv2,0.9139999747276306
46,"PyTorchCNN(
  (conv1): Conv2d(1, 16, kernel_size=(3, 3), stride=(1, 1), padding=(1, 1))
  (relu1): ReLU()
  (pool1): MaxPool2d(kernel_size=2, stride=2, padding=0, dilation=1, ceil_mode=False)
  (conv2): Conv2d(16, 32, kernel_size=(3, 3), stride=(1, 1), padding=(1, 1))
  (relu2): ReLU()
  (pool2): MaxPool2d(kernel_size=2, stride=2, padding=0, dilation=1, ceil_mode=False)
  (conv3): Conv2d(32, 64, kernel_size=(3, 3), stride=(1, 1), padding=(1, 1))
  (relu3): ReLU()
  (flatten): Flatten(start_dim=1, end_dim=-1)
  (fc1): Linear(in_features=3136, out_features=3, bias=True)
  (relu4): ReLU()
  (fc2): Linear(in_features=3, out_features=1, bias=True)
  (sigmoid): Sigmoid()
)",[0],conv3,0.9139999747276306
47,"PyTorchCNN(
  (conv1): Conv2d(1, 16, kernel_size=(3, 3), stride=(1, 1), padding=(1, 1))
  (relu1): ReLU()
  (pool1): MaxPool2d(kernel_size=2, stride=2, padding=0, dilation=1, ceil_mode=False)
  (conv2): Conv2d(16, 32, kernel_size=(3, 3), stride=(1, 1), padding=(1, 1))
  (relu2): ReLU()
  (pool2): MaxPool2d(kernel_size=2, stride=2, padding=0, dilation=1, ceil_mode=False)
  (conv3): Conv2d(32, 64, kernel_size=(3, 3), stride=(1, 1), padding=(1, 1))
  (relu3): ReLU()
  (flatten): Flatten(start_dim=1, end_dim=-1)
  (fc1): Linear(in_features=3136, out_features=3, bias=True)
  (relu4): ReLU()
  (fc2): Linear(in_features=3, out_features=1, bias=True)
  (sigmoid): Sigmoid()
)",[0],fc1,0.8270000219345093
48,"PyTorchCNN(
  (conv1): Conv2d(1, 16, kernel_size=(3, 3), stride=(1, 1), padding=(1, 1))
  (relu1): ReLU()
  (pool1): MaxPool2d(kernel_size=2, stride=2, padding=0, dilation=1, ceil_mode=False)
  (conv2): Conv2d(16, 32, kernel_size=(3, 3), stride=(1, 1), padding=(1, 1))
  (relu2): ReLU()
  (pool2): MaxPool2d(kernel_size=2, stride=2, padding=0, dilation=1, ceil_mode=False)
  (conv3): Conv2d(32, 64, kernel_size=(3, 3), stride=(1, 1), padding=(1, 1))
  (relu3): ReLU()
  (flatten): Flatten(start_dim=1, end_dim=-1)
  (fc1): Linear(in_features=3136, out_features=3, bias=True)
  (relu4): ReLU()
  (fc2): Linear(in_features=3, out_features=1, bias=True)
  (sigmoid): Sigmoid()
)",[1],conv1,0.9629999995231628
49,"PyTorchCNN(
  (conv1): Conv2d(1, 16, kernel_size=(3, 3), stride=(1, 1), padding=(1, 1))
  (relu1): ReLU()
  (pool1): MaxPool2d(kernel_size=2, stride=2, padding=0, dilation=1, ceil_mode=False)
  (conv2): Conv2d(16, 32, kernel_size=(3, 3), stride=(1, 1), padding=(1, 1))
  (relu2): ReLU()
  (pool2): MaxPool2d(kernel_size=2, stride=2, padding=0, dilation=1, ceil_mode=False)
  (conv3): Conv2d(32, 64, kernel_size=(3, 3), stride=(1, 1), padding=(1, 1))
  (relu3): ReLU()
  (flatten): Flatten(start_dim=1, end_dim=-1)
  (fc1): Linear(in_features=3136, out_features=3, bias=True)
  (relu4): ReLU()
  (fc2): Linear(in_features=3, out_features=1, bias=True)
  (sigmoid): Sigmoid()
)",[1],conv2,0.9629999995231628
50,"PyTorchCNN(
  (conv1): Conv2d(1, 16, kernel_size=(3, 3), stride=(1, 1), padding=(1, 1))
  (relu1): ReLU()
  (pool1): MaxPool2d(kernel_size=2, stride=2, padding=0, dilation=1, ceil_mode=False)
  (conv2): Conv2d(16, 32, kernel_size=(3, 3), stride=(1, 1), padding=(1, 1))
  (relu2): ReLU()
  (pool2): MaxPool2d(kernel_size=2, stride=2, padding=0, dilation=1, ceil_mode=False)
  (conv3): Conv2d(32, 64, kernel_size=(3, 3), stride=(1, 1), padding=(1, 1))
  (relu3): ReLU()
  (flatten): Flatten(start_dim=1, end_dim=-1)
  (fc1): Linear(in_features=3136, out_features=3, bias=True)
  (relu4): ReLU()
  (fc2): Linear(in_features=3, out_features=1, bias=True)
  (sigmoid): Sigmoid()
)",[1],conv3,0.9589999914169312
51,"PyTorchCNN(
  (conv1): Conv2d(1, 16, kernel_size=(3, 3), stride=(1, 1), padding=(1, 1))
  (relu1): ReLU()
  (pool1): MaxPool2d(kernel_size=2, stride=2, padding=0, dilation=1, ceil_mode=False)
  (conv2): Conv2d(16, 32, kernel_size=(3, 3), stride=(1, 1), padding=(1, 1))
  (relu2): ReLU()
  (pool2): MaxPool2d(kernel_size=2, stride=2, padding=0, dilation=1, ceil_mode=False)
  (conv3): Conv2d(32, 64, kernel_size=(3, 3), stride=(1, 1), padding=(1, 1))
  (relu3): ReLU()
  (flatten): Flatten(start_dim=1, end_dim=-1)
  (fc1): Linear(in_features=3136, out_features=3, bias=True)
  (relu4): ReLU()
  (fc2): Linear(in_features=3, out_features=1, bias=True)
  (sigmoid): Sigmoid()
)",[1],fc1,0.765999972820282
52,"PyTorchCNN(
  (conv1): Conv2d(1, 16, kernel_size=(3, 3), stride=(1, 1), padding=(1, 1))
  (relu1): ReLU()
  (pool1): MaxPool2d(kernel_size=2, stride=2, padding=0, dilation=1, ceil_mode=False)
  (conv2): Conv2d(16, 32, kernel_size=(3, 3), stride=(1, 1), padding=(1, 1))
  (relu2): ReLU()
  (pool2): MaxPool2d(kernel_size=2, stride=2, padding=0, dilation=1, ceil_mode=False)
  (conv3): Conv2d(32, 64, kernel_size=(3, 3), stride=(1, 1), padding=(1, 1))
  (relu3): ReLU()
  (flatten): Flatten(start_dim=1, end_dim=-1)
  (fc1): Linear(in_features=3136, out_features=3, bias=True)
  (relu4): ReLU()
  (fc2): Linear(in_features=3, out_features=1, bias=True)
  (sigmoid): Sigmoid()
)",[2],conv1,0.9330000281333923
53,"PyTorchCNN(
  (conv1): Conv2d(1, 16, kernel_size=(3, 3), stride=(1, 1), padding=(1, 1))
  (relu1): ReLU()
  (pool1): MaxPool2d(kernel_size=2, stride=2, padding=0, dilation=1, ceil_mode=False)
  (conv2): Conv2d(16, 32, kernel_size=(3, 3), stride=(1, 1), padding=(1, 1))
  (relu2): ReLU()
  (pool2): MaxPool2d(kernel_size=2, stride=2, padding=0, dilation=1, ceil_mode=False)
  (conv3): Conv2d(32, 64, kernel_size=(3, 3), stride=(1, 1), padding=(1, 1))
  (relu3): ReLU()
  (flatten): Flatten(start_dim=1, end_dim=-1)
  (fc1): Linear(in_features=3136, out_features=3, bias=True)
  (relu4): ReLU()
  (fc2): Linear(in_features=3, out_features=1, bias=True)
  (sigmoid): Sigmoid()
)",[2],conv2,0.9229999780654907
54,"PyTorchCNN(
  (conv1): Conv2d(1, 16, kernel_size=(3, 3), stride=(1, 1), padding=(1, 1))
  (relu1): ReLU()
  (pool1): MaxPool2d(kernel_size=2, stride=2, padding=0, dilation=1, ceil_mode=False)
  (conv2): Conv2d(16, 32, kernel_size=(3, 3), stride=(1, 1), padding=(1, 1))
  (relu2): ReLU()
  (pool2): MaxPool2d(kernel_size=2, stride=2, padding=0, dilation=1, ceil_mode=False)
  (conv3): Conv2d(32, 64, kernel_size=(3, 3), stride=(1, 1), padding=(1, 1))
  (relu3): ReLU()
  (flatten): Flatten(start_dim=1, end_dim=-1)
  (fc1): Linear(in_features=3136, out_features=3, bias=True)
  (relu4): ReLU()
  (fc2): Linear(in_features=3, out_features=1, bias=True)
  (sigmoid): Sigmoid()
)",[2],conv3,0.8970000147819519
55,"PyTorchCNN(
  (conv1): Conv2d(1, 16, kernel_size=(3, 3), stride=(1, 1), padding=(1, 1))
  (relu1): ReLU()
  (pool1): MaxPool2d(kernel_size=2, stride=2, padding=0, dilation=1, ceil_mode=False)
  (conv2): Conv2d(16, 32, kernel_size=(3, 3), stride=(1, 1), padding=(1, 1))
  (relu2): ReLU()
  (pool2): MaxPool2d(kernel_size=2, stride=2, padding=0, dilation=1, ceil_mode=False)
  (conv3): Conv2d(32, 64, kernel_size=(3, 3), stride=(1, 1), padding=(1, 1))
  (relu3): ReLU()
  (flatten): Flatten(start_dim=1, end_dim=-1)
  (fc1): Linear(in_features=3136, out_features=3, bias=True)
  (relu4): ReLU()
  (fc2): Linear(in_features=3, out_features=1, bias=True)
  (sigmoid): Sigmoid()
)",[2],fc1,0.7429999709129333
56,"PyTorchCNN(
  (conv1): Conv2d(1, 16, kernel_size=(3, 3), stride=(1, 1), padding=(1, 1))
  (relu1): ReLU()
  (pool1): MaxPool2d(kernel_size=2, stride=2, padding=0, dilation=1, ceil_mode=False)
  (conv2): Conv2d(16, 32, kernel_size=(3, 3), stride=(1, 1), padding=(1, 1))
  (relu2): ReLU()
  (pool2): MaxPool2d(kernel_size=2, stride=2, padding=0, dilation=1, ceil_mode=False)
  (conv3): Conv2d(32, 64, kernel_size=(3, 3), stride=(1, 1), padding=(1, 1))
  (relu3): ReLU()
  (flatten): Flatten(start_dim=1, end_dim=-1)
  (fc1): Linear(in_features=3136, out_features=3, bias=True)
  (relu4): ReLU()
  (fc2): Linear(in_features=3, out_features=1, bias=True)
  (sigmoid): Sigmoid()
)","[0, 1, 2]",conv1,0.9179999828338623
57,"PyTorchCNN(
  (conv1): Conv2d(1, 16, kernel_size=(3, 3), stride=(1, 1), padding=(1, 1))
  (relu1): ReLU()
  (pool1): MaxPool2d(kernel_size=2, stride=2, padding=0, dilation=1, ceil_mode=False)
  (conv2): Conv2d(16, 32, kernel_size=(3, 3), stride=(1, 1), padding=(1, 1))
  (relu2): ReLU()
  (pool2): MaxPool2d(kernel_size=2, stride=2, padding=0, dilation=1, ceil_mode=False)
  (conv3): Conv2d(32, 64, kernel_size=(3, 3), stride=(1, 1), padding=(1, 1))
  (relu3): ReLU()
  (flatten): Flatten(start_dim=1, end_dim=-1)
  (fc1): Linear(in_features=3136, out_features=3, bias=True)
  (relu4): ReLU()
  (fc2): Linear(in_features=3, out_features=1, bias=True)
  (sigmoid): Sigmoid()
)","[0, 1, 2]",conv2,0.925000011920929
58,"PyTorchCNN(
  (conv1): Conv2d(1, 16, kernel_size=(3, 3), stride=(1, 1), padding=(1, 1))
  (relu1): ReLU()
  (pool1): MaxPool2d(kernel_size=2, stride=2, padding=0, dilation=1, ceil_mode=False)
  (conv2): Conv2d(16, 32, kernel_size=(3, 3), stride=(1, 1), padding=(1, 1))
  (relu2): ReLU()
  (pool2): MaxPool2d(kernel_size=2, stride=2, padding=0, dilation=1, ceil_mode=False)
  (conv3): Conv2d(32, 64, kernel_size=(3, 3), stride=(1, 1), padding=(1, 1))
  (relu3): ReLU()
  (flatten): Flatten(start_dim=1, end_dim=-1)
  (fc1): Linear(in_features=3136, out_features=3, bias=True)
  (relu4): ReLU()
  (fc2): Linear(in_features=3, out_features=1, bias=True)
  (sigmoid): Sigmoid()
)","[0, 1, 2]",conv3,0.9629999995231628
59,"PyTorchCNN(
  (conv1): Conv2d(1, 16, kernel_size=(3, 3), stride=(1, 1), padding=(1, 1))
  (relu1): ReLU()
  (pool1): MaxPool2d(kernel_size=2, stride=2, padding=0, dilation=1, ceil_mode=False)
  (conv2): Conv2d(16, 32, kernel_size=(3, 3), stride=(1, 1), padding=(1, 1))
  (relu2): ReLU()
  (pool2): MaxPool2d(kernel_size=2, stride=2, padding=0, dilation=1, ceil_mode=False)
  (conv3): Conv2d(32, 64, kernel_size=(3, 3), stride=(1, 1), padding=(1, 1))
  (relu3): ReLU()
  (flatten): Flatten(start_dim=1, end_dim=-1)
  (fc1): Linear(in_features=3136, out_features=3, bias=True)
  (relu4): ReLU()
  (fc2): Linear(in_features=3, out_features=1, bias=True)
  (sigmoid): Sigmoid()
)","[0, 1, 2]",fc1,0.5320000052452087
60,"PyTorchCNN(
  (conv1): Conv2d(1, 16, kernel_size=(3, 3), stride=(1, 1), padding=(1, 1))
  (relu1): ReLU()
  (pool1): MaxPool2d(kernel_size=2, stride=2, padding=0, dilation=1, ceil_mode=False)
  (conv2): Conv2d(16, 32, kernel_size=(3, 3), stride=(1, 1), padding=(1, 1))
  (relu2): ReLU()
  (pool2): MaxPool2d(kernel_size=2, stride=2, padding=0, dilation=1, ceil_mode=False)
  (conv3): Conv2d(32, 64, kernel_size=(3, 3), stride=(1, 1), padding=(1, 1))
  (relu3): ReLU()
  (flatten): Flatten(start_dim=1, end_dim=-1)
  (fc1): Linear(in_features=3136, out_features=3, bias=True)
  (relu4): ReLU()
  (fc2): Linear(in_features=3, out_features=1, bias=True)
  (sigmoid): Sigmoid()
)","[0, 1]",conv1,0.9079999923706055
61,"PyTorchCNN(
  (conv1): Conv2d(1, 16, kernel_size=(3, 3), stride=(1, 1), padding=(1, 1))
  (relu1): ReLU()
  (pool1): MaxPool2d(kernel_size=2, stride=2, padding=0, dilation=1, ceil_mode=False)
  (conv2): Conv2d(16, 32, kernel_size=(3, 3), stride=(1, 1), padding=(1, 1))
  (relu2): ReLU()
  (pool2): MaxPool2d(kernel_size=2, stride=2, padding=0, dilation=1, ceil_mode=False)
  (conv3): Conv2d(32, 64, kernel_size=(3, 3), stride=(1, 1), padding=(1, 1))
  (relu3): ReLU()
  (flatten): Flatten(start_dim=1, end_dim=-1)
  (fc1): Linear(in_features=3136, out_features=3, bias=True)
  (relu4): ReLU()
  (fc2): Linear(in_features=3, out_features=1, bias=True)
  (sigmoid): Sigmoid()
)","[0, 1]",conv2,0.9100000262260437
62,"PyTorchCNN(
  (conv1): Conv2d(1, 16, kernel_size=(3, 3), stride=(1, 1), padding=(1, 1))
  (relu1): ReLU()
  (pool1): MaxPool2d(kernel_size=2, stride=2, padding=0, dilation=1, ceil_mode=False)
  (conv2): Conv2d(16, 32, kernel_size=(3, 3), stride=(1, 1), padding=(1, 1))
  (relu2): ReLU()
  (pool2): MaxPool2d(kernel_size=2, stride=2, padding=0, dilation=1, ceil_mode=False)
  (conv3): Conv2d(32, 64, kernel_size=(3, 3), stride=(1, 1), padding=(1, 1))
  (relu3): ReLU()
  (flatten): Flatten(start_dim=1, end_dim=-1)
  (fc1): Linear(in_features=3136, out_features=3, bias=True)
  (relu4): ReLU()
  (fc2): Linear(in_features=3, out_features=1, bias=True)
  (sigmoid): Sigmoid()
)","[0, 1]",conv3,0.9110000133514404
63,"PyTorchCNN(
  (conv1): Conv2d(1, 16, kernel_size=(3, 3), stride=(1, 1), padding=(1, 1))
  (relu1): ReLU()
  (pool1): MaxPool2d(kernel_size=2, stride=2, padding=0, dilation=1, ceil_mode=False)
  (conv2): Conv2d(16, 32, kernel_size=(3, 3), stride=(1, 1), padding=(1, 1))
  (relu2): ReLU()
  (pool2): MaxPool2d(kernel_size=2, stride=2, padding=0, dilation=1, ceil_mode=False)
  (conv3): Conv2d(32, 64, kernel_size=(3, 3), stride=(1, 1), padding=(1, 1))
  (relu3): ReLU()
  (flatten): Flatten(start_dim=1, end_dim=-1)
  (fc1): Linear(in_features=3136, out_features=3, bias=True)
  (relu4): ReLU()
  (fc2): Linear(in_features=3, out_features=1, bias=True)
  (sigmoid): Sigmoid()
)","[0, 1]",fc1,0.5490000247955322
64,"PyTorchCNN(
  (conv1): Conv2d(1, 16, kernel_size=(3, 3), stride=(1, 1), padding=(1, 1))
  (relu1): ReLU()
  (pool1): MaxPool2d(kernel_size=2, stride=2, padding=0, dilation=1, ceil_mode=False)
  (conv2): Conv2d(16, 32, kernel_size=(3, 3), stride=(1, 1), padding=(1, 1))
  (relu2): ReLU()
  (pool2): MaxPool2d(kernel_size=2, stride=2, padding=0, dilation=1, ceil_mode=False)
  (conv3): Conv2d(32, 64, kernel_size=(3, 3), stride=(1, 1), padding=(1, 1))
  (relu3): ReLU()
  (flatten): Flatten(start_dim=1, end_dim=-1)
  (fc1): Linear(in_features=3136, out_features=3, bias=True)
  (relu4): ReLU()
  (fc2): Linear(in_features=3, out_features=1, bias=True)
  (sigmoid): Sigmoid()
)","[0, 2]",conv1,0.9369999766349792
65,"PyTorchCNN(
  (conv1): Conv2d(1, 16, kernel_size=(3, 3), stride=(1, 1), padding=(1, 1))
  (relu1): ReLU()
  (pool1): MaxPool2d(kernel_size=2, stride=2, padding=0, dilation=1, ceil_mode=False)
  (conv2): Conv2d(16, 32, kernel_size=(3, 3), stride=(1, 1), padding=(1, 1))
  (relu2): ReLU()
  (pool2): MaxPool2d(kernel_size=2, stride=2, padding=0, dilation=1, ceil_mode=False)
  (conv3): Conv2d(32, 64, kernel_size=(3, 3), stride=(1, 1), padding=(1, 1))
  (relu3): ReLU()
  (flatten): Flatten(start_dim=1, end_dim=-1)
  (fc1): Linear(in_features=3136, out_features=3, bias=True)
  (relu4): ReLU()
  (fc2): Linear(in_features=3, out_features=1, bias=True)
  (sigmoid): Sigmoid()
)","[0, 2]",conv2,0.9259999990463257
66,"PyTorchCNN(
  (conv1): Conv2d(1, 16, kernel_size=(3, 3), stride=(1, 1), padding=(1, 1))
  (relu1): ReLU()
  (pool1): MaxPool2d(kernel_size=2, stride=2, padding=0, dilation=1, ceil_mode=False)
  (conv2): Conv2d(16, 32, kernel_size=(3, 3), stride=(1, 1), padding=(1, 1))
  (relu2): ReLU()
  (pool2): MaxPool2d(kernel_size=2, stride=2, padding=0, dilation=1, ceil_mode=False)
  (conv3): Conv2d(32, 64, kernel_size=(3, 3), stride=(1, 1), padding=(1, 1))
  (relu3): ReLU()
  (flatten): Flatten(start_dim=1, end_dim=-1)
  (fc1): Linear(in_features=3136, out_features=3, bias=True)
  (relu4): ReLU()
  (fc2): Linear(in_features=3, out_features=1, bias=True)
  (sigmoid): Sigmoid()
)","[0, 2]",conv3,0.9150000214576721
67,"PyTorchCNN(
  (conv1): Conv2d(1, 16, kernel_size=(3, 3), stride=(1, 1), padding=(1, 1))
  (relu1): ReLU()
  (pool1): MaxPool2d(kernel_size=2, stride=2, padding=0, dilation=1, ceil_mode=False)
  (conv2): Conv2d(16, 32, kernel_size=(3, 3), stride=(1, 1), padding=(1, 1))
  (relu2): ReLU()
  (pool2): MaxPool2d(kernel_size=2, stride=2, padding=0, dilation=1, ceil_mode=False)
  (conv3): Conv2d(32, 64, kernel_size=(3, 3), stride=(1, 1), padding=(1, 1))
  (relu3): ReLU()
  (flatten): Flatten(start_dim=1, end_dim=-1)
  (fc1): Linear(in_features=3136, out_features=3, bias=True)
  (relu4): ReLU()
  (fc2): Linear(in_features=3, out_features=1, bias=True)
  (sigmoid): Sigmoid()
)","[0, 2]",fc1,0.6140000224113464
68,"PyTorchCNN(
  (conv1): Conv2d(1, 16, kernel_size=(3, 3), stride=(1, 1), padding=(1, 1))
  (relu1): ReLU()
  (pool1): MaxPool2d(kernel_size=2, stride=2, padding=0, dilation=1, ceil_mode=False)
  (conv2): Conv2d(16, 32, kernel_size=(3, 3), stride=(1, 1), padding=(1, 1))
  (relu2): ReLU()
  (pool2): MaxPool2d(kernel_size=2, stride=2, padding=0, dilation=1, ceil_mode=False)
  (conv3): Conv2d(32, 64, kernel_size=(3, 3), stride=(1, 1), padding=(1, 1))
  (relu3): ReLU()
  (flatten): Flatten(start_dim=1, end_dim=-1)
  (fc1): Linear(in_features=3136, out_features=3, bias=True)
  (relu4): ReLU()
  (fc2): Linear(in_features=3, out_features=1, bias=True)
  (sigmoid): Sigmoid()
)","[1, 2]",conv1,0.9309999942779541
69,"PyTorchCNN(
  (conv1): Conv2d(1, 16, kernel_size=(3, 3), stride=(1, 1), padding=(1, 1))
  (relu1): ReLU()
  (pool1): MaxPool2d(kernel_size=2, stride=2, padding=0, dilation=1, ceil_mode=False)
  (conv2): Conv2d(16, 32, kernel_size=(3, 3), stride=(1, 1), padding=(1, 1))
  (relu2): ReLU()
  (pool2): MaxPool2d(kernel_size=2, stride=2, padding=0, dilation=1, ceil_mode=False)
  (conv3): Conv2d(32, 64, kernel_size=(3, 3), stride=(1, 1), padding=(1, 1))
  (relu3): ReLU()
  (flatten): Flatten(start_dim=1, end_dim=-1)
  (fc1): Linear(in_features=3136, out_features=3, bias=True)
  (relu4): ReLU()
  (fc2): Linear(in_features=3, out_features=1, bias=True)
  (sigmoid): Sigmoid()
)","[1, 2]",conv2,0.9110000133514404
70,"PyTorchCNN(
  (conv1): Conv2d(1, 16, kernel_size=(3, 3), stride=(1, 1), padding=(1, 1))
  (relu1): ReLU()
  (pool1): MaxPool2d(kernel_size=2, stride=2, padding=0, dilation=1, ceil_mode=False)
  (conv2): Conv2d(16, 32, kernel_size=(3, 3), stride=(1, 1), padding=(1, 1))
  (relu2): ReLU()
  (pool2): MaxPool2d(kernel_size=2, stride=2, padding=0, dilation=1, ceil_mode=False)
  (conv3): Conv2d(32, 64, kernel_size=(3, 3), stride=(1, 1), padding=(1, 1))
  (relu3): ReLU()
  (flatten): Flatten(start_dim=1, end_dim=-1)
  (fc1): Linear(in_features=3136, out_features=3, bias=True)
  (relu4): ReLU()
  (fc2): Linear(in_features=3, out_features=1, bias=True)
  (sigmoid): Sigmoid()
)","[1, 2]",conv3,0.8759999871253967
71,"PyTorchCNN(
  (conv1): Conv2d(1, 16, kernel_size=(3, 3), stride=(1, 1), padding=(1, 1))
  (relu1): ReLU()
  (pool1): MaxPool2d(kernel_size=2, stride=2, padding=0, dilation=1, ceil_mode=False)
  (conv2): Conv2d(16, 32, kernel_size=(3, 3), stride=(1, 1), padding=(1, 1))
  (relu2): ReLU()
  (pool2): MaxPool2d(kernel_size=2, stride=2, padding=0, dilation=1, ceil_mode=False)
  (conv3): Conv2d(32, 64, kernel_size=(3, 3), stride=(1, 1), padding=(1, 1))
  (relu3): ReLU()
  (flatten): Flatten(start_dim=1, end_dim=-1)
  (fc1): Linear(in_features=3136, out_features=3, bias=True)
  (relu4): ReLU()
  (fc2): Linear(in_features=3, out_features=1, bias=True)
  (sigmoid): Sigmoid()
)","[1, 2]",fc1,0.6809999942779541
72,"PyTorchCNN(
  (conv1): Conv2d(1, 16, kernel_size=(3, 3), stride=(1, 1), padding=(1, 1))
  (relu1): ReLU()
  (pool1): MaxPool2d(kernel_size=2, stride=2, padding=0, dilation=1, ceil_mode=False)
  (conv2): Conv2d(16, 32, kernel_size=(3, 3), stride=(1, 1), padding=(1, 1))
  (relu2): ReLU()
  (pool2): MaxPool2d(kernel_size=2, stride=2, padding=0, dilation=1, ceil_mode=False)
  (conv3): Conv2d(32, 64, kernel_size=(3, 3), stride=(1, 1), padding=(1, 1))
  (relu3): ReLU()
  (flatten): Flatten(start_dim=1, end_dim=-1)
  (fc1): Linear(in_features=3136, out_features=3, bias=True)
  (relu4): ReLU()
  (fc2): Linear(in_features=3, out_features=1, bias=True)
  (sigmoid): Sigmoid()
)",[0],conv1,0.9179999828338623
73,"PyTorchCNN(
  (conv1): Conv2d(1, 16, kernel_size=(3, 3), stride=(1, 1), padding=(1, 1))
  (relu1): ReLU()
  (pool1): MaxPool2d(kernel_size=2, stride=2, padding=0, dilation=1, ceil_mode=False)
  (conv2): Conv2d(16, 32, kernel_size=(3, 3), stride=(1, 1), padding=(1, 1))
  (relu2): ReLU()
  (pool2): MaxPool2d(kernel_size=2, stride=2, padding=0, dilation=1, ceil_mode=False)
  (conv3): Conv2d(32, 64, kernel_size=(3, 3), stride=(1, 1), padding=(1, 1))
  (relu3): ReLU()
  (flatten): Flatten(start_dim=1, end_dim=-1)
  (fc1): Linear(in_features=3136, out_features=3, bias=True)
  (relu4): ReLU()
  (fc2): Linear(in_features=3, out_features=1, bias=True)
  (sigmoid): Sigmoid()
)",[0],conv2,0.8920000195503235
74,"PyTorchCNN(
  (conv1): Conv2d(1, 16, kernel_size=(3, 3), stride=(1, 1), padding=(1, 1))
  (relu1): ReLU()
  (pool1): MaxPool2d(kernel_size=2, stride=2, padding=0, dilation=1, ceil_mode=False)
  (conv2): Conv2d(16, 32, kernel_size=(3, 3), stride=(1, 1), padding=(1, 1))
  (relu2): ReLU()
  (pool2): MaxPool2d(kernel_size=2, stride=2, padding=0, dilation=1, ceil_mode=False)
  (conv3): Conv2d(32, 64, kernel_size=(3, 3), stride=(1, 1), padding=(1, 1))
  (relu3): ReLU()
  (flatten): Flatten(start_dim=1, end_dim=-1)
  (fc1): Linear(in_features=3136, out_features=3, bias=True)
  (relu4): ReLU()
  (fc2): Linear(in_features=3, out_features=1, bias=True)
  (sigmoid): Sigmoid()
)",[0],conv3,0.8700000047683716
75,"PyTorchCNN(
  (conv1): Conv2d(1, 16, kernel_size=(3, 3), stride=(1, 1), padding=(1, 1))
  (relu1): ReLU()
  (pool1): MaxPool2d(kernel_size=2, stride=2, padding=0, dilation=1, ceil_mode=False)
  (conv2): Conv2d(16, 32, kernel_size=(3, 3), stride=(1, 1), padding=(1, 1))
  (relu2): ReLU()
  (pool2): MaxPool2d(kernel_size=2, stride=2, padding=0, dilation=1, ceil_mode=False)
  (conv3): Conv2d(32, 64, kernel_size=(3, 3), stride=(1, 1), padding=(1, 1))
  (relu3): ReLU()
  (flatten): Flatten(start_dim=1, end_dim=-1)
  (fc1): Linear(in_features=3136, out_features=3, bias=True)
  (relu4): ReLU()
  (fc2): Linear(in_features=3, out_features=1, bias=True)
  (sigmoid): Sigmoid()
)",[0],fc1,0.6439999938011169
76,"PyTorchCNN(
  (conv1): Conv2d(1, 16, kernel_size=(3, 3), stride=(1, 1), padding=(1, 1))
  (relu1): ReLU()
  (pool1): MaxPool2d(kernel_size=2, stride=2, padding=0, dilation=1, ceil_mode=False)
  (conv2): Conv2d(16, 32, kernel_size=(3, 3), stride=(1, 1), padding=(1, 1))
  (relu2): ReLU()
  (pool2): MaxPool2d(kernel_size=2, stride=2, padding=0, dilation=1, ceil_mode=False)
  (conv3): Conv2d(32, 64, kernel_size=(3, 3), stride=(1, 1), padding=(1, 1))
  (relu3): ReLU()
  (flatten): Flatten(start_dim=1, end_dim=-1)
  (fc1): Linear(in_features=3136, out_features=3, bias=True)
  (relu4): ReLU()
  (fc2): Linear(in_features=3, out_features=1, bias=True)
  (sigmoid): Sigmoid()
)",[1],conv1,0.9660000205039978
77,"PyTorchCNN(
  (conv1): Conv2d(1, 16, kernel_size=(3, 3), stride=(1, 1), padding=(1, 1))
  (relu1): ReLU()
  (pool1): MaxPool2d(kernel_size=2, stride=2, padding=0, dilation=1, ceil_mode=False)
  (conv2): Conv2d(16, 32, kernel_size=(3, 3), stride=(1, 1), padding=(1, 1))
  (relu2): ReLU()
  (pool2): MaxPool2d(kernel_size=2, stride=2, padding=0, dilation=1, ceil_mode=False)
  (conv3): Conv2d(32, 64, kernel_size=(3, 3), stride=(1, 1), padding=(1, 1))
  (relu3): ReLU()
  (flatten): Flatten(start_dim=1, end_dim=-1)
  (fc1): Linear(in_features=3136, out_features=3, bias=True)
  (relu4): ReLU()
  (fc2): Linear(in_features=3, out_features=1, bias=True)
  (sigmoid): Sigmoid()
)",[1],conv2,0.9509999752044678
78,"PyTorchCNN(
  (conv1): Conv2d(1, 16, kernel_size=(3, 3), stride=(1, 1), padding=(1, 1))
  (relu1): ReLU()
  (pool1): MaxPool2d(kernel_size=2, stride=2, padding=0, dilation=1, ceil_mode=False)
  (conv2): Conv2d(16, 32, kernel_size=(3, 3), stride=(1, 1), padding=(1, 1))
  (relu2): ReLU()
  (pool2): MaxPool2d(kernel_size=2, stride=2, padding=0, dilation=1, ceil_mode=False)
  (conv3): Conv2d(32, 64, kernel_size=(3, 3), stride=(1, 1), padding=(1, 1))
  (relu3): ReLU()
  (flatten): Flatten(start_dim=1, end_dim=-1)
  (fc1): Linear(in_features=3136, out_features=3, bias=True)
  (relu4): ReLU()
  (fc2): Linear(in_features=3, out_features=1, bias=True)
  (sigmoid): Sigmoid()
)",[1],conv3,0.9210000038146973
79,"PyTorchCNN(
  (conv1): Conv2d(1, 16, kernel_size=(3, 3), stride=(1, 1), padding=(1, 1))
  (relu1): ReLU()
  (pool1): MaxPool2d(kernel_size=2, stride=2, padding=0, dilation=1, ceil_mode=False)
  (conv2): Conv2d(16, 32, kernel_size=(3, 3), stride=(1, 1), padding=(1, 1))
  (relu2): ReLU()
  (pool2): MaxPool2d(kernel_size=2, stride=2, padding=0, dilation=1, ceil_mode=False)
  (conv3): Conv2d(32, 64, kernel_size=(3, 3), stride=(1, 1), padding=(1, 1))
  (relu3): ReLU()
  (flatten): Flatten(start_dim=1, end_dim=-1)
  (fc1): Linear(in_features=3136, out_features=3, bias=True)
  (relu4): ReLU()
  (fc2): Linear(in_features=3, out_features=1, bias=True)
  (sigmoid): Sigmoid()
)",[1],fc1,0.6100000143051147
80,"PyTorchCNN(
  (conv1): Conv2d(1, 16, kernel_size=(3, 3), stride=(1, 1), padding=(1, 1))
  (relu1): ReLU()
  (pool1): MaxPool2d(kernel_size=2, stride=2, padding=0, dilation=1, ceil_mode=False)
  (conv2): Conv2d(16, 32, kernel_size=(3, 3), stride=(1, 1), padding=(1, 1))
  (relu2): ReLU()
  (pool2): MaxPool2d(kernel_size=2, stride=2, padding=0, dilation=1, ceil_mode=False)
  (conv3): Conv2d(32, 64, kernel_size=(3, 3), stride=(1, 1), padding=(1, 1))
  (relu3): ReLU()
  (flatten): Flatten(start_dim=1, end_dim=-1)
  (fc1): Linear(in_features=3136, out_features=3, bias=True)
  (relu4): ReLU()
  (fc2): Linear(in_features=3, out_features=1, bias=True)
  (sigmoid): Sigmoid()
)",[2],conv1,0.9490000009536743
81,"PyTorchCNN(
  (conv1): Conv2d(1, 16, kernel_size=(3, 3), stride=(1, 1), padding=(1, 1))
  (relu1): ReLU()
  (pool1): MaxPool2d(kernel_size=2, stride=2, padding=0, dilation=1, ceil_mode=False)
  (conv2): Conv2d(16, 32, kernel_size=(3, 3), stride=(1, 1), padding=(1, 1))
  (relu2): ReLU()
  (pool2): MaxPool2d(kernel_size=2, stride=2, padding=0, dilation=1, ceil_mode=False)
  (conv3): Conv2d(32, 64, kernel_size=(3, 3), stride=(1, 1), padding=(1, 1))
  (relu3): ReLU()
  (flatten): Flatten(start_dim=1, end_dim=-1)
  (fc1): Linear(in_features=3136, out_features=3, bias=True)
  (relu4): ReLU()
  (fc2): Linear(in_features=3, out_features=1, bias=True)
  (sigmoid): Sigmoid()
)",[2],conv2,0.9419999718666077
82,"PyTorchCNN(
  (conv1): Conv2d(1, 16, kernel_size=(3, 3), stride=(1, 1), padding=(1, 1))
  (relu1): ReLU()
  (pool1): MaxPool2d(kernel_size=2, stride=2, padding=0, dilation=1, ceil_mode=False)
  (conv2): Conv2d(16, 32, kernel_size=(3, 3), stride=(1, 1), padding=(1, 1))
  (relu2): ReLU()
  (pool2): MaxPool2d(kernel_size=2, stride=2, padding=0, dilation=1, ceil_mode=False)
  (conv3): Conv2d(32, 64, kernel_size=(3, 3), stride=(1, 1), padding=(1, 1))
  (relu3): ReLU()
  (flatten): Flatten(start_dim=1, end_dim=-1)
  (fc1): Linear(in_features=3136, out_features=3, bias=True)
  (relu4): ReLU()
  (fc2): Linear(in_features=3, out_features=1, bias=True)
  (sigmoid): Sigmoid()
)",[2],conv3,0.9359999895095825
83,"PyTorchCNN(
  (conv1): Conv2d(1, 16, kernel_size=(3, 3), stride=(1, 1), padding=(1, 1))
  (relu1): ReLU()
  (pool1): MaxPool2d(kernel_size=2, stride=2, padding=0, dilation=1, ceil_mode=False)
  (conv2): Conv2d(16, 32, kernel_size=(3, 3), stride=(1, 1), padding=(1, 1))
  (relu2): ReLU()
  (pool2): MaxPool2d(kernel_size=2, stride=2, padding=0, dilation=1, ceil_mode=False)
  (conv3): Conv2d(32, 64, kernel_size=(3, 3), stride=(1, 1), padding=(1, 1))
  (relu3): ReLU()
  (flatten): Flatten(start_dim=1, end_dim=-1)
  (fc1): Linear(in_features=3136, out_features=3, bias=True)
  (relu4): ReLU()
  (fc2): Linear(in_features=3, out_features=1, bias=True)
  (sigmoid): Sigmoid()
)",[2],fc1,0.7860000133514404
84,"PyTorchCNN(
  (conv1): Conv2d(1, 16, kernel_size=(3, 3), stride=(1, 1), padding=(1, 1))
  (relu1): ReLU()
  (pool1): MaxPool2d(kernel_size=2, stride=2, padding=0, dilation=1, ceil_mode=False)
  (conv2): Conv2d(16, 32, kernel_size=(3, 3), stride=(1, 1), padding=(1, 1))
  (relu2): ReLU()
  (pool2): MaxPool2d(kernel_size=2, stride=2, padding=0, dilation=1, ceil_mode=False)
  (conv3): Conv2d(32, 64, kernel_size=(3, 3), stride=(1, 1), padding=(1, 1))
  (relu3): ReLU()
  (flatten): Flatten(start_dim=1, end_dim=-1)
  (fc1): Linear(in_features=3136, out_features=3, bias=True)
  (relu4): ReLU()
  (fc2): Linear(in_features=3, out_features=1, bias=True)
  (sigmoid): Sigmoid()
)","[0, 1, 2]",conv1,0.9430000185966492
85,"PyTorchCNN(
  (conv1): Conv2d(1, 16, kernel_size=(3, 3), stride=(1, 1), padding=(1, 1))
  (relu1): ReLU()
  (pool1): MaxPool2d(kernel_size=2, stride=2, padding=0, dilation=1, ceil_mode=False)
  (conv2): Conv2d(16, 32, kernel_size=(3, 3), stride=(1, 1), padding=(1, 1))
  (relu2): ReLU()
  (pool2): MaxPool2d(kernel_size=2, stride=2, padding=0, dilation=1, ceil_mode=False)
  (conv3): Conv2d(32, 64, kernel_size=(3, 3), stride=(1, 1), padding=(1, 1))
  (relu3): ReLU()
  (flatten): Flatten(start_dim=1, end_dim=-1)
  (fc1): Linear(in_features=3136, out_features=3, bias=True)
  (relu4): ReLU()
  (fc2): Linear(in_features=3, out_features=1, bias=True)
  (sigmoid): Sigmoid()
)","[0, 1, 2]",conv2,0.9430000185966492
86,"PyTorchCNN(
  (conv1): Conv2d(1, 16, kernel_size=(3, 3), stride=(1, 1), padding=(1, 1))
  (relu1): ReLU()
  (pool1): MaxPool2d(kernel_size=2, stride=2, padding=0, dilation=1, ceil_mode=False)
  (conv2): Conv2d(16, 32, kernel_size=(3, 3), stride=(1, 1), padding=(1, 1))
  (relu2): ReLU()
  (pool2): MaxPool2d(kernel_size=2, stride=2, padding=0, dilation=1, ceil_mode=False)
  (conv3): Conv2d(32, 64, kernel_size=(3, 3), stride=(1, 1), padding=(1, 1))
  (relu3): ReLU()
  (flatten): Flatten(start_dim=1, end_dim=-1)
  (fc1): Linear(in_features=3136, out_features=3, bias=True)
  (relu4): ReLU()
  (fc2): Linear(in_features=3, out_features=1, bias=True)
  (sigmoid): Sigmoid()
)","[0, 1, 2]",conv3,0.9319999814033508
87,"PyTorchCNN(
  (conv1): Conv2d(1, 16, kernel_size=(3, 3), stride=(1, 1), padding=(1, 1))
  (relu1): ReLU()
  (pool1): MaxPool2d(kernel_size=2, stride=2, padding=0, dilation=1, ceil_mode=False)
  (conv2): Conv2d(16, 32, kernel_size=(3, 3), stride=(1, 1), padding=(1, 1))
  (relu2): ReLU()
  (pool2): MaxPool2d(kernel_size=2, stride=2, padding=0, dilation=1, ceil_mode=False)
  (conv3): Conv2d(32, 64, kernel_size=(3, 3), stride=(1, 1), padding=(1, 1))
  (relu3): ReLU()
  (flatten): Flatten(start_dim=1, end_dim=-1)
  (fc1): Linear(in_features=3136, out_features=3, bias=True)
  (relu4): ReLU()
  (fc2): Linear(in_features=3, out_features=1, bias=True)
  (sigmoid): Sigmoid()
)","[0, 1, 2]",fc1,0.8009999990463257
88,"PyTorchCNN(
  (conv1): Conv2d(1, 16, kernel_size=(3, 3), stride=(1, 1), padding=(1, 1))
  (relu1): ReLU()
  (pool1): MaxPool2d(kernel_size=2, stride=2, padding=0, dilation=1, ceil_mode=False)
  (conv2): Conv2d(16, 32, kernel_size=(3, 3), stride=(1, 1), padding=(1, 1))
  (relu2): ReLU()
  (pool2): MaxPool2d(kernel_size=2, stride=2, padding=0, dilation=1, ceil_mode=False)
  (conv3): Conv2d(32, 64, kernel_size=(3, 3), stride=(1, 1), padding=(1, 1))
  (relu3): ReLU()
  (flatten): Flatten(start_dim=1, end_dim=-1)
  (fc1): Linear(in_features=3136, out_features=3, bias=True)
  (relu4): ReLU()
  (fc2): Linear(in_features=3, out_features=1, bias=True)
  (sigmoid): Sigmoid()
)","[0, 1]",conv1,0.9120000004768372
89,"PyTorchCNN(
  (conv1): Conv2d(1, 16, kernel_size=(3, 3), stride=(1, 1), padding=(1, 1))
  (relu1): ReLU()
  (pool1): MaxPool2d(kernel_size=2, stride=2, padding=0, dilation=1, ceil_mode=False)
  (conv2): Conv2d(16, 32, kernel_size=(3, 3), stride=(1, 1), padding=(1, 1))
  (relu2): ReLU()
  (pool2): MaxPool2d(kernel_size=2, stride=2, padding=0, dilation=1, ceil_mode=False)
  (conv3): Conv2d(32, 64, kernel_size=(3, 3), stride=(1, 1), padding=(1, 1))
  (relu3): ReLU()
  (flatten): Flatten(start_dim=1, end_dim=-1)
  (fc1): Linear(in_features=3136, out_features=3, bias=True)
  (relu4): ReLU()
  (fc2): Linear(in_features=3, out_features=1, bias=True)
  (sigmoid): Sigmoid()
)","[0, 1]",conv2,0.8999999761581421
90,"PyTorchCNN(
  (conv1): Conv2d(1, 16, kernel_size=(3, 3), stride=(1, 1), padding=(1, 1))
  (relu1): ReLU()
  (pool1): MaxPool2d(kernel_size=2, stride=2, padding=0, dilation=1, ceil_mode=False)
  (conv2): Conv2d(16, 32, kernel_size=(3, 3), stride=(1, 1), padding=(1, 1))
  (relu2): ReLU()
  (pool2): MaxPool2d(kernel_size=2, stride=2, padding=0, dilation=1, ceil_mode=False)
  (conv3): Conv2d(32, 64, kernel_size=(3, 3), stride=(1, 1), padding=(1, 1))
  (relu3): ReLU()
  (flatten): Flatten(start_dim=1, end_dim=-1)
  (fc1): Linear(in_features=3136, out_features=3, bias=True)
  (relu4): ReLU()
  (fc2): Linear(in_features=3, out_features=1, bias=True)
  (sigmoid): Sigmoid()
)","[0, 1]",conv3,0.8840000033378601
91,"PyTorchCNN(
  (conv1): Conv2d(1, 16, kernel_size=(3, 3), stride=(1, 1), padding=(1, 1))
  (relu1): ReLU()
  (pool1): MaxPool2d(kernel_size=2, stride=2, padding=0, dilation=1, ceil_mode=False)
  (conv2): Conv2d(16, 32, kernel_size=(3, 3), stride=(1, 1), padding=(1, 1))
  (relu2): ReLU()
  (pool2): MaxPool2d(kernel_size=2, stride=2, padding=0, dilation=1, ceil_mode=False)
  (conv3): Conv2d(32, 64, kernel_size=(3, 3), stride=(1, 1), padding=(1, 1))
  (relu3): ReLU()
  (flatten): Flatten(start_dim=1, end_dim=-1)
  (fc1): Linear(in_features=3136, out_features=3, bias=True)
  (relu4): ReLU()
  (fc2): Linear(in_features=3, out_features=1, bias=True)
  (sigmoid): Sigmoid()
)","[0, 1]",fc1,0.6850000023841858
92,"PyTorchCNN(
  (conv1): Conv2d(1, 16, kernel_size=(3, 3), stride=(1, 1), padding=(1, 1))
  (relu1): ReLU()
  (pool1): MaxPool2d(kernel_size=2, stride=2, padding=0, dilation=1, ceil_mode=False)
  (conv2): Conv2d(16, 32, kernel_size=(3, 3), stride=(1, 1), padding=(1, 1))
  (relu2): ReLU()
  (pool2): MaxPool2d(kernel_size=2, stride=2, padding=0, dilation=1, ceil_mode=False)
  (conv3): Conv2d(32, 64, kernel_size=(3, 3), stride=(1, 1), padding=(1, 1))
  (relu3): ReLU()
  (flatten): Flatten(start_dim=1, end_dim=-1)
  (fc1): Linear(in_features=3136, out_features=3, bias=True)
  (relu4): ReLU()
  (fc2): Linear(in_features=3, out_features=1, bias=True)
  (sigmoid): Sigmoid()
)","[0, 2]",conv1,0.9309999942779541
93,"PyTorchCNN(
  (conv1): Conv2d(1, 16, kernel_size=(3, 3), stride=(1, 1), padding=(1, 1))
  (relu1): ReLU()
  (pool1): MaxPool2d(kernel_size=2, stride=2, padding=0, dilation=1, ceil_mode=False)
  (conv2): Conv2d(16, 32, kernel_size=(3, 3), stride=(1, 1), padding=(1, 1))
  (relu2): ReLU()
  (pool2): MaxPool2d(kernel_size=2, stride=2, padding=0, dilation=1, ceil_mode=False)
  (conv3): Conv2d(32, 64, kernel_size=(3, 3), stride=(1, 1), padding=(1, 1))
  (relu3): ReLU()
  (flatten): Flatten(start_dim=1, end_dim=-1)
  (fc1): Linear(in_features=3136, out_features=3, bias=True)
  (relu4): ReLU()
  (fc2): Linear(in_features=3, out_features=1, bias=True)
  (sigmoid): Sigmoid()
)","[0, 2]",conv2,0.9179999828338623
94,"PyTorchCNN(
  (conv1): Conv2d(1, 16, kernel_size=(3, 3), stride=(1, 1), padding=(1, 1))
  (relu1): ReLU()
  (pool1): MaxPool2d(kernel_size=2, stride=2, padding=0, dilation=1, ceil_mode=False)
  (conv2): Conv2d(16, 32, kernel_size=(3, 3), stride=(1, 1), padding=(1, 1))
  (relu2): ReLU()
  (pool2): MaxPool2d(kernel_size=2, stride=2, padding=0, dilation=1, ceil_mode=False)
  (conv3): Conv2d(32, 64, kernel_size=(3, 3), stride=(1, 1), padding=(1, 1))
  (relu3): ReLU()
  (flatten): Flatten(start_dim=1, end_dim=-1)
  (fc1): Linear(in_features=3136, out_features=3, bias=True)
  (relu4): ReLU()
  (fc2): Linear(in_features=3, out_features=1, bias=True)
  (sigmoid): Sigmoid()
)","[0, 2]",conv3,0.8830000162124634
95,"PyTorchCNN(
  (conv1): Conv2d(1, 16, kernel_size=(3, 3), stride=(1, 1), padding=(1, 1))
  (relu1): ReLU()
  (pool1): MaxPool2d(kernel_size=2, stride=2, padding=0, dilation=1, ceil_mode=False)
  (conv2): Conv2d(16, 32, kernel_size=(3, 3), stride=(1, 1), padding=(1, 1))
  (relu2): ReLU()
  (pool2): MaxPool2d(kernel_size=2, stride=2, padding=0, dilation=1, ceil_mode=False)
  (conv3): Conv2d(32, 64, kernel_size=(3, 3), stride=(1, 1), padding=(1, 1))
  (relu3): ReLU()
  (flatten): Flatten(start_dim=1, end_dim=-1)
  (fc1): Linear(in_features=3136, out_features=3, bias=True)
  (relu4): ReLU()
  (fc2): Linear(in_features=3, out_features=1, bias=True)
  (sigmoid): Sigmoid()
)","[0, 2]",fc1,0.6349999904632568
96,"PyTorchCNN(
  (conv1): Conv2d(1, 16, kernel_size=(3, 3), stride=(1, 1), padding=(1, 1))
  (relu1): ReLU()
  (pool1): MaxPool2d(kernel_size=2, stride=2, padding=0, dilation=1, ceil_mode=False)
  (conv2): Conv2d(16, 32, kernel_size=(3, 3), stride=(1, 1), padding=(1, 1))
  (relu2): ReLU()
  (pool2): MaxPool2d(kernel_size=2, stride=2, padding=0, dilation=1, ceil_mode=False)
  (conv3): Conv2d(32, 64, kernel_size=(3, 3), stride=(1, 1), padding=(1, 1))
  (relu3): ReLU()
  (flatten): Flatten(start_dim=1, end_dim=-1)
  (fc1): Linear(in_features=3136, out_features=3, bias=True)
  (relu4): ReLU()
  (fc2): Linear(in_features=3, out_features=1, bias=True)
  (sigmoid): Sigmoid()
)","[1, 2]",conv1,0.9129999876022339
97,"PyTorchCNN(
  (conv1): Conv2d(1, 16, kernel_size=(3, 3), stride=(1, 1), padding=(1, 1))
  (relu1): ReLU()
  (pool1): MaxPool2d(kernel_size=2, stride=2, padding=0, dilation=1, ceil_mode=False)
  (conv2): Conv2d(16, 32, kernel_size=(3, 3), stride=(1, 1), padding=(1, 1))
  (relu2): ReLU()
  (pool2): MaxPool2d(kernel_size=2, stride=2, padding=0, dilation=1, ceil_mode=False)
  (conv3): Conv2d(32, 64, kernel_size=(3, 3), stride=(1, 1), padding=(1, 1))
  (relu3): ReLU()
  (flatten): Flatten(start_dim=1, end_dim=-1)
  (fc1): Linear(in_features=3136, out_features=3, bias=True)
  (relu4): ReLU()
  (fc2): Linear(in_features=3, out_features=1, bias=True)
  (sigmoid): Sigmoid()
)","[1, 2]",conv2,0.9269999861717224
98,"PyTorchCNN(
  (conv1): Conv2d(1, 16, kernel_size=(3, 3), stride=(1, 1), padding=(1, 1))
  (relu1): ReLU()
  (pool1): MaxPool2d(kernel_size=2, stride=2, padding=0, dilation=1, ceil_mode=False)
  (conv2): Conv2d(16, 32, kernel_size=(3, 3), stride=(1, 1), padding=(1, 1))
  (relu2): ReLU()
  (pool2): MaxPool2d(kernel_size=2, stride=2, padding=0, dilation=1, ceil_mode=False)
  (conv3): Conv2d(32, 64, kernel_size=(3, 3), stride=(1, 1), padding=(1, 1))
  (relu3): ReLU()
  (flatten): Flatten(start_dim=1, end_dim=-1)
  (fc1): Linear(in_features=3136, out_features=3, bias=True)
  (relu4): ReLU()
  (fc2): Linear(in_features=3, out_features=1, bias=True)
  (sigmoid): Sigmoid()
)","[1, 2]",conv3,0.8569999933242798
99,"PyTorchCNN(
  (conv1): Conv2d(1, 16, kernel_size=(3, 3), stride=(1, 1), padding=(1, 1))
  (relu1): ReLU()
  (pool1): MaxPool2d(kernel_size=2, stride=2, padding=0, dilation=1, ceil_mode=False)
  (conv2): Conv2d(16, 32, kernel_size=(3, 3), stride=(1, 1), padding=(1, 1))
  (relu2): ReLU()
  (pool2): MaxPool2d(kernel_size=2, stride=2, padding=0, dilation=1, ceil_mode=False)
  (conv3): Conv2d(32, 64, kernel_size=(3, 3), stride=(1, 1), padding=(1, 1))
  (relu3): ReLU()
  (flatten): Flatten(start_dim=1, end_dim=-1)
  (fc1): Linear(in_features=3136, out_features=3, bias=True)
  (relu4): ReLU()
  (fc2): Linear(in_features=3, out_features=1, bias=True)
  (sigmoid): Sigmoid()
)","[1, 2]",fc1,0.6990000009536743
100,"PyTorchCNN(
  (conv1): Conv2d(1, 16, kernel_size=(3, 3), stride=(1, 1), padding=(1, 1))
  (relu1): ReLU()
  (pool1): MaxPool2d(kernel_size=2, stride=2, padding=0, dilation=1, ceil_mode=False)
  (conv2): Conv2d(16, 32, kernel_size=(3, 3), stride=(1, 1), padding=(1, 1))
  (relu2): ReLU()
  (pool2): MaxPool2d(kernel_size=2, stride=2, padding=0, dilation=1, ceil_mode=False)
  (conv3): Conv2d(32, 64, kernel_size=(3, 3), stride=(1, 1), padding=(1, 1))
  (relu3): ReLU()
  (flatten): Flatten(start_dim=1, end_dim=-1)
  (fc1): Linear(in_features=3136, out_features=3, bias=True)
  (relu4): ReLU()
  (fc2): Linear(in_features=3, out_features=1, bias=True)
  (sigmoid): Sigmoid()
)",[0],conv1,0.9020000100135803
101,"PyTorchCNN(
  (conv1): Conv2d(1, 16, kernel_size=(3, 3), stride=(1, 1), padding=(1, 1))
  (relu1): ReLU()
  (pool1): MaxPool2d(kernel_size=2, stride=2, padding=0, dilation=1, ceil_mode=False)
  (conv2): Conv2d(16, 32, kernel_size=(3, 3), stride=(1, 1), padding=(1, 1))
  (relu2): ReLU()
  (pool2): MaxPool2d(kernel_size=2, stride=2, padding=0, dilation=1, ceil_mode=False)
  (conv3): Conv2d(32, 64, kernel_size=(3, 3), stride=(1, 1), padding=(1, 1))
  (relu3): ReLU()
  (flatten): Flatten(start_dim=1, end_dim=-1)
  (fc1): Linear(in_features=3136, out_features=3, bias=True)
  (relu4): ReLU()
  (fc2): Linear(in_features=3, out_features=1, bias=True)
  (sigmoid): Sigmoid()
)",[0],conv2,0.9089999794960022
102,"PyTorchCNN(
  (conv1): Conv2d(1, 16, kernel_size=(3, 3), stride=(1, 1), padding=(1, 1))
  (relu1): ReLU()
  (pool1): MaxPool2d(kernel_size=2, stride=2, padding=0, dilation=1, ceil_mode=False)
  (conv2): Conv2d(16, 32, kernel_size=(3, 3), stride=(1, 1), padding=(1, 1))
  (relu2): ReLU()
  (pool2): MaxPool2d(kernel_size=2, stride=2, padding=0, dilation=1, ceil_mode=False)
  (conv3): Conv2d(32, 64, kernel_size=(3, 3), stride=(1, 1), padding=(1, 1))
  (relu3): ReLU()
  (flatten): Flatten(start_dim=1, end_dim=-1)
  (fc1): Linear(in_features=3136, out_features=3, bias=True)
  (relu4): ReLU()
  (fc2): Linear(in_features=3, out_features=1, bias=True)
  (sigmoid): Sigmoid()
)",[0],conv3,0.8640000224113464
103,"PyTorchCNN(
  (conv1): Conv2d(1, 16, kernel_size=(3, 3), stride=(1, 1), padding=(1, 1))
  (relu1): ReLU()
  (pool1): MaxPool2d(kernel_size=2, stride=2, padding=0, dilation=1, ceil_mode=False)
  (conv2): Conv2d(16, 32, kernel_size=(3, 3), stride=(1, 1), padding=(1, 1))
  (relu2): ReLU()
  (pool2): MaxPool2d(kernel_size=2, stride=2, padding=0, dilation=1, ceil_mode=False)
  (conv3): Conv2d(32, 64, kernel_size=(3, 3), stride=(1, 1), padding=(1, 1))
  (relu3): ReLU()
  (flatten): Flatten(start_dim=1, end_dim=-1)
  (fc1): Linear(in_features=3136, out_features=3, bias=True)
  (relu4): ReLU()
  (fc2): Linear(in_features=3, out_features=1, bias=True)
  (sigmoid): Sigmoid()
)",[0],fc1,0.7229999899864197
104,"PyTorchCNN(
  (conv1): Conv2d(1, 16, kernel_size=(3, 3), stride=(1, 1), padding=(1, 1))
  (relu1): ReLU()
  (pool1): MaxPool2d(kernel_size=2, stride=2, padding=0, dilation=1, ceil_mode=False)
  (conv2): Conv2d(16, 32, kernel_size=(3, 3), stride=(1, 1), padding=(1, 1))
  (relu2): ReLU()
  (pool2): MaxPool2d(kernel_size=2, stride=2, padding=0, dilation=1, ceil_mode=False)
  (conv3): Conv2d(32, 64, kernel_size=(3, 3), stride=(1, 1), padding=(1, 1))
  (relu3): ReLU()
  (flatten): Flatten(start_dim=1, end_dim=-1)
  (fc1): Linear(in_features=3136, out_features=3, bias=True)
  (relu4): ReLU()
  (fc2): Linear(in_features=3, out_features=1, bias=True)
  (sigmoid): Sigmoid()
)",[1],conv1,0.9559999704360962
105,"PyTorchCNN(
  (conv1): Conv2d(1, 16, kernel_size=(3, 3), stride=(1, 1), padding=(1, 1))
  (relu1): ReLU()
  (pool1): MaxPool2d(kernel_size=2, stride=2, padding=0, dilation=1, ceil_mode=False)
  (conv2): Conv2d(16, 32, kernel_size=(3, 3), stride=(1, 1), padding=(1, 1))
  (relu2): ReLU()
  (pool2): MaxPool2d(kernel_size=2, stride=2, padding=0, dilation=1, ceil_mode=False)
  (conv3): Conv2d(32, 64, kernel_size=(3, 3), stride=(1, 1), padding=(1, 1))
  (relu3): ReLU()
  (flatten): Flatten(start_dim=1, end_dim=-1)
  (fc1): Linear(in_features=3136, out_features=3, bias=True)
  (relu4): ReLU()
  (fc2): Linear(in_features=3, out_features=1, bias=True)
  (sigmoid): Sigmoid()
)",[1],conv2,0.9580000042915344
106,"PyTorchCNN(
  (conv1): Conv2d(1, 16, kernel_size=(3, 3), stride=(1, 1), padding=(1, 1))
  (relu1): ReLU()
  (pool1): MaxPool2d(kernel_size=2, stride=2, padding=0, dilation=1, ceil_mode=False)
  (conv2): Conv2d(16, 32, kernel_size=(3, 3), stride=(1, 1), padding=(1, 1))
  (relu2): ReLU()
  (pool2): MaxPool2d(kernel_size=2, stride=2, padding=0, dilation=1, ceil_mode=False)
  (conv3): Conv2d(32, 64, kernel_size=(3, 3), stride=(1, 1), padding=(1, 1))
  (relu3): ReLU()
  (flatten): Flatten(start_dim=1, end_dim=-1)
  (fc1): Linear(in_features=3136, out_features=3, bias=True)
  (relu4): ReLU()
  (fc2): Linear(in_features=3, out_features=1, bias=True)
  (sigmoid): Sigmoid()
)",[1],conv3,0.9369999766349792
107,"PyTorchCNN(
  (conv1): Conv2d(1, 16, kernel_size=(3, 3), stride=(1, 1), padding=(1, 1))
  (relu1): ReLU()
  (pool1): MaxPool2d(kernel_size=2, stride=2, padding=0, dilation=1, ceil_mode=False)
  (conv2): Conv2d(16, 32, kernel_size=(3, 3), stride=(1, 1), padding=(1, 1))
  (relu2): ReLU()
  (pool2): MaxPool2d(kernel_size=2, stride=2, padding=0, dilation=1, ceil_mode=False)
  (conv3): Conv2d(32, 64, kernel_size=(3, 3), stride=(1, 1), padding=(1, 1))
  (relu3): ReLU()
  (flatten): Flatten(start_dim=1, end_dim=-1)
  (fc1): Linear(in_features=3136, out_features=3, bias=True)
  (relu4): ReLU()
  (fc2): Linear(in_features=3, out_features=1, bias=True)
  (sigmoid): Sigmoid()
)",[1],fc1,0.703000009059906
108,"PyTorchCNN(
  (conv1): Conv2d(1, 16, kernel_size=(3, 3), stride=(1, 1), padding=(1, 1))
  (relu1): ReLU()
  (pool1): MaxPool2d(kernel_size=2, stride=2, padding=0, dilation=1, ceil_mode=False)
  (conv2): Conv2d(16, 32, kernel_size=(3, 3), stride=(1, 1), padding=(1, 1))
  (relu2): ReLU()
  (pool2): MaxPool2d(kernel_size=2, stride=2, padding=0, dilation=1, ceil_mode=False)
  (conv3): Conv2d(32, 64, kernel_size=(3, 3), stride=(1, 1), padding=(1, 1))
  (relu3): ReLU()
  (flatten): Flatten(start_dim=1, end_dim=-1)
  (fc1): Linear(in_features=3136, out_features=3, bias=True)
  (relu4): ReLU()
  (fc2): Linear(in_features=3, out_features=1, bias=True)
  (sigmoid): Sigmoid()
)",[2],conv1,0.9330000281333923
109,"PyTorchCNN(
  (conv1): Conv2d(1, 16, kernel_size=(3, 3), stride=(1, 1), padding=(1, 1))
  (relu1): ReLU()
  (pool1): MaxPool2d(kernel_size=2, stride=2, padding=0, dilation=1, ceil_mode=False)
  (conv2): Conv2d(16, 32, kernel_size=(3, 3), stride=(1, 1), padding=(1, 1))
  (relu2): ReLU()
  (pool2): MaxPool2d(kernel_size=2, stride=2, padding=0, dilation=1, ceil_mode=False)
  (conv3): Conv2d(32, 64, kernel_size=(3, 3), stride=(1, 1), padding=(1, 1))
  (relu3): ReLU()
  (flatten): Flatten(start_dim=1, end_dim=-1)
  (fc1): Linear(in_features=3136, out_features=3, bias=True)
  (relu4): ReLU()
  (fc2): Linear(in_features=3, out_features=1, bias=True)
  (sigmoid): Sigmoid()
)",[2],conv2,0.925000011920929
110,"PyTorchCNN(
  (conv1): Conv2d(1, 16, kernel_size=(3, 3), stride=(1, 1), padding=(1, 1))
  (relu1): ReLU()
  (pool1): MaxPool2d(kernel_size=2, stride=2, padding=0, dilation=1, ceil_mode=False)
  (conv2): Conv2d(16, 32, kernel_size=(3, 3), stride=(1, 1), padding=(1, 1))
  (relu2): ReLU()
  (pool2): MaxPool2d(kernel_size=2, stride=2, padding=0, dilation=1, ceil_mode=False)
  (conv3): Conv2d(32, 64, kernel_size=(3, 3), stride=(1, 1), padding=(1, 1))
  (relu3): ReLU()
  (flatten): Flatten(start_dim=1, end_dim=-1)
  (fc1): Linear(in_features=3136, out_features=3, bias=True)
  (relu4): ReLU()
  (fc2): Linear(in_features=3, out_features=1, bias=True)
  (sigmoid): Sigmoid()
)",[2],conv3,0.902999997138977
111,"PyTorchCNN(
  (conv1): Conv2d(1, 16, kernel_size=(3, 3), stride=(1, 1), padding=(1, 1))
  (relu1): ReLU()
  (pool1): MaxPool2d(kernel_size=2, stride=2, padding=0, dilation=1, ceil_mode=False)
  (conv2): Conv2d(16, 32, kernel_size=(3, 3), stride=(1, 1), padding=(1, 1))
  (relu2): ReLU()
  (pool2): MaxPool2d(kernel_size=2, stride=2, padding=0, dilation=1, ceil_mode=False)
  (conv3): Conv2d(32, 64, kernel_size=(3, 3), stride=(1, 1), padding=(1, 1))
  (relu3): ReLU()
  (flatten): Flatten(start_dim=1, end_dim=-1)
  (fc1): Linear(in_features=3136, out_features=3, bias=True)
  (relu4): ReLU()
  (fc2): Linear(in_features=3, out_features=1, bias=True)
  (sigmoid): Sigmoid()
)",[2],fc1,0.6899999976158142
112,"PyTorchCNN(
  (conv1): Conv2d(1, 16, kernel_size=(3, 3), stride=(1, 1), padding=(1, 1))
  (relu1): ReLU()
  (pool1): MaxPool2d(kernel_size=2, stride=2, padding=0, dilation=1, ceil_mode=False)
  (conv2): Conv2d(16, 32, kernel_size=(3, 3), stride=(1, 1), padding=(1, 1))
  (relu2): ReLU()
  (pool2): MaxPool2d(kernel_size=2, stride=2, padding=0, dilation=1, ceil_mode=False)
  (conv3): Conv2d(32, 64, kernel_size=(3, 3), stride=(1, 1), padding=(1, 1))
  (relu3): ReLU()
  (flatten): Flatten(start_dim=1, end_dim=-1)
  (fc1): Linear(in_features=3136, out_features=3, bias=True)
  (relu4): ReLU()
  (fc2): Linear(in_features=3, out_features=1, bias=True)
  (sigmoid): Sigmoid()
)","[0, 1, 2]",conv1,0.9340000152587891
113,"PyTorchCNN(
  (conv1): Conv2d(1, 16, kernel_size=(3, 3), stride=(1, 1), padding=(1, 1))
  (relu1): ReLU()
  (pool1): MaxPool2d(kernel_size=2, stride=2, padding=0, dilation=1, ceil_mode=False)
  (conv2): Conv2d(16, 32, kernel_size=(3, 3), stride=(1, 1), padding=(1, 1))
  (relu2): ReLU()
  (pool2): MaxPool2d(kernel_size=2, stride=2, padding=0, dilation=1, ceil_mode=False)
  (conv3): Conv2d(32, 64, kernel_size=(3, 3), stride=(1, 1), padding=(1, 1))
  (relu3): ReLU()
  (flatten): Flatten(start_dim=1, end_dim=-1)
  (fc1): Linear(in_features=3136, out_features=3, bias=True)
  (relu4): ReLU()
  (fc2): Linear(in_features=3, out_features=1, bias=True)
  (sigmoid): Sigmoid()
)","[0, 1, 2]",conv2,0.9570000171661377
114,"PyTorchCNN(
  (conv1): Conv2d(1, 16, kernel_size=(3, 3), stride=(1, 1), padding=(1, 1))
  (relu1): ReLU()
  (pool1): MaxPool2d(kernel_size=2, stride=2, padding=0, dilation=1, ceil_mode=False)
  (conv2): Conv2d(16, 32, kernel_size=(3, 3), stride=(1, 1), padding=(1, 1))
  (relu2): ReLU()
  (pool2): MaxPool2d(kernel_size=2, stride=2, padding=0, dilation=1, ceil_mode=False)
  (conv3): Conv2d(32, 64, kernel_size=(3, 3), stride=(1, 1), padding=(1, 1))
  (relu3): ReLU()
  (flatten): Flatten(start_dim=1, end_dim=-1)
  (fc1): Linear(in_features=3136, out_features=3, bias=True)
  (relu4): ReLU()
  (fc2): Linear(in_features=3, out_features=1, bias=True)
  (sigmoid): Sigmoid()
)","[0, 1, 2]",conv3,0.9589999914169312
115,"PyTorchCNN(
  (conv1): Conv2d(1, 16, kernel_size=(3, 3), stride=(1, 1), padding=(1, 1))
  (relu1): ReLU()
  (pool1): MaxPool2d(kernel_size=2, stride=2, padding=0, dilation=1, ceil_mode=False)
  (conv2): Conv2d(16, 32, kernel_size=(3, 3), stride=(1, 1), padding=(1, 1))
  (relu2): ReLU()
  (pool2): MaxPool2d(kernel_size=2, stride=2, padding=0, dilation=1, ceil_mode=False)
  (conv3): Conv2d(32, 64, kernel_size=(3, 3), stride=(1, 1), padding=(1, 1))
  (relu3): ReLU()
  (flatten): Flatten(start_dim=1, end_dim=-1)
  (fc1): Linear(in_features=3136, out_features=3, bias=True)
  (relu4): ReLU()
  (fc2): Linear(in_features=3, out_features=1, bias=True)
  (sigmoid): Sigmoid()
)","[0, 1, 2]",fc1,0.6029999852180481
116,"PyTorchCNN(
  (conv1): Conv2d(1, 16, kernel_size=(3, 3), stride=(1, 1), padding=(1, 1))
  (relu1): ReLU()
  (pool1): MaxPool2d(kernel_size=2, stride=2, padding=0, dilation=1, ceil_mode=False)
  (conv2): Conv2d(16, 32, kernel_size=(3, 3), stride=(1, 1), padding=(1, 1))
  (relu2): ReLU()
  (pool2): MaxPool2d(kernel_size=2, stride=2, padding=0, dilation=1, ceil_mode=False)
  (conv3): Conv2d(32, 64, kernel_size=(3, 3), stride=(1, 1), padding=(1, 1))
  (relu3): ReLU()
  (flatten): Flatten(start_dim=1, end_dim=-1)
  (fc1): Linear(in_features=3136, out_features=3, bias=True)
  (relu4): ReLU()
  (fc2): Linear(in_features=3, out_features=1, bias=True)
  (sigmoid): Sigmoid()
)","[0, 1]",conv1,0.9319999814033508
117,"PyTorchCNN(
  (conv1): Conv2d(1, 16, kernel_size=(3, 3), stride=(1, 1), padding=(1, 1))
  (relu1): ReLU()
  (pool1): MaxPool2d(kernel_size=2, stride=2, padding=0, dilation=1, ceil_mode=False)
  (conv2): Conv2d(16, 32, kernel_size=(3, 3), stride=(1, 1), padding=(1, 1))
  (relu2): ReLU()
  (pool2): MaxPool2d(kernel_size=2, stride=2, padding=0, dilation=1, ceil_mode=False)
  (conv3): Conv2d(32, 64, kernel_size=(3, 3), stride=(1, 1), padding=(1, 1))
  (relu3): ReLU()
  (flatten): Flatten(start_dim=1, end_dim=-1)
  (fc1): Linear(in_features=3136, out_features=3, bias=True)
  (relu4): ReLU()
  (fc2): Linear(in_features=3, out_features=1, bias=True)
  (sigmoid): Sigmoid()
)","[0, 1]",conv2,0.906000018119812
118,"PyTorchCNN(
  (conv1): Conv2d(1, 16, kernel_size=(3, 3), stride=(1, 1), padding=(1, 1))
  (relu1): ReLU()
  (pool1): MaxPool2d(kernel_size=2, stride=2, padding=0, dilation=1, ceil_mode=False)
  (conv2): Conv2d(16, 32, kernel_size=(3, 3), stride=(1, 1), padding=(1, 1))
  (relu2): ReLU()
  (pool2): MaxPool2d(kernel_size=2, stride=2, padding=0, dilation=1, ceil_mode=False)
  (conv3): Conv2d(32, 64, kernel_size=(3, 3), stride=(1, 1), padding=(1, 1))
  (relu3): ReLU()
  (flatten): Flatten(start_dim=1, end_dim=-1)
  (fc1): Linear(in_features=3136, out_features=3, bias=True)
  (relu4): ReLU()
  (fc2): Linear(in_features=3, out_features=1, bias=True)
  (sigmoid): Sigmoid()
)","[0, 1]",conv3,0.890999972820282
119,"PyTorchCNN(
  (conv1): Conv2d(1, 16, kernel_size=(3, 3), stride=(1, 1), padding=(1, 1))
  (relu1): ReLU()
  (pool1): MaxPool2d(kernel_size=2, stride=2, padding=0, dilation=1, ceil_mode=False)
  (conv2): Conv2d(16, 32, kernel_size=(3, 3), stride=(1, 1), padding=(1, 1))
  (relu2): ReLU()
  (pool2): MaxPool2d(kernel_size=2, stride=2, padding=0, dilation=1, ceil_mode=False)
  (conv3): Conv2d(32, 64, kernel_size=(3, 3), stride=(1, 1), padding=(1, 1))
  (relu3): ReLU()
  (flatten): Flatten(start_dim=1, end_dim=-1)
  (fc1): Linear(in_features=3136, out_features=3, bias=True)
  (relu4): ReLU()
  (fc2): Linear(in_features=3, out_features=1, bias=True)
  (sigmoid): Sigmoid()
)","[0, 1]",fc1,0.7440000176429749
120,"PyTorchCNN(
  (conv1): Conv2d(1, 16, kernel_size=(3, 3), stride=(1, 1), padding=(1, 1))
  (relu1): ReLU()
  (pool1): MaxPool2d(kernel_size=2, stride=2, padding=0, dilation=1, ceil_mode=False)
  (conv2): Conv2d(16, 32, kernel_size=(3, 3), stride=(1, 1), padding=(1, 1))
  (relu2): ReLU()
  (pool2): MaxPool2d(kernel_size=2, stride=2, padding=0, dilation=1, ceil_mode=False)
  (conv3): Conv2d(32, 64, kernel_size=(3, 3), stride=(1, 1), padding=(1, 1))
  (relu3): ReLU()
  (flatten): Flatten(start_dim=1, end_dim=-1)
  (fc1): Linear(in_features=3136, out_features=3, bias=True)
  (relu4): ReLU()
  (fc2): Linear(in_features=3, out_features=1, bias=True)
  (sigmoid): Sigmoid()
)","[0, 2]",conv1,0.9449999928474426
121,"PyTorchCNN(
  (conv1): Conv2d(1, 16, kernel_size=(3, 3), stride=(1, 1), padding=(1, 1))
  (relu1): ReLU()
  (pool1): MaxPool2d(kernel_size=2, stride=2, padding=0, dilation=1, ceil_mode=False)
  (conv2): Conv2d(16, 32, kernel_size=(3, 3), stride=(1, 1), padding=(1, 1))
  (relu2): ReLU()
  (pool2): MaxPool2d(kernel_size=2, stride=2, padding=0, dilation=1, ceil_mode=False)
  (conv3): Conv2d(32, 64, kernel_size=(3, 3), stride=(1, 1), padding=(1, 1))
  (relu3): ReLU()
  (flatten): Flatten(start_dim=1, end_dim=-1)
  (fc1): Linear(in_features=3136, out_features=3, bias=True)
  (relu4): ReLU()
  (fc2): Linear(in_features=3, out_features=1, bias=True)
  (sigmoid): Sigmoid()
)","[0, 2]",conv2,0.9309999942779541
122,"PyTorchCNN(
  (conv1): Conv2d(1, 16, kernel_size=(3, 3), stride=(1, 1), padding=(1, 1))
  (relu1): ReLU()
  (pool1): MaxPool2d(kernel_size=2, stride=2, padding=0, dilation=1, ceil_mode=False)
  (conv2): Conv2d(16, 32, kernel_size=(3, 3), stride=(1, 1), padding=(1, 1))
  (relu2): ReLU()
  (pool2): MaxPool2d(kernel_size=2, stride=2, padding=0, dilation=1, ceil_mode=False)
  (conv3): Conv2d(32, 64, kernel_size=(3, 3), stride=(1, 1), padding=(1, 1))
  (relu3): ReLU()
  (flatten): Flatten(start_dim=1, end_dim=-1)
  (fc1): Linear(in_features=3136, out_features=3, bias=True)
  (relu4): ReLU()
  (fc2): Linear(in_features=3, out_features=1, bias=True)
  (sigmoid): Sigmoid()
)","[0, 2]",conv3,0.9259999990463257
123,"PyTorchCNN(
  (conv1): Conv2d(1, 16, kernel_size=(3, 3), stride=(1, 1), padding=(1, 1))
  (relu1): ReLU()
  (pool1): MaxPool2d(kernel_size=2, stride=2, padding=0, dilation=1, ceil_mode=False)
  (conv2): Conv2d(16, 32, kernel_size=(3, 3), stride=(1, 1), padding=(1, 1))
  (relu2): ReLU()
  (pool2): MaxPool2d(kernel_size=2, stride=2, padding=0, dilation=1, ceil_mode=False)
  (conv3): Conv2d(32, 64, kernel_size=(3, 3), stride=(1, 1), padding=(1, 1))
  (relu3): ReLU()
  (flatten): Flatten(start_dim=1, end_dim=-1)
  (fc1): Linear(in_features=3136, out_features=3, bias=True)
  (relu4): ReLU()
  (fc2): Linear(in_features=3, out_features=1, bias=True)
  (sigmoid): Sigmoid()
)","[0, 2]",fc1,0.8119999766349792
124,"PyTorchCNN(
  (conv1): Conv2d(1, 16, kernel_size=(3, 3), stride=(1, 1), padding=(1, 1))
  (relu1): ReLU()
  (pool1): MaxPool2d(kernel_size=2, stride=2, padding=0, dilation=1, ceil_mode=False)
  (conv2): Conv2d(16, 32, kernel_size=(3, 3), stride=(1, 1), padding=(1, 1))
  (relu2): ReLU()
  (pool2): MaxPool2d(kernel_size=2, stride=2, padding=0, dilation=1, ceil_mode=False)
  (conv3): Conv2d(32, 64, kernel_size=(3, 3), stride=(1, 1), padding=(1, 1))
  (relu3): ReLU()
  (flatten): Flatten(start_dim=1, end_dim=-1)
  (fc1): Linear(in_features=3136, out_features=3, bias=True)
  (relu4): ReLU()
  (fc2): Linear(in_features=3, out_features=1, bias=True)
  (sigmoid): Sigmoid()
)","[1, 2]",conv1,0.9240000247955322
125,"PyTorchCNN(
  (conv1): Conv2d(1, 16, kernel_size=(3, 3), stride=(1, 1), padding=(1, 1))
  (relu1): ReLU()
  (pool1): MaxPool2d(kernel_size=2, stride=2, padding=0, dilation=1, ceil_mode=False)
  (conv2): Conv2d(16, 32, kernel_size=(3, 3), stride=(1, 1), padding=(1, 1))
  (relu2): ReLU()
  (pool2): MaxPool2d(kernel_size=2, stride=2, padding=0, dilation=1, ceil_mode=False)
  (conv3): Conv2d(32, 64, kernel_size=(3, 3), stride=(1, 1), padding=(1, 1))
  (relu3): ReLU()
  (flatten): Flatten(start_dim=1, end_dim=-1)
  (fc1): Linear(in_features=3136, out_features=3, bias=True)
  (relu4): ReLU()
  (fc2): Linear(in_features=3, out_features=1, bias=True)
  (sigmoid): Sigmoid()
)","[1, 2]",conv2,0.9049999713897705
126,"PyTorchCNN(
  (conv1): Conv2d(1, 16, kernel_size=(3, 3), stride=(1, 1), padding=(1, 1))
  (relu1): ReLU()
  (pool1): MaxPool2d(kernel_size=2, stride=2, padding=0, dilation=1, ceil_mode=False)
  (conv2): Conv2d(16, 32, kernel_size=(3, 3), stride=(1, 1), padding=(1, 1))
  (relu2): ReLU()
  (pool2): MaxPool2d(kernel_size=2, stride=2, padding=0, dilation=1, ceil_mode=False)
  (conv3): Conv2d(32, 64, kernel_size=(3, 3), stride=(1, 1), padding=(1, 1))
  (relu3): ReLU()
  (flatten): Flatten(start_dim=1, end_dim=-1)
  (fc1): Linear(in_features=3136, out_features=3, bias=True)
  (relu4): ReLU()
  (fc2): Linear(in_features=3, out_features=1, bias=True)
  (sigmoid): Sigmoid()
)","[1, 2]",conv3,0.9179999828338623
127,"PyTorchCNN(
  (conv1): Conv2d(1, 16, kernel_size=(3, 3), stride=(1, 1), padding=(1, 1))
  (relu1): ReLU()
  (pool1): MaxPool2d(kernel_size=2, stride=2, padding=0, dilation=1, ceil_mode=False)
  (conv2): Conv2d(16, 32, kernel_size=(3, 3), stride=(1, 1), padding=(1, 1))
  (relu2): ReLU()
  (pool2): MaxPool2d(kernel_size=2, stride=2, padding=0, dilation=1, ceil_mode=False)
  (conv3): Conv2d(32, 64, kernel_size=(3, 3), stride=(1, 1), padding=(1, 1))
  (relu3): ReLU()
  (flatten): Flatten(start_dim=1, end_dim=-1)
  (fc1): Linear(in_features=3136, out_features=3, bias=True)
  (relu4): ReLU()
  (fc2): Linear(in_features=3, out_features=1, bias=True)
  (sigmoid): Sigmoid()
)","[1, 2]",fc1,0.7129999995231628
128,"PyTorchCNN(
  (conv1): Conv2d(1, 16, kernel_size=(3, 3), stride=(1, 1), padding=(1, 1))
  (relu1): ReLU()
  (pool1): MaxPool2d(kernel_size=2, stride=2, padding=0, dilation=1, ceil_mode=False)
  (conv2): Conv2d(16, 32, kernel_size=(3, 3), stride=(1, 1), padding=(1, 1))
  (relu2): ReLU()
  (pool2): MaxPool2d(kernel_size=2, stride=2, padding=0, dilation=1, ceil_mode=False)
  (conv3): Conv2d(32, 64, kernel_size=(3, 3), stride=(1, 1), padding=(1, 1))
  (relu3): ReLU()
  (flatten): Flatten(start_dim=1, end_dim=-1)
  (fc1): Linear(in_features=3136, out_features=3, bias=True)
  (relu4): ReLU()
  (fc2): Linear(in_features=3, out_features=1, bias=True)
  (sigmoid): Sigmoid()
)",[0],conv1,0.9309999942779541
129,"PyTorchCNN(
  (conv1): Conv2d(1, 16, kernel_size=(3, 3), stride=(1, 1), padding=(1, 1))
  (relu1): ReLU()
  (pool1): MaxPool2d(kernel_size=2, stride=2, padding=0, dilation=1, ceil_mode=False)
  (conv2): Conv2d(16, 32, kernel_size=(3, 3), stride=(1, 1), padding=(1, 1))
  (relu2): ReLU()
  (pool2): MaxPool2d(kernel_size=2, stride=2, padding=0, dilation=1, ceil_mode=False)
  (conv3): Conv2d(32, 64, kernel_size=(3, 3), stride=(1, 1), padding=(1, 1))
  (relu3): ReLU()
  (flatten): Flatten(start_dim=1, end_dim=-1)
  (fc1): Linear(in_features=3136, out_features=3, bias=True)
  (relu4): ReLU()
  (fc2): Linear(in_features=3, out_features=1, bias=True)
  (sigmoid): Sigmoid()
)",[0],conv2,0.9309999942779541
130,"PyTorchCNN(
  (conv1): Conv2d(1, 16, kernel_size=(3, 3), stride=(1, 1), padding=(1, 1))
  (relu1): ReLU()
  (pool1): MaxPool2d(kernel_size=2, stride=2, padding=0, dilation=1, ceil_mode=False)
  (conv2): Conv2d(16, 32, kernel_size=(3, 3), stride=(1, 1), padding=(1, 1))
  (relu2): ReLU()
  (pool2): MaxPool2d(kernel_size=2, stride=2, padding=0, dilation=1, ceil_mode=False)
  (conv3): Conv2d(32, 64, kernel_size=(3, 3), stride=(1, 1), padding=(1, 1))
  (relu3): ReLU()
  (flatten): Flatten(start_dim=1, end_dim=-1)
  (fc1): Linear(in_features=3136, out_features=3, bias=True)
  (relu4): ReLU()
  (fc2): Linear(in_features=3, out_features=1, bias=True)
  (sigmoid): Sigmoid()
)",[0],conv3,0.9139999747276306
131,"PyTorchCNN(
  (conv1): Conv2d(1, 16, kernel_size=(3, 3), stride=(1, 1), padding=(1, 1))
  (relu1): ReLU()
  (pool1): MaxPool2d(kernel_size=2, stride=2, padding=0, dilation=1, ceil_mode=False)
  (conv2): Conv2d(16, 32, kernel_size=(3, 3), stride=(1, 1), padding=(1, 1))
  (relu2): ReLU()
  (pool2): MaxPool2d(kernel_size=2, stride=2, padding=0, dilation=1, ceil_mode=False)
  (conv3): Conv2d(32, 64, kernel_size=(3, 3), stride=(1, 1), padding=(1, 1))
  (relu3): ReLU()
  (flatten): Flatten(start_dim=1, end_dim=-1)
  (fc1): Linear(in_features=3136, out_features=3, bias=True)
  (relu4): ReLU()
  (fc2): Linear(in_features=3, out_features=1, bias=True)
  (sigmoid): Sigmoid()
)",[0],fc1,0.8169999718666077
132,"PyTorchCNN(
  (conv1): Conv2d(1, 16, kernel_size=(3, 3), stride=(1, 1), padding=(1, 1))
  (relu1): ReLU()
  (pool1): MaxPool2d(kernel_size=2, stride=2, padding=0, dilation=1, ceil_mode=False)
  (conv2): Conv2d(16, 32, kernel_size=(3, 3), stride=(1, 1), padding=(1, 1))
  (relu2): ReLU()
  (pool2): MaxPool2d(kernel_size=2, stride=2, padding=0, dilation=1, ceil_mode=False)
  (conv3): Conv2d(32, 64, kernel_size=(3, 3), stride=(1, 1), padding=(1, 1))
  (relu3): ReLU()
  (flatten): Flatten(start_dim=1, end_dim=-1)
  (fc1): Linear(in_features=3136, out_features=3, bias=True)
  (relu4): ReLU()
  (fc2): Linear(in_features=3, out_features=1, bias=True)
  (sigmoid): Sigmoid()
)",[1],conv1,0.9710000157356262
133,"PyTorchCNN(
  (conv1): Conv2d(1, 16, kernel_size=(3, 3), stride=(1, 1), padding=(1, 1))
  (relu1): ReLU()
  (pool1): MaxPool2d(kernel_size=2, stride=2, padding=0, dilation=1, ceil_mode=False)
  (conv2): Conv2d(16, 32, kernel_size=(3, 3), stride=(1, 1), padding=(1, 1))
  (relu2): ReLU()
  (pool2): MaxPool2d(kernel_size=2, stride=2, padding=0, dilation=1, ceil_mode=False)
  (conv3): Conv2d(32, 64, kernel_size=(3, 3), stride=(1, 1), padding=(1, 1))
  (relu3): ReLU()
  (flatten): Flatten(start_dim=1, end_dim=-1)
  (fc1): Linear(in_features=3136, out_features=3, bias=True)
  (relu4): ReLU()
  (fc2): Linear(in_features=3, out_features=1, bias=True)
  (sigmoid): Sigmoid()
)",[1],conv2,0.9599999785423279
134,"PyTorchCNN(
  (conv1): Conv2d(1, 16, kernel_size=(3, 3), stride=(1, 1), padding=(1, 1))
  (relu1): ReLU()
  (pool1): MaxPool2d(kernel_size=2, stride=2, padding=0, dilation=1, ceil_mode=False)
  (conv2): Conv2d(16, 32, kernel_size=(3, 3), stride=(1, 1), padding=(1, 1))
  (relu2): ReLU()
  (pool2): MaxPool2d(kernel_size=2, stride=2, padding=0, dilation=1, ceil_mode=False)
  (conv3): Conv2d(32, 64, kernel_size=(3, 3), stride=(1, 1), padding=(1, 1))
  (relu3): ReLU()
  (flatten): Flatten(start_dim=1, end_dim=-1)
  (fc1): Linear(in_features=3136, out_features=3, bias=True)
  (relu4): ReLU()
  (fc2): Linear(in_features=3, out_features=1, bias=True)
  (sigmoid): Sigmoid()
)",[1],conv3,0.9369999766349792
135,"PyTorchCNN(
  (conv1): Conv2d(1, 16, kernel_size=(3, 3), stride=(1, 1), padding=(1, 1))
  (relu1): ReLU()
  (pool1): MaxPool2d(kernel_size=2, stride=2, padding=0, dilation=1, ceil_mode=False)
  (conv2): Conv2d(16, 32, kernel_size=(3, 3), stride=(1, 1), padding=(1, 1))
  (relu2): ReLU()
  (pool2): MaxPool2d(kernel_size=2, stride=2, padding=0, dilation=1, ceil_mode=False)
  (conv3): Conv2d(32, 64, kernel_size=(3, 3), stride=(1, 1), padding=(1, 1))
  (relu3): ReLU()
  (flatten): Flatten(start_dim=1, end_dim=-1)
  (fc1): Linear(in_features=3136, out_features=3, bias=True)
  (relu4): ReLU()
  (fc2): Linear(in_features=3, out_features=1, bias=True)
  (sigmoid): Sigmoid()
)",[1],fc1,0.7900000214576721
136,"PyTorchCNN(
  (conv1): Conv2d(1, 16, kernel_size=(3, 3), stride=(1, 1), padding=(1, 1))
  (relu1): ReLU()
  (pool1): MaxPool2d(kernel_size=2, stride=2, padding=0, dilation=1, ceil_mode=False)
  (conv2): Conv2d(16, 32, kernel_size=(3, 3), stride=(1, 1), padding=(1, 1))
  (relu2): ReLU()
  (pool2): MaxPool2d(kernel_size=2, stride=2, padding=0, dilation=1, ceil_mode=False)
  (conv3): Conv2d(32, 64, kernel_size=(3, 3), stride=(1, 1), padding=(1, 1))
  (relu3): ReLU()
  (flatten): Flatten(start_dim=1, end_dim=-1)
  (fc1): Linear(in_features=3136, out_features=3, bias=True)
  (relu4): ReLU()
  (fc2): Linear(in_features=3, out_features=1, bias=True)
  (sigmoid): Sigmoid()
)",[2],conv1,0.9350000023841858
137,"PyTorchCNN(
  (conv1): Conv2d(1, 16, kernel_size=(3, 3), stride=(1, 1), padding=(1, 1))
  (relu1): ReLU()
  (pool1): MaxPool2d(kernel_size=2, stride=2, padding=0, dilation=1, ceil_mode=False)
  (conv2): Conv2d(16, 32, kernel_size=(3, 3), stride=(1, 1), padding=(1, 1))
  (relu2): ReLU()
  (pool2): MaxPool2d(kernel_size=2, stride=2, padding=0, dilation=1, ceil_mode=False)
  (conv3): Conv2d(32, 64, kernel_size=(3, 3), stride=(1, 1), padding=(1, 1))
  (relu3): ReLU()
  (flatten): Flatten(start_dim=1, end_dim=-1)
  (fc1): Linear(in_features=3136, out_features=3, bias=True)
  (relu4): ReLU()
  (fc2): Linear(in_features=3, out_features=1, bias=True)
  (sigmoid): Sigmoid()
)",[2],conv2,0.9399999976158142
138,"PyTorchCNN(
  (conv1): Conv2d(1, 16, kernel_size=(3, 3), stride=(1, 1), padding=(1, 1))
  (relu1): ReLU()
  (pool1): MaxPool2d(kernel_size=2, stride=2, padding=0, dilation=1, ceil_mode=False)
  (conv2): Conv2d(16, 32, kernel_size=(3, 3), stride=(1, 1), padding=(1, 1))
  (relu2): ReLU()
  (pool2): MaxPool2d(kernel_size=2, stride=2, padding=0, dilation=1, ceil_mode=False)
  (conv3): Conv2d(32, 64, kernel_size=(3, 3), stride=(1, 1), padding=(1, 1))
  (relu3): ReLU()
  (flatten): Flatten(start_dim=1, end_dim=-1)
  (fc1): Linear(in_features=3136, out_features=3, bias=True)
  (relu4): ReLU()
  (fc2): Linear(in_features=3, out_features=1, bias=True)
  (sigmoid): Sigmoid()
)",[2],conv3,0.8989999890327454
139,"PyTorchCNN(
  (conv1): Conv2d(1, 16, kernel_size=(3, 3), stride=(1, 1), padding=(1, 1))
  (relu1): ReLU()
  (pool1): MaxPool2d(kernel_size=2, stride=2, padding=0, dilation=1, ceil_mode=False)
  (conv2): Conv2d(16, 32, kernel_size=(3, 3), stride=(1, 1), padding=(1, 1))
  (relu2): ReLU()
  (pool2): MaxPool2d(kernel_size=2, stride=2, padding=0, dilation=1, ceil_mode=False)
  (conv3): Conv2d(32, 64, kernel_size=(3, 3), stride=(1, 1), padding=(1, 1))
  (relu3): ReLU()
  (flatten): Flatten(start_dim=1, end_dim=-1)
  (fc1): Linear(in_features=3136, out_features=3, bias=True)
  (relu4): ReLU()
  (fc2): Linear(in_features=3, out_features=1, bias=True)
  (sigmoid): Sigmoid()
)",[2],fc1,0.7360000014305115
140,"PyTorchCNN(
  (conv1): Conv2d(1, 16, kernel_size=(3, 3), stride=(1, 1), padding=(1, 1))
  (relu1): ReLU()
  (pool1): MaxPool2d(kernel_size=2, stride=2, padding=0, dilation=1, ceil_mode=False)
  (conv2): Conv2d(16, 32, kernel_size=(3, 3), stride=(1, 1), padding=(1, 1))
  (relu2): ReLU()
  (pool2): MaxPool2d(kernel_size=2, stride=2, padding=0, dilation=1, ceil_mode=False)
  (conv3): Conv2d(32, 64, kernel_size=(3, 3), stride=(1, 1), padding=(1, 1))
  (relu3): ReLU()
  (flatten): Flatten(start_dim=1, end_dim=-1)
  (fc1): Linear(in_features=3136, out_features=3, bias=True)
  (relu4): ReLU()
  (fc2): Linear(in_features=3, out_features=1, bias=True)
  (sigmoid): Sigmoid()
)","[0, 1, 2]",conv1,0.9269999861717224
141,"PyTorchCNN(
  (conv1): Conv2d(1, 16, kernel_size=(3, 3), stride=(1, 1), padding=(1, 1))
  (relu1): ReLU()
  (pool1): MaxPool2d(kernel_size=2, stride=2, padding=0, dilation=1, ceil_mode=False)
  (conv2): Conv2d(16, 32, kernel_size=(3, 3), stride=(1, 1), padding=(1, 1))
  (relu2): ReLU()
  (pool2): MaxPool2d(kernel_size=2, stride=2, padding=0, dilation=1, ceil_mode=False)
  (conv3): Conv2d(32, 64, kernel_size=(3, 3), stride=(1, 1), padding=(1, 1))
  (relu3): ReLU()
  (flatten): Flatten(start_dim=1, end_dim=-1)
  (fc1): Linear(in_features=3136, out_features=3, bias=True)
  (relu4): ReLU()
  (fc2): Linear(in_features=3, out_features=1, bias=True)
  (sigmoid): Sigmoid()
)","[0, 1, 2]",conv2,0.925000011920929
142,"PyTorchCNN(
  (conv1): Conv2d(1, 16, kernel_size=(3, 3), stride=(1, 1), padding=(1, 1))
  (relu1): ReLU()
  (pool1): MaxPool2d(kernel_size=2, stride=2, padding=0, dilation=1, ceil_mode=False)
  (conv2): Conv2d(16, 32, kernel_size=(3, 3), stride=(1, 1), padding=(1, 1))
  (relu2): ReLU()
  (pool2): MaxPool2d(kernel_size=2, stride=2, padding=0, dilation=1, ceil_mode=False)
  (conv3): Conv2d(32, 64, kernel_size=(3, 3), stride=(1, 1), padding=(1, 1))
  (relu3): ReLU()
  (flatten): Flatten(start_dim=1, end_dim=-1)
  (fc1): Linear(in_features=3136, out_features=3, bias=True)
  (relu4): ReLU()
  (fc2): Linear(in_features=3, out_features=1, bias=True)
  (sigmoid): Sigmoid()
)","[0, 1, 2]",conv3,0.9300000071525574
143,"PyTorchCNN(
  (conv1): Conv2d(1, 16, kernel_size=(3, 3), stride=(1, 1), padding=(1, 1))
  (relu1): ReLU()
  (pool1): MaxPool2d(kernel_size=2, stride=2, padding=0, dilation=1, ceil_mode=False)
  (conv2): Conv2d(16, 32, kernel_size=(3, 3), stride=(1, 1), padding=(1, 1))
  (relu2): ReLU()
  (pool2): MaxPool2d(kernel_size=2, stride=2, padding=0, dilation=1, ceil_mode=False)
  (conv3): Conv2d(32, 64, kernel_size=(3, 3), stride=(1, 1), padding=(1, 1))
  (relu3): ReLU()
  (flatten): Flatten(start_dim=1, end_dim=-1)
  (fc1): Linear(in_features=3136, out_features=3, bias=True)
  (relu4): ReLU()
  (fc2): Linear(in_features=3, out_features=1, bias=True)
  (sigmoid): Sigmoid()
)","[0, 1, 2]",fc1,0.5260000228881836
144,"PyTorchCNN(
  (conv1): Conv2d(1, 16, kernel_size=(3, 3), stride=(1, 1), padding=(1, 1))
  (relu1): ReLU()
  (pool1): MaxPool2d(kernel_size=2, stride=2, padding=0, dilation=1, ceil_mode=False)
  (conv2): Conv2d(16, 32, kernel_size=(3, 3), stride=(1, 1), padding=(1, 1))
  (relu2): ReLU()
  (pool2): MaxPool2d(kernel_size=2, stride=2, padding=0, dilation=1, ceil_mode=False)
  (conv3): Conv2d(32, 64, kernel_size=(3, 3), stride=(1, 1), padding=(1, 1))
  (relu3): ReLU()
  (flatten): Flatten(start_dim=1, end_dim=-1)
  (fc1): Linear(in_features=3136, out_features=3, bias=True)
  (relu4): ReLU()
  (fc2): Linear(in_features=3, out_features=1, bias=True)
  (sigmoid): Sigmoid()
)","[0, 1]",conv1,0.9210000038146973
145,"PyTorchCNN(
  (conv1): Conv2d(1, 16, kernel_size=(3, 3), stride=(1, 1), padding=(1, 1))
  (relu1): ReLU()
  (pool1): MaxPool2d(kernel_size=2, stride=2, padding=0, dilation=1, ceil_mode=False)
  (conv2): Conv2d(16, 32, kernel_size=(3, 3), stride=(1, 1), padding=(1, 1))
  (relu2): ReLU()
  (pool2): MaxPool2d(kernel_size=2, stride=2, padding=0, dilation=1, ceil_mode=False)
  (conv3): Conv2d(32, 64, kernel_size=(3, 3), stride=(1, 1), padding=(1, 1))
  (relu3): ReLU()
  (flatten): Flatten(start_dim=1, end_dim=-1)
  (fc1): Linear(in_features=3136, out_features=3, bias=True)
  (relu4): ReLU()
  (fc2): Linear(in_features=3, out_features=1, bias=True)
  (sigmoid): Sigmoid()
)","[0, 1]",conv2,0.9319999814033508
146,"PyTorchCNN(
  (conv1): Conv2d(1, 16, kernel_size=(3, 3), stride=(1, 1), padding=(1, 1))
  (relu1): ReLU()
  (pool1): MaxPool2d(kernel_size=2, stride=2, padding=0, dilation=1, ceil_mode=False)
  (conv2): Conv2d(16, 32, kernel_size=(3, 3), stride=(1, 1), padding=(1, 1))
  (relu2): ReLU()
  (pool2): MaxPool2d(kernel_size=2, stride=2, padding=0, dilation=1, ceil_mode=False)
  (conv3): Conv2d(32, 64, kernel_size=(3, 3), stride=(1, 1), padding=(1, 1))
  (relu3): ReLU()
  (flatten): Flatten(start_dim=1, end_dim=-1)
  (fc1): Linear(in_features=3136, out_features=3, bias=True)
  (relu4): ReLU()
  (fc2): Linear(in_features=3, out_features=1, bias=True)
  (sigmoid): Sigmoid()
)","[0, 1]",conv3,0.9150000214576721
147,"PyTorchCNN(
  (conv1): Conv2d(1, 16, kernel_size=(3, 3), stride=(1, 1), padding=(1, 1))
  (relu1): ReLU()
  (pool1): MaxPool2d(kernel_size=2, stride=2, padding=0, dilation=1, ceil_mode=False)
  (conv2): Conv2d(16, 32, kernel_size=(3, 3), stride=(1, 1), padding=(1, 1))
  (relu2): ReLU()
  (pool2): MaxPool2d(kernel_size=2, stride=2, padding=0, dilation=1, ceil_mode=False)
  (conv3): Conv2d(32, 64, kernel_size=(3, 3), stride=(1, 1), padding=(1, 1))
  (relu3): ReLU()
  (flatten): Flatten(start_dim=1, end_dim=-1)
  (fc1): Linear(in_features=3136, out_features=3, bias=True)
  (relu4): ReLU()
  (fc2): Linear(in_features=3, out_features=1, bias=True)
  (sigmoid): Sigmoid()
)","[0, 1]",fc1,0.6819999814033508
148,"PyTorchCNN(
  (conv1): Conv2d(1, 16, kernel_size=(3, 3), stride=(1, 1), padding=(1, 1))
  (relu1): ReLU()
  (pool1): MaxPool2d(kernel_size=2, stride=2, padding=0, dilation=1, ceil_mode=False)
  (conv2): Conv2d(16, 32, kernel_size=(3, 3), stride=(1, 1), padding=(1, 1))
  (relu2): ReLU()
  (pool2): MaxPool2d(kernel_size=2, stride=2, padding=0, dilation=1, ceil_mode=False)
  (conv3): Conv2d(32, 64, kernel_size=(3, 3), stride=(1, 1), padding=(1, 1))
  (relu3): ReLU()
  (flatten): Flatten(start_dim=1, end_dim=-1)
  (fc1): Linear(in_features=3136, out_features=3, bias=True)
  (relu4): ReLU()
  (fc2): Linear(in_features=3, out_features=1, bias=True)
  (sigmoid): Sigmoid()
)","[0, 2]",conv1,0.9279999732971191
149,"PyTorchCNN(
  (conv1): Conv2d(1, 16, kernel_size=(3, 3), stride=(1, 1), padding=(1, 1))
  (relu1): ReLU()
  (pool1): MaxPool2d(kernel_size=2, stride=2, padding=0, dilation=1, ceil_mode=False)
  (conv2): Conv2d(16, 32, kernel_size=(3, 3), stride=(1, 1), padding=(1, 1))
  (relu2): ReLU()
  (pool2): MaxPool2d(kernel_size=2, stride=2, padding=0, dilation=1, ceil_mode=False)
  (conv3): Conv2d(32, 64, kernel_size=(3, 3), stride=(1, 1), padding=(1, 1))
  (relu3): ReLU()
  (flatten): Flatten(start_dim=1, end_dim=-1)
  (fc1): Linear(in_features=3136, out_features=3, bias=True)
  (relu4): ReLU()
  (fc2): Linear(in_features=3, out_features=1, bias=True)
  (sigmoid): Sigmoid()
)","[0, 2]",conv2,0.9160000085830688
150,"PyTorchCNN(
  (conv1): Conv2d(1, 16, kernel_size=(3, 3), stride=(1, 1), padding=(1, 1))
  (relu1): ReLU()
  (pool1): MaxPool2d(kernel_size=2, stride=2, padding=0, dilation=1, ceil_mode=False)
  (conv2): Conv2d(16, 32, kernel_size=(3, 3), stride=(1, 1), padding=(1, 1))
  (relu2): ReLU()
  (pool2): MaxPool2d(kernel_size=2, stride=2, padding=0, dilation=1, ceil_mode=False)
  (conv3): Conv2d(32, 64, kernel_size=(3, 3), stride=(1, 1), padding=(1, 1))
  (relu3): ReLU()
  (flatten): Flatten(start_dim=1, end_dim=-1)
  (fc1): Linear(in_features=3136, out_features=3, bias=True)
  (relu4): ReLU()
  (fc2): Linear(in_features=3, out_features=1, bias=True)
  (sigmoid): Sigmoid()
)","[0, 2]",conv3,0.9010000228881836
151,"PyTorchCNN(
  (conv1): Conv2d(1, 16, kernel_size=(3, 3), stride=(1, 1), padding=(1, 1))
  (relu1): ReLU()
  (pool1): MaxPool2d(kernel_size=2, stride=2, padding=0, dilation=1, ceil_mode=False)
  (conv2): Conv2d(16, 32, kernel_size=(3, 3), stride=(1, 1), padding=(1, 1))
  (relu2): ReLU()
  (pool2): MaxPool2d(kernel_size=2, stride=2, padding=0, dilation=1, ceil_mode=False)
  (conv3): Conv2d(32, 64, kernel_size=(3, 3), stride=(1, 1), padding=(1, 1))
  (relu3): ReLU()
  (flatten): Flatten(start_dim=1, end_dim=-1)
  (fc1): Linear(in_features=3136, out_features=3, bias=True)
  (relu4): ReLU()
  (fc2): Linear(in_features=3, out_features=1, bias=True)
  (sigmoid): Sigmoid()
)","[0, 2]",fc1,0.6460000276565552
152,"PyTorchCNN(
  (conv1): Conv2d(1, 16, kernel_size=(3, 3), stride=(1, 1), padding=(1, 1))
  (relu1): ReLU()
  (pool1): MaxPool2d(kernel_size=2, stride=2, padding=0, dilation=1, ceil_mode=False)
  (conv2): Conv2d(16, 32, kernel_size=(3, 3), stride=(1, 1), padding=(1, 1))
  (relu2): ReLU()
  (pool2): MaxPool2d(kernel_size=2, stride=2, padding=0, dilation=1, ceil_mode=False)
  (conv3): Conv2d(32, 64, kernel_size=(3, 3), stride=(1, 1), padding=(1, 1))
  (relu3): ReLU()
  (flatten): Flatten(start_dim=1, end_dim=-1)
  (fc1): Linear(in_features=3136, out_features=3, bias=True)
  (relu4): ReLU()
  (fc2): Linear(in_features=3, out_features=1, bias=True)
  (sigmoid): Sigmoid()
)","[1, 2]",conv1,0.9350000023841858
153,"PyTorchCNN(
  (conv1): Conv2d(1, 16, kernel_size=(3, 3), stride=(1, 1), padding=(1, 1))
  (relu1): ReLU()
  (pool1): MaxPool2d(kernel_size=2, stride=2, padding=0, dilation=1, ceil_mode=False)
  (conv2): Conv2d(16, 32, kernel_size=(3, 3), stride=(1, 1), padding=(1, 1))
  (relu2): ReLU()
  (pool2): MaxPool2d(kernel_size=2, stride=2, padding=0, dilation=1, ceil_mode=False)
  (conv3): Conv2d(32, 64, kernel_size=(3, 3), stride=(1, 1), padding=(1, 1))
  (relu3): ReLU()
  (flatten): Flatten(start_dim=1, end_dim=-1)
  (fc1): Linear(in_features=3136, out_features=3, bias=True)
  (relu4): ReLU()
  (fc2): Linear(in_features=3, out_features=1, bias=True)
  (sigmoid): Sigmoid()
)","[1, 2]",conv2,0.9290000200271606
154,"PyTorchCNN(
  (conv1): Conv2d(1, 16, kernel_size=(3, 3), stride=(1, 1), padding=(1, 1))
  (relu1): ReLU()
  (pool1): MaxPool2d(kernel_size=2, stride=2, padding=0, dilation=1, ceil_mode=False)
  (conv2): Conv2d(16, 32, kernel_size=(3, 3), stride=(1, 1), padding=(1, 1))
  (relu2): ReLU()
  (pool2): MaxPool2d(kernel_size=2, stride=2, padding=0, dilation=1, ceil_mode=False)
  (conv3): Conv2d(32, 64, kernel_size=(3, 3), stride=(1, 1), padding=(1, 1))
  (relu3): ReLU()
  (flatten): Flatten(start_dim=1, end_dim=-1)
  (fc1): Linear(in_features=3136, out_features=3, bias=True)
  (relu4): ReLU()
  (fc2): Linear(in_features=3, out_features=1, bias=True)
  (sigmoid): Sigmoid()
)","[1, 2]",conv3,0.8629999756813049
155,"PyTorchCNN(
  (conv1): Conv2d(1, 16, kernel_size=(3, 3), stride=(1, 1), padding=(1, 1))
  (relu1): ReLU()
  (pool1): MaxPool2d(kernel_size=2, stride=2, padding=0, dilation=1, ceil_mode=False)
  (conv2): Conv2d(16, 32, kernel_size=(3, 3), stride=(1, 1), padding=(1, 1))
  (relu2): ReLU()
  (pool2): MaxPool2d(kernel_size=2, stride=2, padding=0, dilation=1, ceil_mode=False)
  (conv3): Conv2d(32, 64, kernel_size=(3, 3), stride=(1, 1), padding=(1, 1))
  (relu3): ReLU()
  (flatten): Flatten(start_dim=1, end_dim=-1)
  (fc1): Linear(in_features=3136, out_features=3, bias=True)
  (relu4): ReLU()
  (fc2): Linear(in_features=3, out_features=1, bias=True)
  (sigmoid): Sigmoid()
)","[1, 2]",fc1,0.7329999804496765
156,"PyTorchCNN(
  (conv1): Conv2d(1, 16, kernel_size=(3, 3), stride=(1, 1), padding=(1, 1))
  (relu1): ReLU()
  (pool1): MaxPool2d(kernel_size=2, stride=2, padding=0, dilation=1, ceil_mode=False)
  (conv2): Conv2d(16, 32, kernel_size=(3, 3), stride=(1, 1), padding=(1, 1))
  (relu2): ReLU()
  (pool2): MaxPool2d(kernel_size=2, stride=2, padding=0, dilation=1, ceil_mode=False)
  (conv3): Conv2d(32, 64, kernel_size=(3, 3), stride=(1, 1), padding=(1, 1))
  (relu3): ReLU()
  (flatten): Flatten(start_dim=1, end_dim=-1)
  (fc1): Linear(in_features=3136, out_features=3, bias=True)
  (relu4): ReLU()
  (fc2): Linear(in_features=3, out_features=1, bias=True)
  (sigmoid): Sigmoid()
)",[0],conv1,0.9049999713897705
157,"PyTorchCNN(
  (conv1): Conv2d(1, 16, kernel_size=(3, 3), stride=(1, 1), padding=(1, 1))
  (relu1): ReLU()
  (pool1): MaxPool2d(kernel_size=2, stride=2, padding=0, dilation=1, ceil_mode=False)
  (conv2): Conv2d(16, 32, kernel_size=(3, 3), stride=(1, 1), padding=(1, 1))
  (relu2): ReLU()
  (pool2): MaxPool2d(kernel_size=2, stride=2, padding=0, dilation=1, ceil_mode=False)
  (conv3): Conv2d(32, 64, kernel_size=(3, 3), stride=(1, 1), padding=(1, 1))
  (relu3): ReLU()
  (flatten): Flatten(start_dim=1, end_dim=-1)
  (fc1): Linear(in_features=3136, out_features=3, bias=True)
  (relu4): ReLU()
  (fc2): Linear(in_features=3, out_features=1, bias=True)
  (sigmoid): Sigmoid()
)",[0],conv2,0.8889999985694885
158,"PyTorchCNN(
  (conv1): Conv2d(1, 16, kernel_size=(3, 3), stride=(1, 1), padding=(1, 1))
  (relu1): ReLU()
  (pool1): MaxPool2d(kernel_size=2, stride=2, padding=0, dilation=1, ceil_mode=False)
  (conv2): Conv2d(16, 32, kernel_size=(3, 3), stride=(1, 1), padding=(1, 1))
  (relu2): ReLU()
  (pool2): MaxPool2d(kernel_size=2, stride=2, padding=0, dilation=1, ceil_mode=False)
  (conv3): Conv2d(32, 64, kernel_size=(3, 3), stride=(1, 1), padding=(1, 1))
  (relu3): ReLU()
  (flatten): Flatten(start_dim=1, end_dim=-1)
  (fc1): Linear(in_features=3136, out_features=3, bias=True)
  (relu4): ReLU()
  (fc2): Linear(in_features=3, out_features=1, bias=True)
  (sigmoid): Sigmoid()
)",[0],conv3,0.8849999904632568
159,"PyTorchCNN(
  (conv1): Conv2d(1, 16, kernel_size=(3, 3), stride=(1, 1), padding=(1, 1))
  (relu1): ReLU()
  (pool1): MaxPool2d(kernel_size=2, stride=2, padding=0, dilation=1, ceil_mode=False)
  (conv2): Conv2d(16, 32, kernel_size=(3, 3), stride=(1, 1), padding=(1, 1))
  (relu2): ReLU()
  (pool2): MaxPool2d(kernel_size=2, stride=2, padding=0, dilation=1, ceil_mode=False)
  (conv3): Conv2d(32, 64, kernel_size=(3, 3), stride=(1, 1), padding=(1, 1))
  (relu3): ReLU()
  (flatten): Flatten(start_dim=1, end_dim=-1)
  (fc1): Linear(in_features=3136, out_features=3, bias=True)
  (relu4): ReLU()
  (fc2): Linear(in_features=3, out_features=1, bias=True)
  (sigmoid): Sigmoid()
)",[0],fc1,0.6499999761581421
160,"PyTorchCNN(
  (conv1): Conv2d(1, 16, kernel_size=(3, 3), stride=(1, 1), padding=(1, 1))
  (relu1): ReLU()
  (pool1): MaxPool2d(kernel_size=2, stride=2, padding=0, dilation=1, ceil_mode=False)
  (conv2): Conv2d(16, 32, kernel_size=(3, 3), stride=(1, 1), padding=(1, 1))
  (relu2): ReLU()
  (pool2): MaxPool2d(kernel_size=2, stride=2, padding=0, dilation=1, ceil_mode=False)
  (conv3): Conv2d(32, 64, kernel_size=(3, 3), stride=(1, 1), padding=(1, 1))
  (relu3): ReLU()
  (flatten): Flatten(start_dim=1, end_dim=-1)
  (fc1): Linear(in_features=3136, out_features=3, bias=True)
  (relu4): ReLU()
  (fc2): Linear(in_features=3, out_features=1, bias=True)
  (sigmoid): Sigmoid()
)",[1],conv1,0.9559999704360962
161,"PyTorchCNN(
  (conv1): Conv2d(1, 16, kernel_size=(3, 3), stride=(1, 1), padding=(1, 1))
  (relu1): ReLU()
  (pool1): MaxPool2d(kernel_size=2, stride=2, padding=0, dilation=1, ceil_mode=False)
  (conv2): Conv2d(16, 32, kernel_size=(3, 3), stride=(1, 1), padding=(1, 1))
  (relu2): ReLU()
  (pool2): MaxPool2d(kernel_size=2, stride=2, padding=0, dilation=1, ceil_mode=False)
  (conv3): Conv2d(32, 64, kernel_size=(3, 3), stride=(1, 1), padding=(1, 1))
  (relu3): ReLU()
  (flatten): Flatten(start_dim=1, end_dim=-1)
  (fc1): Linear(in_features=3136, out_features=3, bias=True)
  (relu4): ReLU()
  (fc2): Linear(in_features=3, out_features=1, bias=True)
  (sigmoid): Sigmoid()
)",[1],conv2,0.9649999737739563
162,"PyTorchCNN(
  (conv1): Conv2d(1, 16, kernel_size=(3, 3), stride=(1, 1), padding=(1, 1))
  (relu1): ReLU()
  (pool1): MaxPool2d(kernel_size=2, stride=2, padding=0, dilation=1, ceil_mode=False)
  (conv2): Conv2d(16, 32, kernel_size=(3, 3), stride=(1, 1), padding=(1, 1))
  (relu2): ReLU()
  (pool2): MaxPool2d(kernel_size=2, stride=2, padding=0, dilation=1, ceil_mode=False)
  (conv3): Conv2d(32, 64, kernel_size=(3, 3), stride=(1, 1), padding=(1, 1))
  (relu3): ReLU()
  (flatten): Flatten(start_dim=1, end_dim=-1)
  (fc1): Linear(in_features=3136, out_features=3, bias=True)
  (relu4): ReLU()
  (fc2): Linear(in_features=3, out_features=1, bias=True)
  (sigmoid): Sigmoid()
)",[1],conv3,0.9330000281333923
163,"PyTorchCNN(
  (conv1): Conv2d(1, 16, kernel_size=(3, 3), stride=(1, 1), padding=(1, 1))
  (relu1): ReLU()
  (pool1): MaxPool2d(kernel_size=2, stride=2, padding=0, dilation=1, ceil_mode=False)
  (conv2): Conv2d(16, 32, kernel_size=(3, 3), stride=(1, 1), padding=(1, 1))
  (relu2): ReLU()
  (pool2): MaxPool2d(kernel_size=2, stride=2, padding=0, dilation=1, ceil_mode=False)
  (conv3): Conv2d(32, 64, kernel_size=(3, 3), stride=(1, 1), padding=(1, 1))
  (relu3): ReLU()
  (flatten): Flatten(start_dim=1, end_dim=-1)
  (fc1): Linear(in_features=3136, out_features=3, bias=True)
  (relu4): ReLU()
  (fc2): Linear(in_features=3, out_features=1, bias=True)
  (sigmoid): Sigmoid()
)",[1],fc1,0.6589999794960022
164,"PyTorchCNN(
  (conv1): Conv2d(1, 16, kernel_size=(3, 3), stride=(1, 1), padding=(1, 1))
  (relu1): ReLU()
  (pool1): MaxPool2d(kernel_size=2, stride=2, padding=0, dilation=1, ceil_mode=False)
  (conv2): Conv2d(16, 32, kernel_size=(3, 3), stride=(1, 1), padding=(1, 1))
  (relu2): ReLU()
  (pool2): MaxPool2d(kernel_size=2, stride=2, padding=0, dilation=1, ceil_mode=False)
  (conv3): Conv2d(32, 64, kernel_size=(3, 3), stride=(1, 1), padding=(1, 1))
  (relu3): ReLU()
  (flatten): Flatten(start_dim=1, end_dim=-1)
  (fc1): Linear(in_features=3136, out_features=3, bias=True)
  (relu4): ReLU()
  (fc2): Linear(in_features=3, out_features=1, bias=True)
  (sigmoid): Sigmoid()
)",[2],conv1,0.9559999704360962
165,"PyTorchCNN(
  (conv1): Conv2d(1, 16, kernel_size=(3, 3), stride=(1, 1), padding=(1, 1))
  (relu1): ReLU()
  (pool1): MaxPool2d(kernel_size=2, stride=2, padding=0, dilation=1, ceil_mode=False)
  (conv2): Conv2d(16, 32, kernel_size=(3, 3), stride=(1, 1), padding=(1, 1))
  (relu2): ReLU()
  (pool2): MaxPool2d(kernel_size=2, stride=2, padding=0, dilation=1, ceil_mode=False)
  (conv3): Conv2d(32, 64, kernel_size=(3, 3), stride=(1, 1), padding=(1, 1))
  (relu3): ReLU()
  (flatten): Flatten(start_dim=1, end_dim=-1)
  (fc1): Linear(in_features=3136, out_features=3, bias=True)
  (relu4): ReLU()
  (fc2): Linear(in_features=3, out_features=1, bias=True)
  (sigmoid): Sigmoid()
)",[2],conv2,0.9409999847412109
166,"PyTorchCNN(
  (conv1): Conv2d(1, 16, kernel_size=(3, 3), stride=(1, 1), padding=(1, 1))
  (relu1): ReLU()
  (pool1): MaxPool2d(kernel_size=2, stride=2, padding=0, dilation=1, ceil_mode=False)
  (conv2): Conv2d(16, 32, kernel_size=(3, 3), stride=(1, 1), padding=(1, 1))
  (relu2): ReLU()
  (pool2): MaxPool2d(kernel_size=2, stride=2, padding=0, dilation=1, ceil_mode=False)
  (conv3): Conv2d(32, 64, kernel_size=(3, 3), stride=(1, 1), padding=(1, 1))
  (relu3): ReLU()
  (flatten): Flatten(start_dim=1, end_dim=-1)
  (fc1): Linear(in_features=3136, out_features=3, bias=True)
  (relu4): ReLU()
  (fc2): Linear(in_features=3, out_features=1, bias=True)
  (sigmoid): Sigmoid()
)",[2],conv3,0.9160000085830688
167,"PyTorchCNN(
  (conv1): Conv2d(1, 16, kernel_size=(3, 3), stride=(1, 1), padding=(1, 1))
  (relu1): ReLU()
  (pool1): MaxPool2d(kernel_size=2, stride=2, padding=0, dilation=1, ceil_mode=False)
  (conv2): Conv2d(16, 32, kernel_size=(3, 3), stride=(1, 1), padding=(1, 1))
  (relu2): ReLU()
  (pool2): MaxPool2d(kernel_size=2, stride=2, padding=0, dilation=1, ceil_mode=False)
  (conv3): Conv2d(32, 64, kernel_size=(3, 3), stride=(1, 1), padding=(1, 1))
  (relu3): ReLU()
  (flatten): Flatten(start_dim=1, end_dim=-1)
  (fc1): Linear(in_features=3136, out_features=3, bias=True)
  (relu4): ReLU()
  (fc2): Linear(in_features=3, out_features=1, bias=True)
  (sigmoid): Sigmoid()
)",[2],fc1,0.7549999952316284
168,"PyTorchCNN(
  (conv1): Conv2d(1, 16, kernel_size=(3, 3), stride=(1, 1), padding=(1, 1))
  (relu1): ReLU()
  (pool1): MaxPool2d(kernel_size=2, stride=2, padding=0, dilation=1, ceil_mode=False)
  (conv2): Conv2d(16, 32, kernel_size=(3, 3), stride=(1, 1), padding=(1, 1))
  (relu2): ReLU()
  (pool2): MaxPool2d(kernel_size=2, stride=2, padding=0, dilation=1, ceil_mode=False)
  (conv3): Conv2d(32, 64, kernel_size=(3, 3), stride=(1, 1), padding=(1, 1))
  (relu3): ReLU()
  (flatten): Flatten(start_dim=1, end_dim=-1)
  (fc1): Linear(in_features=3136, out_features=3, bias=True)
  (relu4): ReLU()
  (fc2): Linear(in_features=3, out_features=1, bias=True)
  (sigmoid): Sigmoid()
)","[0, 1, 2]",conv1,0.925000011920929
169,"PyTorchCNN(
  (conv1): Conv2d(1, 16, kernel_size=(3, 3), stride=(1, 1), padding=(1, 1))
  (relu1): ReLU()
  (pool1): MaxPool2d(kernel_size=2, stride=2, padding=0, dilation=1, ceil_mode=False)
  (conv2): Conv2d(16, 32, kernel_size=(3, 3), stride=(1, 1), padding=(1, 1))
  (relu2): ReLU()
  (pool2): MaxPool2d(kernel_size=2, stride=2, padding=0, dilation=1, ceil_mode=False)
  (conv3): Conv2d(32, 64, kernel_size=(3, 3), stride=(1, 1), padding=(1, 1))
  (relu3): ReLU()
  (flatten): Flatten(start_dim=1, end_dim=-1)
  (fc1): Linear(in_features=3136, out_features=3, bias=True)
  (relu4): ReLU()
  (fc2): Linear(in_features=3, out_features=1, bias=True)
  (sigmoid): Sigmoid()
)","[0, 1, 2]",conv2,0.9430000185966492
170,"PyTorchCNN(
  (conv1): Conv2d(1, 16, kernel_size=(3, 3), stride=(1, 1), padding=(1, 1))
  (relu1): ReLU()
  (pool1): MaxPool2d(kernel_size=2, stride=2, padding=0, dilation=1, ceil_mode=False)
  (conv2): Conv2d(16, 32, kernel_size=(3, 3), stride=(1, 1), padding=(1, 1))
  (relu2): ReLU()
  (pool2): MaxPool2d(kernel_size=2, stride=2, padding=0, dilation=1, ceil_mode=False)
  (conv3): Conv2d(32, 64, kernel_size=(3, 3), stride=(1, 1), padding=(1, 1))
  (relu3): ReLU()
  (flatten): Flatten(start_dim=1, end_dim=-1)
  (fc1): Linear(in_features=3136, out_features=3, bias=True)
  (relu4): ReLU()
  (fc2): Linear(in_features=3, out_features=1, bias=True)
  (sigmoid): Sigmoid()
)","[0, 1, 2]",conv3,0.9440000057220459
171,"PyTorchCNN(
  (conv1): Conv2d(1, 16, kernel_size=(3, 3), stride=(1, 1), padding=(1, 1))
  (relu1): ReLU()
  (pool1): MaxPool2d(kernel_size=2, stride=2, padding=0, dilation=1, ceil_mode=False)
  (conv2): Conv2d(16, 32, kernel_size=(3, 3), stride=(1, 1), padding=(1, 1))
  (relu2): ReLU()
  (pool2): MaxPool2d(kernel_size=2, stride=2, padding=0, dilation=1, ceil_mode=False)
  (conv3): Conv2d(32, 64, kernel_size=(3, 3), stride=(1, 1), padding=(1, 1))
  (relu3): ReLU()
  (flatten): Flatten(start_dim=1, end_dim=-1)
  (fc1): Linear(in_features=3136, out_features=3, bias=True)
  (relu4): ReLU()
  (fc2): Linear(in_features=3, out_features=1, bias=True)
  (sigmoid): Sigmoid()
)","[0, 1, 2]",fc1,0.4959999918937683
172,"PyTorchCNN(
  (conv1): Conv2d(1, 16, kernel_size=(3, 3), stride=(1, 1), padding=(1, 1))
  (relu1): ReLU()
  (pool1): MaxPool2d(kernel_size=2, stride=2, padding=0, dilation=1, ceil_mode=False)
  (conv2): Conv2d(16, 32, kernel_size=(3, 3), stride=(1, 1), padding=(1, 1))
  (relu2): ReLU()
  (pool2): MaxPool2d(kernel_size=2, stride=2, padding=0, dilation=1, ceil_mode=False)
  (conv3): Conv2d(32, 64, kernel_size=(3, 3), stride=(1, 1), padding=(1, 1))
  (relu3): ReLU()
  (flatten): Flatten(start_dim=1, end_dim=-1)
  (fc1): Linear(in_features=3136, out_features=3, bias=True)
  (relu4): ReLU()
  (fc2): Linear(in_features=3, out_features=1, bias=True)
  (sigmoid): Sigmoid()
)","[0, 1]",conv1,0.9129999876022339
173,"PyTorchCNN(
  (conv1): Conv2d(1, 16, kernel_size=(3, 3), stride=(1, 1), padding=(1, 1))
  (relu1): ReLU()
  (pool1): MaxPool2d(kernel_size=2, stride=2, padding=0, dilation=1, ceil_mode=False)
  (conv2): Conv2d(16, 32, kernel_size=(3, 3), stride=(1, 1), padding=(1, 1))
  (relu2): ReLU()
  (pool2): MaxPool2d(kernel_size=2, stride=2, padding=0, dilation=1, ceil_mode=False)
  (conv3): Conv2d(32, 64, kernel_size=(3, 3), stride=(1, 1), padding=(1, 1))
  (relu3): ReLU()
  (flatten): Flatten(start_dim=1, end_dim=-1)
  (fc1): Linear(in_features=3136, out_features=3, bias=True)
  (relu4): ReLU()
  (fc2): Linear(in_features=3, out_features=1, bias=True)
  (sigmoid): Sigmoid()
)","[0, 1]",conv2,0.9129999876022339
174,"PyTorchCNN(
  (conv1): Conv2d(1, 16, kernel_size=(3, 3), stride=(1, 1), padding=(1, 1))
  (relu1): ReLU()
  (pool1): MaxPool2d(kernel_size=2, stride=2, padding=0, dilation=1, ceil_mode=False)
  (conv2): Conv2d(16, 32, kernel_size=(3, 3), stride=(1, 1), padding=(1, 1))
  (relu2): ReLU()
  (pool2): MaxPool2d(kernel_size=2, stride=2, padding=0, dilation=1, ceil_mode=False)
  (conv3): Conv2d(32, 64, kernel_size=(3, 3), stride=(1, 1), padding=(1, 1))
  (relu3): ReLU()
  (flatten): Flatten(start_dim=1, end_dim=-1)
  (fc1): Linear(in_features=3136, out_features=3, bias=True)
  (relu4): ReLU()
  (fc2): Linear(in_features=3, out_features=1, bias=True)
  (sigmoid): Sigmoid()
)","[0, 1]",conv3,0.8809999823570251
175,"PyTorchCNN(
  (conv1): Conv2d(1, 16, kernel_size=(3, 3), stride=(1, 1), padding=(1, 1))
  (relu1): ReLU()
  (pool1): MaxPool2d(kernel_size=2, stride=2, padding=0, dilation=1, ceil_mode=False)
  (conv2): Conv2d(16, 32, kernel_size=(3, 3), stride=(1, 1), padding=(1, 1))
  (relu2): ReLU()
  (pool2): MaxPool2d(kernel_size=2, stride=2, padding=0, dilation=1, ceil_mode=False)
  (conv3): Conv2d(32, 64, kernel_size=(3, 3), stride=(1, 1), padding=(1, 1))
  (relu3): ReLU()
  (flatten): Flatten(start_dim=1, end_dim=-1)
  (fc1): Linear(in_features=3136, out_features=3, bias=True)
  (relu4): ReLU()
  (fc2): Linear(in_features=3, out_features=1, bias=True)
  (sigmoid): Sigmoid()
)","[0, 1]",fc1,0.7020000219345093
176,"PyTorchCNN(
  (conv1): Conv2d(1, 16, kernel_size=(3, 3), stride=(1, 1), padding=(1, 1))
  (relu1): ReLU()
  (pool1): MaxPool2d(kernel_size=2, stride=2, padding=0, dilation=1, ceil_mode=False)
  (conv2): Conv2d(16, 32, kernel_size=(3, 3), stride=(1, 1), padding=(1, 1))
  (relu2): ReLU()
  (pool2): MaxPool2d(kernel_size=2, stride=2, padding=0, dilation=1, ceil_mode=False)
  (conv3): Conv2d(32, 64, kernel_size=(3, 3), stride=(1, 1), padding=(1, 1))
  (relu3): ReLU()
  (flatten): Flatten(start_dim=1, end_dim=-1)
  (fc1): Linear(in_features=3136, out_features=3, bias=True)
  (relu4): ReLU()
  (fc2): Linear(in_features=3, out_features=1, bias=True)
  (sigmoid): Sigmoid()
)","[0, 2]",conv1,0.9340000152587891
177,"PyTorchCNN(
  (conv1): Conv2d(1, 16, kernel_size=(3, 3), stride=(1, 1), padding=(1, 1))
  (relu1): ReLU()
  (pool1): MaxPool2d(kernel_size=2, stride=2, padding=0, dilation=1, ceil_mode=False)
  (conv2): Conv2d(16, 32, kernel_size=(3, 3), stride=(1, 1), padding=(1, 1))
  (relu2): ReLU()
  (pool2): MaxPool2d(kernel_size=2, stride=2, padding=0, dilation=1, ceil_mode=False)
  (conv3): Conv2d(32, 64, kernel_size=(3, 3), stride=(1, 1), padding=(1, 1))
  (relu3): ReLU()
  (flatten): Flatten(start_dim=1, end_dim=-1)
  (fc1): Linear(in_features=3136, out_features=3, bias=True)
  (relu4): ReLU()
  (fc2): Linear(in_features=3, out_features=1, bias=True)
  (sigmoid): Sigmoid()
)","[0, 2]",conv2,0.9309999942779541
178,"PyTorchCNN(
  (conv1): Conv2d(1, 16, kernel_size=(3, 3), stride=(1, 1), padding=(1, 1))
  (relu1): ReLU()
  (pool1): MaxPool2d(kernel_size=2, stride=2, padding=0, dilation=1, ceil_mode=False)
  (conv2): Conv2d(16, 32, kernel_size=(3, 3), stride=(1, 1), padding=(1, 1))
  (relu2): ReLU()
  (pool2): MaxPool2d(kernel_size=2, stride=2, padding=0, dilation=1, ceil_mode=False)
  (conv3): Conv2d(32, 64, kernel_size=(3, 3), stride=(1, 1), padding=(1, 1))
  (relu3): ReLU()
  (flatten): Flatten(start_dim=1, end_dim=-1)
  (fc1): Linear(in_features=3136, out_features=3, bias=True)
  (relu4): ReLU()
  (fc2): Linear(in_features=3, out_features=1, bias=True)
  (sigmoid): Sigmoid()
)","[0, 2]",conv3,0.9010000228881836
179,"PyTorchCNN(
  (conv1): Conv2d(1, 16, kernel_size=(3, 3), stride=(1, 1), padding=(1, 1))
  (relu1): ReLU()
  (pool1): MaxPool2d(kernel_size=2, stride=2, padding=0, dilation=1, ceil_mode=False)
  (conv2): Conv2d(16, 32, kernel_size=(3, 3), stride=(1, 1), padding=(1, 1))
  (relu2): ReLU()
  (pool2): MaxPool2d(kernel_size=2, stride=2, padding=0, dilation=1, ceil_mode=False)
  (conv3): Conv2d(32, 64, kernel_size=(3, 3), stride=(1, 1), padding=(1, 1))
  (relu3): ReLU()
  (flatten): Flatten(start_dim=1, end_dim=-1)
  (fc1): Linear(in_features=3136, out_features=3, bias=True)
  (relu4): ReLU()
  (fc2): Linear(in_features=3, out_features=1, bias=True)
  (sigmoid): Sigmoid()
)","[0, 2]",fc1,0.7099999785423279
180,"PyTorchCNN(
  (conv1): Conv2d(1, 16, kernel_size=(3, 3), stride=(1, 1), padding=(1, 1))
  (relu1): ReLU()
  (pool1): MaxPool2d(kernel_size=2, stride=2, padding=0, dilation=1, ceil_mode=False)
  (conv2): Conv2d(16, 32, kernel_size=(3, 3), stride=(1, 1), padding=(1, 1))
  (relu2): ReLU()
  (pool2): MaxPool2d(kernel_size=2, stride=2, padding=0, dilation=1, ceil_mode=False)
  (conv3): Conv2d(32, 64, kernel_size=(3, 3), stride=(1, 1), padding=(1, 1))
  (relu3): ReLU()
  (flatten): Flatten(start_dim=1, end_dim=-1)
  (fc1): Linear(in_features=3136, out_features=3, bias=True)
  (relu4): ReLU()
  (fc2): Linear(in_features=3, out_features=1, bias=True)
  (sigmoid): Sigmoid()
)","[1, 2]",conv1,0.9350000023841858
181,"PyTorchCNN(
  (conv1): Conv2d(1, 16, kernel_size=(3, 3), stride=(1, 1), padding=(1, 1))
  (relu1): ReLU()
  (pool1): MaxPool2d(kernel_size=2, stride=2, padding=0, dilation=1, ceil_mode=False)
  (conv2): Conv2d(16, 32, kernel_size=(3, 3), stride=(1, 1), padding=(1, 1))
  (relu2): ReLU()
  (pool2): MaxPool2d(kernel_size=2, stride=2, padding=0, dilation=1, ceil_mode=False)
  (conv3): Conv2d(32, 64, kernel_size=(3, 3), stride=(1, 1), padding=(1, 1))
  (relu3): ReLU()
  (flatten): Flatten(start_dim=1, end_dim=-1)
  (fc1): Linear(in_features=3136, out_features=3, bias=True)
  (relu4): ReLU()
  (fc2): Linear(in_features=3, out_features=1, bias=True)
  (sigmoid): Sigmoid()
)","[1, 2]",conv2,0.906000018119812
182,"PyTorchCNN(
  (conv1): Conv2d(1, 16, kernel_size=(3, 3), stride=(1, 1), padding=(1, 1))
  (relu1): ReLU()
  (pool1): MaxPool2d(kernel_size=2, stride=2, padding=0, dilation=1, ceil_mode=False)
  (conv2): Conv2d(16, 32, kernel_size=(3, 3), stride=(1, 1), padding=(1, 1))
  (relu2): ReLU()
  (pool2): MaxPool2d(kernel_size=2, stride=2, padding=0, dilation=1, ceil_mode=False)
  (conv3): Conv2d(32, 64, kernel_size=(3, 3), stride=(1, 1), padding=(1, 1))
  (relu3): ReLU()
  (flatten): Flatten(start_dim=1, end_dim=-1)
  (fc1): Linear(in_features=3136, out_features=3, bias=True)
  (relu4): ReLU()
  (fc2): Linear(in_features=3, out_features=1, bias=True)
  (sigmoid): Sigmoid()
)","[1, 2]",conv3,0.8339999914169312
183,"PyTorchCNN(
  (conv1): Conv2d(1, 16, kernel_size=(3, 3), stride=(1, 1), padding=(1, 1))
  (relu1): ReLU()
  (pool1): MaxPool2d(kernel_size=2, stride=2, padding=0, dilation=1, ceil_mode=False)
  (conv2): Conv2d(16, 32, kernel_size=(3, 3), stride=(1, 1), padding=(1, 1))
  (relu2): ReLU()
  (pool2): MaxPool2d(kernel_size=2, stride=2, padding=0, dilation=1, ceil_mode=False)
  (conv3): Conv2d(32, 64, kernel_size=(3, 3), stride=(1, 1), padding=(1, 1))
  (relu3): ReLU()
  (flatten): Flatten(start_dim=1, end_dim=-1)
  (fc1): Linear(in_features=3136, out_features=3, bias=True)
  (relu4): ReLU()
  (fc2): Linear(in_features=3, out_features=1, bias=True)
  (sigmoid): Sigmoid()
)","[1, 2]",fc1,0.6159999966621399
184,"PyTorchCNN(
  (conv1): Conv2d(1, 16, kernel_size=(3, 3), stride=(1, 1), padding=(1, 1))
  (relu1): ReLU()
  (pool1): MaxPool2d(kernel_size=2, stride=2, padding=0, dilation=1, ceil_mode=False)
  (conv2): Conv2d(16, 32, kernel_size=(3, 3), stride=(1, 1), padding=(1, 1))
  (relu2): ReLU()
  (pool2): MaxPool2d(kernel_size=2, stride=2, padding=0, dilation=1, ceil_mode=False)
  (conv3): Conv2d(32, 64, kernel_size=(3, 3), stride=(1, 1), padding=(1, 1))
  (relu3): ReLU()
  (flatten): Flatten(start_dim=1, end_dim=-1)
  (fc1): Linear(in_features=3136, out_features=3, bias=True)
  (relu4): ReLU()
  (fc2): Linear(in_features=3, out_features=1, bias=True)
  (sigmoid): Sigmoid()
)",[0],conv1,0.9079999923706055
185,"PyTorchCNN(
  (conv1): Conv2d(1, 16, kernel_size=(3, 3), stride=(1, 1), padding=(1, 1))
  (relu1): ReLU()
  (pool1): MaxPool2d(kernel_size=2, stride=2, padding=0, dilation=1, ceil_mode=False)
  (conv2): Conv2d(16, 32, kernel_size=(3, 3), stride=(1, 1), padding=(1, 1))
  (relu2): ReLU()
  (pool2): MaxPool2d(kernel_size=2, stride=2, padding=0, dilation=1, ceil_mode=False)
  (conv3): Conv2d(32, 64, kernel_size=(3, 3), stride=(1, 1), padding=(1, 1))
  (relu3): ReLU()
  (flatten): Flatten(start_dim=1, end_dim=-1)
  (fc1): Linear(in_features=3136, out_features=3, bias=True)
  (relu4): ReLU()
  (fc2): Linear(in_features=3, out_features=1, bias=True)
  (sigmoid): Sigmoid()
)",[0],conv2,0.8930000066757202
186,"PyTorchCNN(
  (conv1): Conv2d(1, 16, kernel_size=(3, 3), stride=(1, 1), padding=(1, 1))
  (relu1): ReLU()
  (pool1): MaxPool2d(kernel_size=2, stride=2, padding=0, dilation=1, ceil_mode=False)
  (conv2): Conv2d(16, 32, kernel_size=(3, 3), stride=(1, 1), padding=(1, 1))
  (relu2): ReLU()
  (pool2): MaxPool2d(kernel_size=2, stride=2, padding=0, dilation=1, ceil_mode=False)
  (conv3): Conv2d(32, 64, kernel_size=(3, 3), stride=(1, 1), padding=(1, 1))
  (relu3): ReLU()
  (flatten): Flatten(start_dim=1, end_dim=-1)
  (fc1): Linear(in_features=3136, out_features=3, bias=True)
  (relu4): ReLU()
  (fc2): Linear(in_features=3, out_features=1, bias=True)
  (sigmoid): Sigmoid()
)",[0],conv3,0.8659999966621399
187,"PyTorchCNN(
  (conv1): Conv2d(1, 16, kernel_size=(3, 3), stride=(1, 1), padding=(1, 1))
  (relu1): ReLU()
  (pool1): MaxPool2d(kernel_size=2, stride=2, padding=0, dilation=1, ceil_mode=False)
  (conv2): Conv2d(16, 32, kernel_size=(3, 3), stride=(1, 1), padding=(1, 1))
  (relu2): ReLU()
  (pool2): MaxPool2d(kernel_size=2, stride=2, padding=0, dilation=1, ceil_mode=False)
  (conv3): Conv2d(32, 64, kernel_size=(3, 3), stride=(1, 1), padding=(1, 1))
  (relu3): ReLU()
  (flatten): Flatten(start_dim=1, end_dim=-1)
  (fc1): Linear(in_features=3136, out_features=3, bias=True)
  (relu4): ReLU()
  (fc2): Linear(in_features=3, out_features=1, bias=True)
  (sigmoid): Sigmoid()
)",[0],fc1,0.7139999866485596
188,"PyTorchCNN(
  (conv1): Conv2d(1, 16, kernel_size=(3, 3), stride=(1, 1), padding=(1, 1))
  (relu1): ReLU()
  (pool1): MaxPool2d(kernel_size=2, stride=2, padding=0, dilation=1, ceil_mode=False)
  (conv2): Conv2d(16, 32, kernel_size=(3, 3), stride=(1, 1), padding=(1, 1))
  (relu2): ReLU()
  (pool2): MaxPool2d(kernel_size=2, stride=2, padding=0, dilation=1, ceil_mode=False)
  (conv3): Conv2d(32, 64, kernel_size=(3, 3), stride=(1, 1), padding=(1, 1))
  (relu3): ReLU()
  (flatten): Flatten(start_dim=1, end_dim=-1)
  (fc1): Linear(in_features=3136, out_features=3, bias=True)
  (relu4): ReLU()
  (fc2): Linear(in_features=3, out_features=1, bias=True)
  (sigmoid): Sigmoid()
)",[1],conv1,0.9539999961853027
189,"PyTorchCNN(
  (conv1): Conv2d(1, 16, kernel_size=(3, 3), stride=(1, 1), padding=(1, 1))
  (relu1): ReLU()
  (pool1): MaxPool2d(kernel_size=2, stride=2, padding=0, dilation=1, ceil_mode=False)
  (conv2): Conv2d(16, 32, kernel_size=(3, 3), stride=(1, 1), padding=(1, 1))
  (relu2): ReLU()
  (pool2): MaxPool2d(kernel_size=2, stride=2, padding=0, dilation=1, ceil_mode=False)
  (conv3): Conv2d(32, 64, kernel_size=(3, 3), stride=(1, 1), padding=(1, 1))
  (relu3): ReLU()
  (flatten): Flatten(start_dim=1, end_dim=-1)
  (fc1): Linear(in_features=3136, out_features=3, bias=True)
  (relu4): ReLU()
  (fc2): Linear(in_features=3, out_features=1, bias=True)
  (sigmoid): Sigmoid()
)",[1],conv2,0.9520000219345093
190,"PyTorchCNN(
  (conv1): Conv2d(1, 16, kernel_size=(3, 3), stride=(1, 1), padding=(1, 1))
  (relu1): ReLU()
  (pool1): MaxPool2d(kernel_size=2, stride=2, padding=0, dilation=1, ceil_mode=False)
  (conv2): Conv2d(16, 32, kernel_size=(3, 3), stride=(1, 1), padding=(1, 1))
  (relu2): ReLU()
  (pool2): MaxPool2d(kernel_size=2, stride=2, padding=0, dilation=1, ceil_mode=False)
  (conv3): Conv2d(32, 64, kernel_size=(3, 3), stride=(1, 1), padding=(1, 1))
  (relu3): ReLU()
  (flatten): Flatten(start_dim=1, end_dim=-1)
  (fc1): Linear(in_features=3136, out_features=3, bias=True)
  (relu4): ReLU()
  (fc2): Linear(in_features=3, out_features=1, bias=True)
  (sigmoid): Sigmoid()
)",[1],conv3,0.9290000200271606
191,"PyTorchCNN(
  (conv1): Conv2d(1, 16, kernel_size=(3, 3), stride=(1, 1), padding=(1, 1))
  (relu1): ReLU()
  (pool1): MaxPool2d(kernel_size=2, stride=2, padding=0, dilation=1, ceil_mode=False)
  (conv2): Conv2d(16, 32, kernel_size=(3, 3), stride=(1, 1), padding=(1, 1))
  (relu2): ReLU()
  (pool2): MaxPool2d(kernel_size=2, stride=2, padding=0, dilation=1, ceil_mode=False)
  (conv3): Conv2d(32, 64, kernel_size=(3, 3), stride=(1, 1), padding=(1, 1))
  (relu3): ReLU()
  (flatten): Flatten(start_dim=1, end_dim=-1)
  (fc1): Linear(in_features=3136, out_features=3, bias=True)
  (relu4): ReLU()
  (fc2): Linear(in_features=3, out_features=1, bias=True)
  (sigmoid): Sigmoid()
)",[1],fc1,0.7210000157356262
192,"PyTorchCNN(
  (conv1): Conv2d(1, 16, kernel_size=(3, 3), stride=(1, 1), padding=(1, 1))
  (relu1): ReLU()
  (pool1): MaxPool2d(kernel_size=2, stride=2, padding=0, dilation=1, ceil_mode=False)
  (conv2): Conv2d(16, 32, kernel_size=(3, 3), stride=(1, 1), padding=(1, 1))
  (relu2): ReLU()
  (pool2): MaxPool2d(kernel_size=2, stride=2, padding=0, dilation=1, ceil_mode=False)
  (conv3): Conv2d(32, 64, kernel_size=(3, 3), stride=(1, 1), padding=(1, 1))
  (relu3): ReLU()
  (flatten): Flatten(start_dim=1, end_dim=-1)
  (fc1): Linear(in_features=3136, out_features=3, bias=True)
  (relu4): ReLU()
  (fc2): Linear(in_features=3, out_features=1, bias=True)
  (sigmoid): Sigmoid()
)",[2],conv1,0.9269999861717224
193,"PyTorchCNN(
  (conv1): Conv2d(1, 16, kernel_size=(3, 3), stride=(1, 1), padding=(1, 1))
  (relu1): ReLU()
  (pool1): MaxPool2d(kernel_size=2, stride=2, padding=0, dilation=1, ceil_mode=False)
  (conv2): Conv2d(16, 32, kernel_size=(3, 3), stride=(1, 1), padding=(1, 1))
  (relu2): ReLU()
  (pool2): MaxPool2d(kernel_size=2, stride=2, padding=0, dilation=1, ceil_mode=False)
  (conv3): Conv2d(32, 64, kernel_size=(3, 3), stride=(1, 1), padding=(1, 1))
  (relu3): ReLU()
  (flatten): Flatten(start_dim=1, end_dim=-1)
  (fc1): Linear(in_features=3136, out_features=3, bias=True)
  (relu4): ReLU()
  (fc2): Linear(in_features=3, out_features=1, bias=True)
  (sigmoid): Sigmoid()
)",[2],conv2,0.9309999942779541
194,"PyTorchCNN(
  (conv1): Conv2d(1, 16, kernel_size=(3, 3), stride=(1, 1), padding=(1, 1))
  (relu1): ReLU()
  (pool1): MaxPool2d(kernel_size=2, stride=2, padding=0, dilation=1, ceil_mode=False)
  (conv2): Conv2d(16, 32, kernel_size=(3, 3), stride=(1, 1), padding=(1, 1))
  (relu2): ReLU()
  (pool2): MaxPool2d(kernel_size=2, stride=2, padding=0, dilation=1, ceil_mode=False)
  (conv3): Conv2d(32, 64, kernel_size=(3, 3), stride=(1, 1), padding=(1, 1))
  (relu3): ReLU()
  (flatten): Flatten(start_dim=1, end_dim=-1)
  (fc1): Linear(in_features=3136, out_features=3, bias=True)
  (relu4): ReLU()
  (fc2): Linear(in_features=3, out_features=1, bias=True)
  (sigmoid): Sigmoid()
)",[2],conv3,0.8820000290870667
195,"PyTorchCNN(
  (conv1): Conv2d(1, 16, kernel_size=(3, 3), stride=(1, 1), padding=(1, 1))
  (relu1): ReLU()
  (pool1): MaxPool2d(kernel_size=2, stride=2, padding=0, dilation=1, ceil_mode=False)
  (conv2): Conv2d(16, 32, kernel_size=(3, 3), stride=(1, 1), padding=(1, 1))
  (relu2): ReLU()
  (pool2): MaxPool2d(kernel_size=2, stride=2, padding=0, dilation=1, ceil_mode=False)
  (conv3): Conv2d(32, 64, kernel_size=(3, 3), stride=(1, 1), padding=(1, 1))
  (relu3): ReLU()
  (flatten): Flatten(start_dim=1, end_dim=-1)
  (fc1): Linear(in_features=3136, out_features=3, bias=True)
  (relu4): ReLU()
  (fc2): Linear(in_features=3, out_features=1, bias=True)
  (sigmoid): Sigmoid()
)",[2],fc1,0.722000002861023
196,"PyTorchCNN(
  (conv1): Conv2d(1, 16, kernel_size=(3, 3), stride=(1, 1), padding=(1, 1))
  (relu1): ReLU()
  (pool1): MaxPool2d(kernel_size=2, stride=2, padding=0, dilation=1, ceil_mode=False)
  (conv2): Conv2d(16, 32, kernel_size=(3, 3), stride=(1, 1), padding=(1, 1))
  (relu2): ReLU()
  (pool2): MaxPool2d(kernel_size=2, stride=2, padding=0, dilation=1, ceil_mode=False)
  (conv3): Conv2d(32, 64, kernel_size=(3, 3), stride=(1, 1), padding=(1, 1))
  (relu3): ReLU()
  (flatten): Flatten(start_dim=1, end_dim=-1)
  (fc1): Linear(in_features=3136, out_features=3, bias=True)
  (relu4): ReLU()
  (fc2): Linear(in_features=3, out_features=1, bias=True)
  (sigmoid): Sigmoid()
)","[0, 1, 2]",conv1,0.9399999976158142
197,"PyTorchCNN(
  (conv1): Conv2d(1, 16, kernel_size=(3, 3), stride=(1, 1), padding=(1, 1))
  (relu1): ReLU()
  (pool1): MaxPool2d(kernel_size=2, stride=2, padding=0, dilation=1, ceil_mode=False)
  (conv2): Conv2d(16, 32, kernel_size=(3, 3), stride=(1, 1), padding=(1, 1))
  (relu2): ReLU()
  (pool2): MaxPool2d(kernel_size=2, stride=2, padding=0, dilation=1, ceil_mode=False)
  (conv3): Conv2d(32, 64, kernel_size=(3, 3), stride=(1, 1), padding=(1, 1))
  (relu3): ReLU()
  (flatten): Flatten(start_dim=1, end_dim=-1)
  (fc1): Linear(in_features=3136, out_features=3, bias=True)
  (relu4): ReLU()
  (fc2): Linear(in_features=3, out_features=1, bias=True)
  (sigmoid): Sigmoid()
)","[0, 1, 2]",conv2,0.949999988079071
198,"PyTorchCNN(
  (conv1): Conv2d(1, 16, kernel_size=(3, 3), stride=(1, 1), padding=(1, 1))
  (relu1): ReLU()
  (pool1): MaxPool2d(kernel_size=2, stride=2, padding=0, dilation=1, ceil_mode=False)
  (conv2): Conv2d(16, 32, kernel_size=(3, 3), stride=(1, 1), padding=(1, 1))
  (relu2): ReLU()
  (pool2): MaxPool2d(kernel_size=2, stride=2, padding=0, dilation=1, ceil_mode=False)
  (conv3): Conv2d(32, 64, kernel_size=(3, 3), stride=(1, 1), padding=(1, 1))
  (relu3): ReLU()
  (flatten): Flatten(start_dim=1, end_dim=-1)
  (fc1): Linear(in_features=3136, out_features=3, bias=True)
  (relu4): ReLU()
  (fc2): Linear(in_features=3, out_features=1, bias=True)
  (sigmoid): Sigmoid()
)","[0, 1, 2]",conv3,0.9580000042915344
199,"PyTorchCNN(
  (conv1): Conv2d(1, 16, kernel_size=(3, 3), stride=(1, 1), padding=(1, 1))
  (relu1): ReLU()
  (pool1): MaxPool2d(kernel_size=2, stride=2, padding=0, dilation=1, ceil_mode=False)
  (conv2): Conv2d(16, 32, kernel_size=(3, 3), stride=(1, 1), padding=(1, 1))
  (relu2): ReLU()
  (pool2): MaxPool2d(kernel_size=2, stride=2, padding=0, dilation=1, ceil_mode=False)
  (conv3): Conv2d(32, 64, kernel_size=(3, 3), stride=(1, 1), padding=(1, 1))
  (relu3): ReLU()
  (flatten): Flatten(start_dim=1, end_dim=-1)
  (fc1): Linear(in_features=3136, out_features=3, bias=True)
  (relu4): ReLU()
  (fc2): Linear(in_features=3, out_features=1, bias=True)
  (sigmoid): Sigmoid()
)","[0, 1, 2]",fc1,0.4970000088214874
200,"PyTorchCNN(
  (conv1): Conv2d(1, 16, kernel_size=(3, 3), stride=(1, 1), padding=(1, 1))
  (relu1): ReLU()
  (pool1): MaxPool2d(kernel_size=2, stride=2, padding=0, dilation=1, ceil_mode=False)
  (conv2): Conv2d(16, 32, kernel_size=(3, 3), stride=(1, 1), padding=(1, 1))
  (relu2): ReLU()
  (pool2): MaxPool2d(kernel_size=2, stride=2, padding=0, dilation=1, ceil_mode=False)
  (conv3): Conv2d(32, 64, kernel_size=(3, 3), stride=(1, 1), padding=(1, 1))
  (relu3): ReLU()
  (flatten): Flatten(start_dim=1, end_dim=-1)
  (fc1): Linear(in_features=3136, out_features=3, bias=True)
  (relu4): ReLU()
  (fc2): Linear(in_features=3, out_features=1, bias=True)
  (sigmoid): Sigmoid()
)","[0, 1]",conv1,0.9210000038146973
201,"PyTorchCNN(
  (conv1): Conv2d(1, 16, kernel_size=(3, 3), stride=(1, 1), padding=(1, 1))
  (relu1): ReLU()
  (pool1): MaxPool2d(kernel_size=2, stride=2, padding=0, dilation=1, ceil_mode=False)
  (conv2): Conv2d(16, 32, kernel_size=(3, 3), stride=(1, 1), padding=(1, 1))
  (relu2): ReLU()
  (pool2): MaxPool2d(kernel_size=2, stride=2, padding=0, dilation=1, ceil_mode=False)
  (conv3): Conv2d(32, 64, kernel_size=(3, 3), stride=(1, 1), padding=(1, 1))
  (relu3): ReLU()
  (flatten): Flatten(start_dim=1, end_dim=-1)
  (fc1): Linear(in_features=3136, out_features=3, bias=True)
  (relu4): ReLU()
  (fc2): Linear(in_features=3, out_features=1, bias=True)
  (sigmoid): Sigmoid()
)","[0, 1]",conv2,0.9340000152587891
202,"PyTorchCNN(
  (conv1): Conv2d(1, 16, kernel_size=(3, 3), stride=(1, 1), padding=(1, 1))
  (relu1): ReLU()
  (pool1): MaxPool2d(kernel_size=2, stride=2, padding=0, dilation=1, ceil_mode=False)
  (conv2): Conv2d(16, 32, kernel_size=(3, 3), stride=(1, 1), padding=(1, 1))
  (relu2): ReLU()
  (pool2): MaxPool2d(kernel_size=2, stride=2, padding=0, dilation=1, ceil_mode=False)
  (conv3): Conv2d(32, 64, kernel_size=(3, 3), stride=(1, 1), padding=(1, 1))
  (relu3): ReLU()
  (flatten): Flatten(start_dim=1, end_dim=-1)
  (fc1): Linear(in_features=3136, out_features=3, bias=True)
  (relu4): ReLU()
  (fc2): Linear(in_features=3, out_features=1, bias=True)
  (sigmoid): Sigmoid()
)","[0, 1]",conv3,0.9139999747276306
203,"PyTorchCNN(
  (conv1): Conv2d(1, 16, kernel_size=(3, 3), stride=(1, 1), padding=(1, 1))
  (relu1): ReLU()
  (pool1): MaxPool2d(kernel_size=2, stride=2, padding=0, dilation=1, ceil_mode=False)
  (conv2): Conv2d(16, 32, kernel_size=(3, 3), stride=(1, 1), padding=(1, 1))
  (relu2): ReLU()
  (pool2): MaxPool2d(kernel_size=2, stride=2, padding=0, dilation=1, ceil_mode=False)
  (conv3): Conv2d(32, 64, kernel_size=(3, 3), stride=(1, 1), padding=(1, 1))
  (relu3): ReLU()
  (flatten): Flatten(start_dim=1, end_dim=-1)
  (fc1): Linear(in_features=3136, out_features=3, bias=True)
  (relu4): ReLU()
  (fc2): Linear(in_features=3, out_features=1, bias=True)
  (sigmoid): Sigmoid()
)","[0, 1]",fc1,0.7120000123977661
204,"PyTorchCNN(
  (conv1): Conv2d(1, 16, kernel_size=(3, 3), stride=(1, 1), padding=(1, 1))
  (relu1): ReLU()
  (pool1): MaxPool2d(kernel_size=2, stride=2, padding=0, dilation=1, ceil_mode=False)
  (conv2): Conv2d(16, 32, kernel_size=(3, 3), stride=(1, 1), padding=(1, 1))
  (relu2): ReLU()
  (pool2): MaxPool2d(kernel_size=2, stride=2, padding=0, dilation=1, ceil_mode=False)
  (conv3): Conv2d(32, 64, kernel_size=(3, 3), stride=(1, 1), padding=(1, 1))
  (relu3): ReLU()
  (flatten): Flatten(start_dim=1, end_dim=-1)
  (fc1): Linear(in_features=3136, out_features=3, bias=True)
  (relu4): ReLU()
  (fc2): Linear(in_features=3, out_features=1, bias=True)
  (sigmoid): Sigmoid()
)","[0, 2]",conv1,0.9480000138282776
205,"PyTorchCNN(
  (conv1): Conv2d(1, 16, kernel_size=(3, 3), stride=(1, 1), padding=(1, 1))
  (relu1): ReLU()
  (pool1): MaxPool2d(kernel_size=2, stride=2, padding=0, dilation=1, ceil_mode=False)
  (conv2): Conv2d(16, 32, kernel_size=(3, 3), stride=(1, 1), padding=(1, 1))
  (relu2): ReLU()
  (pool2): MaxPool2d(kernel_size=2, stride=2, padding=0, dilation=1, ceil_mode=False)
  (conv3): Conv2d(32, 64, kernel_size=(3, 3), stride=(1, 1), padding=(1, 1))
  (relu3): ReLU()
  (flatten): Flatten(start_dim=1, end_dim=-1)
  (fc1): Linear(in_features=3136, out_features=3, bias=True)
  (relu4): ReLU()
  (fc2): Linear(in_features=3, out_features=1, bias=True)
  (sigmoid): Sigmoid()
)","[0, 2]",conv2,0.9520000219345093
206,"PyTorchCNN(
  (conv1): Conv2d(1, 16, kernel_size=(3, 3), stride=(1, 1), padding=(1, 1))
  (relu1): ReLU()
  (pool1): MaxPool2d(kernel_size=2, stride=2, padding=0, dilation=1, ceil_mode=False)
  (conv2): Conv2d(16, 32, kernel_size=(3, 3), stride=(1, 1), padding=(1, 1))
  (relu2): ReLU()
  (pool2): MaxPool2d(kernel_size=2, stride=2, padding=0, dilation=1, ceil_mode=False)
  (conv3): Conv2d(32, 64, kernel_size=(3, 3), stride=(1, 1), padding=(1, 1))
  (relu3): ReLU()
  (flatten): Flatten(start_dim=1, end_dim=-1)
  (fc1): Linear(in_features=3136, out_features=3, bias=True)
  (relu4): ReLU()
  (fc2): Linear(in_features=3, out_features=1, bias=True)
  (sigmoid): Sigmoid()
)","[0, 2]",conv3,0.9269999861717224
207,"PyTorchCNN(
  (conv1): Conv2d(1, 16, kernel_size=(3, 3), stride=(1, 1), padding=(1, 1))
  (relu1): ReLU()
  (pool1): MaxPool2d(kernel_size=2, stride=2, padding=0, dilation=1, ceil_mode=False)
  (conv2): Conv2d(16, 32, kernel_size=(3, 3), stride=(1, 1), padding=(1, 1))
  (relu2): ReLU()
  (pool2): MaxPool2d(kernel_size=2, stride=2, padding=0, dilation=1, ceil_mode=False)
  (conv3): Conv2d(32, 64, kernel_size=(3, 3), stride=(1, 1), padding=(1, 1))
  (relu3): ReLU()
  (flatten): Flatten(start_dim=1, end_dim=-1)
  (fc1): Linear(in_features=3136, out_features=3, bias=True)
  (relu4): ReLU()
  (fc2): Linear(in_features=3, out_features=1, bias=True)
  (sigmoid): Sigmoid()
)","[0, 2]",fc1,0.6340000033378601
208,"PyTorchCNN(
  (conv1): Conv2d(1, 16, kernel_size=(3, 3), stride=(1, 1), padding=(1, 1))
  (relu1): ReLU()
  (pool1): MaxPool2d(kernel_size=2, stride=2, padding=0, dilation=1, ceil_mode=False)
  (conv2): Conv2d(16, 32, kernel_size=(3, 3), stride=(1, 1), padding=(1, 1))
  (relu2): ReLU()
  (pool2): MaxPool2d(kernel_size=2, stride=2, padding=0, dilation=1, ceil_mode=False)
  (conv3): Conv2d(32, 64, kernel_size=(3, 3), stride=(1, 1), padding=(1, 1))
  (relu3): ReLU()
  (flatten): Flatten(start_dim=1, end_dim=-1)
  (fc1): Linear(in_features=3136, out_features=3, bias=True)
  (relu4): ReLU()
  (fc2): Linear(in_features=3, out_features=1, bias=True)
  (sigmoid): Sigmoid()
)","[1, 2]",conv1,0.9279999732971191
209,"PyTorchCNN(
  (conv1): Conv2d(1, 16, kernel_size=(3, 3), stride=(1, 1), padding=(1, 1))
  (relu1): ReLU()
  (pool1): MaxPool2d(kernel_size=2, stride=2, padding=0, dilation=1, ceil_mode=False)
  (conv2): Conv2d(16, 32, kernel_size=(3, 3), stride=(1, 1), padding=(1, 1))
  (relu2): ReLU()
  (pool2): MaxPool2d(kernel_size=2, stride=2, padding=0, dilation=1, ceil_mode=False)
  (conv3): Conv2d(32, 64, kernel_size=(3, 3), stride=(1, 1), padding=(1, 1))
  (relu3): ReLU()
  (flatten): Flatten(start_dim=1, end_dim=-1)
  (fc1): Linear(in_features=3136, out_features=3, bias=True)
  (relu4): ReLU()
  (fc2): Linear(in_features=3, out_features=1, bias=True)
  (sigmoid): Sigmoid()
)","[1, 2]",conv2,0.9309999942779541
210,"PyTorchCNN(
  (conv1): Conv2d(1, 16, kernel_size=(3, 3), stride=(1, 1), padding=(1, 1))
  (relu1): ReLU()
…
  (fc2): Linear(in_features=3, out_features=1, bias=True)
  (sigmoid): Sigmoid()
)","[1, 2]",conv2,0.9160000085830688
770,"PyTorchCNN(
  (conv1): Conv2d(1, 16, kernel_size=(3, 3), stride=(1, 1), padding=(1, 1))
  (relu1): ReLU()
  (pool1): MaxPool2d(kernel_size=2, stride=2, padding=0, dilation=1, ceil_mode=False)
  (conv2): Conv2d(16, 32, kernel_size=(3, 3), stride=(1, 1), padding=(1, 1))
  (relu2): ReLU()
  (pool2): MaxPool2d(kernel_size=2, stride=2, padding=0, dilation=1, ceil_mode=False)
  (conv3): Conv2d(32, 64, kernel_size=(3, 3), stride=(1, 1), padding=(1, 1))
  (relu3): ReLU()
  (flatten): Flatten(start_dim=1, end_dim=-1)
  (fc1): Linear(in_features=3136, out_features=3, bias=True)
  (relu4): ReLU()
  (fc2): Linear(in_features=3, out_features=1, bias=True)
  (sigmoid): Sigmoid()
)","[1, 2]",conv3,0.8679999709129333
771,"PyTorchCNN(
  (conv1): Conv2d(1, 16, kernel_size=(3, 3), stride=(1, 1), padding=(1, 1))
  (relu1): ReLU()
  (pool1): MaxPool2d(kernel_size=2, stride=2, padding=0, dilation=1, ceil_mode=False)
  (conv2): Conv2d(16, 32, kernel_size=(3, 3), stride=(1, 1), padding=(1, 1))
  (relu2): ReLU()
  (pool2): MaxPool2d(kernel_size=2, stride=2, padding=0, dilation=1, ceil_mode=False)
  (conv3): Conv2d(32, 64, kernel_size=(3, 3), stride=(1, 1), padding=(1, 1))
  (relu3): ReLU()
  (flatten): Flatten(start_dim=1, end_dim=-1)
  (fc1): Linear(in_features=3136, out_features=3, bias=True)
  (relu4): ReLU()
  (fc2): Linear(in_features=3, out_features=1, bias=True)
  (sigmoid): Sigmoid()
)","[1, 2]",fc1,0.6119999885559082
772,"PyTorchCNN(
  (conv1): Conv2d(1, 16, kernel_size=(3, 3), stride=(1, 1), padding=(1, 1))
  (relu1): ReLU()
  (pool1): MaxPool2d(kernel_size=2, stride=2, padding=0, dilation=1, ceil_mode=False)
  (conv2): Conv2d(16, 32, kernel_size=(3, 3), stride=(1, 1), padding=(1, 1))
  (relu2): ReLU()
  (pool2): MaxPool2d(kernel_size=2, stride=2, padding=0, dilation=1, ceil_mode=False)
  (conv3): Conv2d(32, 64, kernel_size=(3, 3), stride=(1, 1), padding=(1, 1))
  (relu3): ReLU()
  (flatten): Flatten(start_dim=1, end_dim=-1)
  (fc1): Linear(in_features=3136, out_features=3, bias=True)
  (relu4): ReLU()
  (fc2): Linear(in_features=3, out_features=1, bias=True)
  (sigmoid): Sigmoid()
)",[0],conv1,0.9100000262260437
773,"PyTorchCNN(
  (conv1): Conv2d(1, 16, kernel_size=(3, 3), stride=(1, 1), padding=(1, 1))
  (relu1): ReLU()
  (pool1): MaxPool2d(kernel_size=2, stride=2, padding=0, dilation=1, ceil_mode=False)
  (conv2): Conv2d(16, 32, kernel_size=(3, 3), stride=(1, 1), padding=(1, 1))
  (relu2): ReLU()
  (pool2): MaxPool2d(kernel_size=2, stride=2, padding=0, dilation=1, ceil_mode=False)
  (conv3): Conv2d(32, 64, kernel_size=(3, 3), stride=(1, 1), padding=(1, 1))
  (relu3): ReLU()
  (flatten): Flatten(start_dim=1, end_dim=-1)
  (fc1): Linear(in_features=3136, out_features=3, bias=True)
  (relu4): ReLU()
  (fc2): Linear(in_features=3, out_features=1, bias=True)
  (sigmoid): Sigmoid()
)",[0],conv2,0.9129999876022339
774,"PyTorchCNN(
  (conv1): Conv2d(1, 16, kernel_size=(3, 3), stride=(1, 1), padding=(1, 1))
  (relu1): ReLU()
  (pool1): MaxPool2d(kernel_size=2, stride=2, padding=0, dilation=1, ceil_mode=False)
  (conv2): Conv2d(16, 32, kernel_size=(3, 3), stride=(1, 1), padding=(1, 1))
  (relu2): ReLU()
  (pool2): MaxPool2d(kernel_size=2, stride=2, padding=0, dilation=1, ceil_mode=False)
  (conv3): Conv2d(32, 64, kernel_size=(3, 3), stride=(1, 1), padding=(1, 1))
  (relu3): ReLU()
  (flatten): Flatten(start_dim=1, end_dim=-1)
  (fc1): Linear(in_features=3136, out_features=3, bias=True)
  (relu4): ReLU()
  (fc2): Linear(in_features=3, out_features=1, bias=True)
  (sigmoid): Sigmoid()
)",[0],conv3,0.8960000276565552
775,"PyTorchCNN(
  (conv1): Conv2d(1, 16, kernel_size=(3, 3), stride=(1, 1), padding=(1, 1))
  (relu1): ReLU()
  (pool1): MaxPool2d(kernel_size=2, stride=2, padding=0, dilation=1, ceil_mode=False)
  (conv2): Conv2d(16, 32, kernel_size=(3, 3), stride=(1, 1), padding=(1, 1))
  (relu2): ReLU()
  (pool2): MaxPool2d(kernel_size=2, stride=2, padding=0, dilation=1, ceil_mode=False)
  (conv3): Conv2d(32, 64, kernel_size=(3, 3), stride=(1, 1), padding=(1, 1))
  (relu3): ReLU()
  (flatten): Flatten(start_dim=1, end_dim=-1)
  (fc1): Linear(in_features=3136, out_features=3, bias=True)
  (relu4): ReLU()
  (fc2): Linear(in_features=3, out_features=1, bias=True)
  (sigmoid): Sigmoid()
)",[0],fc1,0.7229999899864197
776,"PyTorchCNN(
  (conv1): Conv2d(1, 16, kernel_size=(3, 3), stride=(1, 1), padding=(1, 1))
  (relu1): ReLU()
  (pool1): MaxPool2d(kernel_size=2, stride=2, padding=0, dilation=1, ceil_mode=False)
  (conv2): Conv2d(16, 32, kernel_size=(3, 3), stride=(1, 1), padding=(1, 1))
  (relu2): ReLU()
  (pool2): MaxPool2d(kernel_size=2, stride=2, padding=0, dilation=1, ceil_mode=False)
  (conv3): Conv2d(32, 64, kernel_size=(3, 3), stride=(1, 1), padding=(1, 1))
  (relu3): ReLU()
  (flatten): Flatten(start_dim=1, end_dim=-1)
  (fc1): Linear(in_features=3136, out_features=3, bias=True)
  (relu4): ReLU()
  (fc2): Linear(in_features=3, out_features=1, bias=True)
  (sigmoid): Sigmoid()
)",[1],conv1,0.9620000123977661
777,"PyTorchCNN(
  (conv1): Conv2d(1, 16, kernel_size=(3, 3), stride=(1, 1), padding=(1, 1))
  (relu1): ReLU()
  (pool1): MaxPool2d(kernel_size=2, stride=2, padding=0, dilation=1, ceil_mode=False)
  (conv2): Conv2d(16, 32, kernel_size=(3, 3), stride=(1, 1), padding=(1, 1))
  (relu2): ReLU()
  (pool2): MaxPool2d(kernel_size=2, stride=2, padding=0, dilation=1, ceil_mode=False)
  (conv3): Conv2d(32, 64, kernel_size=(3, 3), stride=(1, 1), padding=(1, 1))
  (relu3): ReLU()
  (flatten): Flatten(start_dim=1, end_dim=-1)
  (fc1): Linear(in_features=3136, out_features=3, bias=True)
  (relu4): ReLU()
  (fc2): Linear(in_features=3, out_features=1, bias=True)
  (sigmoid): Sigmoid()
)",[1],conv2,0.953000009059906
778,"PyTorchCNN(
  (conv1): Conv2d(1, 16, kernel_size=(3, 3), stride=(1, 1), padding=(1, 1))
  (relu1): ReLU()
  (pool1): MaxPool2d(kernel_size=2, stride=2, padding=0, dilation=1, ceil_mode=False)
  (conv2): Conv2d(16, 32, kernel_size=(3, 3), stride=(1, 1), padding=(1, 1))
  (relu2): ReLU()
  (pool2): MaxPool2d(kernel_size=2, stride=2, padding=0, dilation=1, ceil_mode=False)
  (conv3): Conv2d(32, 64, kernel_size=(3, 3), stride=(1, 1), padding=(1, 1))
  (relu3): ReLU()
  (flatten): Flatten(start_dim=1, end_dim=-1)
  (fc1): Linear(in_features=3136, out_features=3, bias=True)
  (relu4): ReLU()
  (fc2): Linear(in_features=3, out_features=1, bias=True)
  (sigmoid): Sigmoid()
)",[1],conv3,0.9430000185966492
779,"PyTorchCNN(
  (conv1): Conv2d(1, 16, kernel_size=(3, 3), stride=(1, 1), padding=(1, 1))
  (relu1): ReLU()
  (pool1): MaxPool2d(kernel_size=2, stride=2, padding=0, dilation=1, ceil_mode=False)
  (conv2): Conv2d(16, 32, kernel_size=(3, 3), stride=(1, 1), padding=(1, 1))
  (relu2): ReLU()
  (pool2): MaxPool2d(kernel_size=2, stride=2, padding=0, dilation=1, ceil_mode=False)
  (conv3): Conv2d(32, 64, kernel_size=(3, 3), stride=(1, 1), padding=(1, 1))
  (relu3): ReLU()
  (flatten): Flatten(start_dim=1, end_dim=-1)
  (fc1): Linear(in_features=3136, out_features=3, bias=True)
  (relu4): ReLU()
  (fc2): Linear(in_features=3, out_features=1, bias=True)
  (sigmoid): Sigmoid()
)",[1],fc1,0.7599999904632568
780,"PyTorchCNN(
  (conv1): Conv2d(1, 16, kernel_size=(3, 3), stride=(1, 1), padding=(1, 1))
  (relu1): ReLU()
  (pool1): MaxPool2d(kernel_size=2, stride=2, padding=0, dilation=1, ceil_mode=False)
  (conv2): Conv2d(16, 32, kernel_size=(3, 3), stride=(1, 1), padding=(1, 1))
  (relu2): ReLU()
  (pool2): MaxPool2d(kernel_size=2, stride=2, padding=0, dilation=1, ceil_mode=False)
  (conv3): Conv2d(32, 64, kernel_size=(3, 3), stride=(1, 1), padding=(1, 1))
  (relu3): ReLU()
  (flatten): Flatten(start_dim=1, end_dim=-1)
  (fc1): Linear(in_features=3136, out_features=3, bias=True)
  (relu4): ReLU()
  (fc2): Linear(in_features=3, out_features=1, bias=True)
  (sigmoid): Sigmoid()
)",[2],conv1,0.9259999990463257
781,"PyTorchCNN(
  (conv1): Conv2d(1, 16, kernel_size=(3, 3), stride=(1, 1), padding=(1, 1))
  (relu1): ReLU()
  (pool1): MaxPool2d(kernel_size=2, stride=2, padding=0, dilation=1, ceil_mode=False)
  (conv2): Conv2d(16, 32, kernel_size=(3, 3), stride=(1, 1), padding=(1, 1))
  (relu2): ReLU()
  (pool2): MaxPool2d(kernel_size=2, stride=2, padding=0, dilation=1, ceil_mode=False)
  (conv3): Conv2d(32, 64, kernel_size=(3, 3), stride=(1, 1), padding=(1, 1))
  (relu3): ReLU()
  (flatten): Flatten(start_dim=1, end_dim=-1)
  (fc1): Linear(in_features=3136, out_features=3, bias=True)
  (relu4): ReLU()
  (fc2): Linear(in_features=3, out_features=1, bias=True)
  (sigmoid): Sigmoid()
)",[2],conv2,0.9309999942779541
782,"PyTorchCNN(
  (conv1): Conv2d(1, 16, kernel_size=(3, 3), stride=(1, 1), padding=(1, 1))
  (relu1): ReLU()
  (pool1): MaxPool2d(kernel_size=2, stride=2, padding=0, dilation=1, ceil_mode=False)
  (conv2): Conv2d(16, 32, kernel_size=(3, 3), stride=(1, 1), padding=(1, 1))
  (relu2): ReLU()
  (pool2): MaxPool2d(kernel_size=2, stride=2, padding=0, dilation=1, ceil_mode=False)
  (conv3): Conv2d(32, 64, kernel_size=(3, 3), stride=(1, 1), padding=(1, 1))
  (relu3): ReLU()
  (flatten): Flatten(start_dim=1, end_dim=-1)
  (fc1): Linear(in_features=3136, out_features=3, bias=True)
  (relu4): ReLU()
  (fc2): Linear(in_features=3, out_features=1, bias=True)
  (sigmoid): Sigmoid()
)",[2],conv3,0.8820000290870667
783,"PyTorchCNN(
  (conv1): Conv2d(1, 16, kernel_size=(3, 3), stride=(1, 1), padding=(1, 1))
  (relu1): ReLU()
  (pool1): MaxPool2d(kernel_size=2, stride=2, padding=0, dilation=1, ceil_mode=False)
  (conv2): Conv2d(16, 32, kernel_size=(3, 3), stride=(1, 1), padding=(1, 1))
  (relu2): ReLU()
  (pool2): MaxPool2d(kernel_size=2, stride=2, padding=0, dilation=1, ceil_mode=False)
  (conv3): Conv2d(32, 64, kernel_size=(3, 3), stride=(1, 1), padding=(1, 1))
  (relu3): ReLU()
  (flatten): Flatten(start_dim=1, end_dim=-1)
  (fc1): Linear(in_features=3136, out_features=3, bias=True)
  (relu4): ReLU()
  (fc2): Linear(in_features=3, out_features=1, bias=True)
  (sigmoid): Sigmoid()
)",[2],fc1,0.7710000276565552
784,"PyTorchCNN(
  (conv1): Conv2d(1, 16, kernel_size=(3, 3), stride=(1, 1), padding=(1, 1))
  (relu1): ReLU()
  (pool1): MaxPool2d(kernel_size=2, stride=2, padding=0, dilation=1, ceil_mode=False)
  (conv2): Conv2d(16, 32, kernel_size=(3, 3), stride=(1, 1), padding=(1, 1))
  (relu2): ReLU()
  (pool2): MaxPool2d(kernel_size=2, stride=2, padding=0, dilation=1, ceil_mode=False)
  (conv3): Conv2d(32, 64, kernel_size=(3, 3), stride=(1, 1), padding=(1, 1))
  (relu3): ReLU()
  (flatten): Flatten(start_dim=1, end_dim=-1)
  (fc1): Linear(in_features=3136, out_features=3, bias=True)
  (relu4): ReLU()
  (fc2): Linear(in_features=3, out_features=1, bias=True)
  (sigmoid): Sigmoid()
)","[0, 1, 2]",conv1,0.9459999799728394
785,"PyTorchCNN(
  (conv1): Conv2d(1, 16, kernel_size=(3, 3), stride=(1, 1), padding=(1, 1))
  (relu1): ReLU()
  (pool1): MaxPool2d(kernel_size=2, stride=2, padding=0, dilation=1, ceil_mode=False)
  (conv2): Conv2d(16, 32, kernel_size=(3, 3), stride=(1, 1), padding=(1, 1))
  (relu2): ReLU()
  (pool2): MaxPool2d(kernel_size=2, stride=2, padding=0, dilation=1, ceil_mode=False)
  (conv3): Conv2d(32, 64, kernel_size=(3, 3), stride=(1, 1), padding=(1, 1))
  (relu3): ReLU()
  (flatten): Flatten(start_dim=1, end_dim=-1)
  (fc1): Linear(in_features=3136, out_features=3, bias=True)
  (relu4): ReLU()
  (fc2): Linear(in_features=3, out_features=1, bias=True)
  (sigmoid): Sigmoid()
)","[0, 1, 2]",conv2,0.9240000247955322
786,"PyTorchCNN(
  (conv1): Conv2d(1, 16, kernel_size=(3, 3), stride=(1, 1), padding=(1, 1))
  (relu1): ReLU()
  (pool1): MaxPool2d(kernel_size=2, stride=2, padding=0, dilation=1, ceil_mode=False)
  (conv2): Conv2d(16, 32, kernel_size=(3, 3), stride=(1, 1), padding=(1, 1))
  (relu2): ReLU()
  (pool2): MaxPool2d(kernel_size=2, stride=2, padding=0, dilation=1, ceil_mode=False)
  (conv3): Conv2d(32, 64, kernel_size=(3, 3), stride=(1, 1), padding=(1, 1))
  (relu3): ReLU()
  (flatten): Flatten(start_dim=1, end_dim=-1)
  (fc1): Linear(in_features=3136, out_features=3, bias=True)
  (relu4): ReLU()
  (fc2): Linear(in_features=3, out_features=1, bias=True)
  (sigmoid): Sigmoid()
)","[0, 1, 2]",conv3,0.9589999914169312
787,"PyTorchCNN(
  (conv1): Conv2d(1, 16, kernel_size=(3, 3), stride=(1, 1), padding=(1, 1))
  (relu1): ReLU()
  (pool1): MaxPool2d(kernel_size=2, stride=2, padding=0, dilation=1, ceil_mode=False)
  (conv2): Conv2d(16, 32, kernel_size=(3, 3), stride=(1, 1), padding=(1, 1))
  (relu2): ReLU()
  (pool2): MaxPool2d(kernel_size=2, stride=2, padding=0, dilation=1, ceil_mode=False)
  (conv3): Conv2d(32, 64, kernel_size=(3, 3), stride=(1, 1), padding=(1, 1))
  (relu3): ReLU()
  (flatten): Flatten(start_dim=1, end_dim=-1)
  (fc1): Linear(in_features=3136, out_features=3, bias=True)
  (relu4): ReLU()
  (fc2): Linear(in_features=3, out_features=1, bias=True)
  (sigmoid): Sigmoid()
)","[0, 1, 2]",fc1,0.5109999775886536
788,"PyTorchCNN(
  (conv1): Conv2d(1, 16, kernel_size=(3, 3), stride=(1, 1), padding=(1, 1))
  (relu1): ReLU()
  (pool1): MaxPool2d(kernel_size=2, stride=2, padding=0, dilation=1, ceil_mode=False)
  (conv2): Conv2d(16, 32, kernel_size=(3, 3), stride=(1, 1), padding=(1, 1))
  (relu2): ReLU()
  (pool2): MaxPool2d(kernel_size=2, stride=2, padding=0, dilation=1, ceil_mode=False)
  (conv3): Conv2d(32, 64, kernel_size=(3, 3), stride=(1, 1), padding=(1, 1))
  (relu3): ReLU()
  (flatten): Flatten(start_dim=1, end_dim=-1)
  (fc1): Linear(in_features=3136, out_features=3, bias=True)
  (relu4): ReLU()
  (fc2): Linear(in_features=3, out_features=1, bias=True)
  (sigmoid): Sigmoid()
)","[0, 1]",conv1,0.9229999780654907
789,"PyTorchCNN(
  (conv1): Conv2d(1, 16, kernel_size=(3, 3), stride=(1, 1), padding=(1, 1))
  (relu1): ReLU()
  (pool1): MaxPool2d(kernel_size=2, stride=2, padding=0, dilation=1, ceil_mode=False)
  (conv2): Conv2d(16, 32, kernel_size=(3, 3), stride=(1, 1), padding=(1, 1))
  (relu2): ReLU()
  (pool2): MaxPool2d(kernel_size=2, stride=2, padding=0, dilation=1, ceil_mode=False)
  (conv3): Conv2d(32, 64, kernel_size=(3, 3), stride=(1, 1), padding=(1, 1))
  (relu3): ReLU()
  (flatten): Flatten(start_dim=1, end_dim=-1)
  (fc1): Linear(in_features=3136, out_features=3, bias=True)
  (relu4): ReLU()
  (fc2): Linear(in_features=3, out_features=1, bias=True)
  (sigmoid): Sigmoid()
)","[0, 1]",conv2,0.9229999780654907
790,"PyTorchCNN(
  (conv1): Conv2d(1, 16, kernel_size=(3, 3), stride=(1, 1), padding=(1, 1))
  (relu1): ReLU()
  (pool1): MaxPool2d(kernel_size=2, stride=2, padding=0, dilation=1, ceil_mode=False)
  (conv2): Conv2d(16, 32, kernel_size=(3, 3), stride=(1, 1), padding=(1, 1))
  (relu2): ReLU()
  (pool2): MaxPool2d(kernel_size=2, stride=2, padding=0, dilation=1, ceil_mode=False)
  (conv3): Conv2d(32, 64, kernel_size=(3, 3), stride=(1, 1), padding=(1, 1))
  (relu3): ReLU()
  (flatten): Flatten(start_dim=1, end_dim=-1)
  (fc1): Linear(in_features=3136, out_features=3, bias=True)
  (relu4): ReLU()
  (fc2): Linear(in_features=3, out_features=1, bias=True)
  (sigmoid): Sigmoid()
)","[0, 1]",conv3,0.8960000276565552
791,"PyTorchCNN(
  (conv1): Conv2d(1, 16, kernel_size=(3, 3), stride=(1, 1), padding=(1, 1))
  (relu1): ReLU()
  (pool1): MaxPool2d(kernel_size=2, stride=2, padding=0, dilation=1, ceil_mode=False)
  (conv2): Conv2d(16, 32, kernel_size=(3, 3), stride=(1, 1), padding=(1, 1))
  (relu2): ReLU()
  (pool2): MaxPool2d(kernel_size=2, stride=2, padding=0, dilation=1, ceil_mode=False)
  (conv3): Conv2d(32, 64, kernel_size=(3, 3), stride=(1, 1), padding=(1, 1))
  (relu3): ReLU()
  (flatten): Flatten(start_dim=1, end_dim=-1)
  (fc1): Linear(in_features=3136, out_features=3, bias=True)
  (relu4): ReLU()
  (fc2): Linear(in_features=3, out_features=1, bias=True)
  (sigmoid): Sigmoid()
)","[0, 1]",fc1,0.6769999861717224
792,"PyTorchCNN(
  (conv1): Conv2d(1, 16, kernel_size=(3, 3), stride=(1, 1), padding=(1, 1))
  (relu1): ReLU()
  (pool1): MaxPool2d(kernel_size=2, stride=2, padding=0, dilation=1, ceil_mode=False)
  (conv2): Conv2d(16, 32, kernel_size=(3, 3), stride=(1, 1), padding=(1, 1))
  (relu2): ReLU()
  (pool2): MaxPool2d(kernel_size=2, stride=2, padding=0, dilation=1, ceil_mode=False)
  (conv3): Conv2d(32, 64, kernel_size=(3, 3), stride=(1, 1), padding=(1, 1))
  (relu3): ReLU()
  (flatten): Flatten(start_dim=1, end_dim=-1)
  (fc1): Linear(in_features=3136, out_features=3, bias=True)
  (relu4): ReLU()
  (fc2): Linear(in_features=3, out_features=1, bias=True)
  (sigmoid): Sigmoid()
)","[0, 2]",conv1,0.9290000200271606
793,"PyTorchCNN(
  (conv1): Conv2d(1, 16, kernel_size=(3, 3), stride=(1, 1), padding=(1, 1))
  (relu1): ReLU()
  (pool1): MaxPool2d(kernel_size=2, stride=2, padding=0, dilation=1, ceil_mode=False)
  (conv2): Conv2d(16, 32, kernel_size=(3, 3), stride=(1, 1), padding=(1, 1))
  (relu2): ReLU()
  (pool2): MaxPool2d(kernel_size=2, stride=2, padding=0, dilation=1, ceil_mode=False)
  (conv3): Conv2d(32, 64, kernel_size=(3, 3), stride=(1, 1), padding=(1, 1))
  (relu3): ReLU()
  (flatten): Flatten(start_dim=1, end_dim=-1)
  (fc1): Linear(in_features=3136, out_features=3, bias=True)
  (relu4): ReLU()
  (fc2): Linear(in_features=3, out_features=1, bias=True)
  (sigmoid): Sigmoid()
)","[0, 2]",conv2,0.9440000057220459
794,"PyTorchCNN(
  (conv1): Conv2d(1, 16, kernel_size=(3, 3), stride=(1, 1), padding=(1, 1))
  (relu1): ReLU()
  (pool1): MaxPool2d(kernel_size=2, stride=2, padding=0, dilation=1, ceil_mode=False)
  (conv2): Conv2d(16, 32, kernel_size=(3, 3), stride=(1, 1), padding=(1, 1))
  (relu2): ReLU()
  (pool2): MaxPool2d(kernel_size=2, stride=2, padding=0, dilation=1, ceil_mode=False)
  (conv3): Conv2d(32, 64, kernel_size=(3, 3), stride=(1, 1), padding=(1, 1))
  (relu3): ReLU()
  (flatten): Flatten(start_dim=1, end_dim=-1)
  (fc1): Linear(in_features=3136, out_features=3, bias=True)
  (relu4): ReLU()
  (fc2): Linear(in_features=3, out_features=1, bias=True)
  (sigmoid): Sigmoid()
)","[0, 2]",conv3,0.9089999794960022
795,"PyTorchCNN(
  (conv1): Conv2d(1, 16, kernel_size=(3, 3), stride=(1, 1), padding=(1, 1))
  (relu1): ReLU()
  (pool1): MaxPool2d(kernel_size=2, stride=2, padding=0, dilation=1, ceil_mode=False)
  (conv2): Conv2d(16, 32, kernel_size=(3, 3), stride=(1, 1), padding=(1, 1))
  (relu2): ReLU()
  (pool2): MaxPool2d(kernel_size=2, stride=2, padding=0, dilation=1, ceil_mode=False)
  (conv3): Conv2d(32, 64, kernel_size=(3, 3), stride=(1, 1), padding=(1, 1))
  (relu3): ReLU()
  (flatten): Flatten(start_dim=1, end_dim=-1)
  (fc1): Linear(in_features=3136, out_features=3, bias=True)
  (relu4): ReLU()
  (fc2): Linear(in_features=3, out_features=1, bias=True)
  (sigmoid): Sigmoid()
)","[0, 2]",fc1,0.734000027179718
796,"PyTorchCNN(
  (conv1): Conv2d(1, 16, kernel_size=(3, 3), stride=(1, 1), padding=(1, 1))
  (relu1): ReLU()
  (pool1): MaxPool2d(kernel_size=2, stride=2, padding=0, dilation=1, ceil_mode=False)
  (conv2): Conv2d(16, 32, kernel_size=(3, 3), stride=(1, 1), padding=(1, 1))
  (relu2): ReLU()
  (pool2): MaxPool2d(kernel_size=2, stride=2, padding=0, dilation=1, ceil_mode=False)
  (conv3): Conv2d(32, 64, kernel_size=(3, 3), stride=(1, 1), padding=(1, 1))
  (relu3): ReLU()
  (flatten): Flatten(start_dim=1, end_dim=-1)
  (fc1): Linear(in_features=3136, out_features=3, bias=True)
  (relu4): ReLU()
  (fc2): Linear(in_features=3, out_features=1, bias=True)
  (sigmoid): Sigmoid()
)","[1, 2]",conv1,0.9440000057220459
797,"PyTorchCNN(
  (conv1): Conv2d(1, 16, kernel_size=(3, 3), stride=(1, 1), padding=(1, 1))
  (relu1): ReLU()
  (pool1): MaxPool2d(kernel_size=2, stride=2, padding=0, dilation=1, ceil_mode=False)
  (conv2): Conv2d(16, 32, kernel_size=(3, 3), stride=(1, 1), padding=(1, 1))
  (relu2): ReLU()
  (pool2): MaxPool2d(kernel_size=2, stride=2, padding=0, dilation=1, ceil_mode=False)
  (conv3): Conv2d(32, 64, kernel_size=(3, 3), stride=(1, 1), padding=(1, 1))
  (relu3): ReLU()
  (flatten): Flatten(start_dim=1, end_dim=-1)
  (fc1): Linear(in_features=3136, out_features=3, bias=True)
  (relu4): ReLU()
  (fc2): Linear(in_features=3, out_features=1, bias=True)
  (sigmoid): Sigmoid()
)","[1, 2]",conv2,0.9279999732971191
798,"PyTorchCNN(
  (conv1): Conv2d(1, 16, kernel_size=(3, 3), stride=(1, 1), padding=(1, 1))
  (relu1): ReLU()
  (pool1): MaxPool2d(kernel_size=2, stride=2, padding=0, dilation=1, ceil_mode=False)
  (conv2): Conv2d(16, 32, kernel_size=(3, 3), stride=(1, 1), padding=(1, 1))
  (relu2): ReLU()
  (pool2): MaxPool2d(kernel_size=2, stride=2, padding=0, dilation=1, ceil_mode=False)
  (conv3): Conv2d(32, 64, kernel_size=(3, 3), stride=(1, 1), padding=(1, 1))
  (relu3): ReLU()
  (flatten): Flatten(start_dim=1, end_dim=-1)
  (fc1): Linear(in_features=3136, out_features=3, bias=True)
  (relu4): ReLU()
  (fc2): Linear(in_features=3, out_features=1, bias=True)
  (sigmoid): Sigmoid()
)","[1, 2]",conv3,0.8820000290870667
799,"PyTorchCNN(
  (conv1): Conv2d(1, 16, kernel_size=(3, 3), stride=(1, 1), padding=(1, 1))
  (relu1): ReLU()
  (pool1): MaxPool2d(kernel_size=2, stride=2, padding=0, dilation=1, ceil_mode=False)
  (conv2): Conv2d(16, 32, kernel_size=(3, 3), stride=(1, 1), padding=(1, 1))
  (relu2): ReLU()
  (pool2): MaxPool2d(kernel_size=2, stride=2, padding=0, dilation=1, ceil_mode=False)
  (conv3): Conv2d(32, 64, kernel_size=(3, 3), stride=(1, 1), padding=(1, 1))
  (relu3): ReLU()
  (flatten): Flatten(start_dim=1, end_dim=-1)
  (fc1): Linear(in_features=3136, out_features=3, bias=True)
  (relu4): ReLU()
  (fc2): Linear(in_features=3, out_features=1, bias=True)
  (sigmoid): Sigmoid()
)","[1, 2]",fc1,0.6000000238418579
800,"PyTorchCNN(
  (conv1): Conv2d(1, 16, kernel_size=(3, 3), stride=(1, 1), padding=(1, 1))
  (relu1): ReLU()
  (pool1): MaxPool2d(kernel_size=2, stride=2, padding=0, dilation=1, ceil_mode=False)
  (conv2): Conv2d(16, 32, kernel_size=(3, 3), stride=(1, 1), padding=(1, 1))
  (relu2): ReLU()
  (pool2): MaxPool2d(kernel_size=2, stride=2, padding=0, dilation=1, ceil_mode=False)
  (conv3): Conv2d(32, 64, kernel_size=(3, 3), stride=(1, 1), padding=(1, 1))
  (relu3): ReLU()
  (flatten): Flatten(start_dim=1, end_dim=-1)
  (fc1): Linear(in_features=3136, out_features=3, bias=True)
  (relu4): ReLU()
  (fc2): Linear(in_features=3, out_features=1, bias=True)
  (sigmoid): Sigmoid()
)",[0],conv1,0.9340000152587891
801,"PyTorchCNN(
  (conv1): Conv2d(1, 16, kernel_size=(3, 3), stride=(1, 1), padding=(1, 1))
  (relu1): ReLU()
  (pool1): MaxPool2d(kernel_size=2, stride=2, padding=0, dilation=1, ceil_mode=False)
  (conv2): Conv2d(16, 32, kernel_size=(3, 3), stride=(1, 1), padding=(1, 1))
  (relu2): ReLU()
  (pool2): MaxPool2d(kernel_size=2, stride=2, padding=0, dilation=1, ceil_mode=False)
  (conv3): Conv2d(32, 64, kernel_size=(3, 3), stride=(1, 1), padding=(1, 1))
  (relu3): ReLU()
  (flatten): Flatten(start_dim=1, end_dim=-1)
  (fc1): Linear(in_features=3136, out_features=3, bias=True)
  (relu4): ReLU()
  (fc2): Linear(in_features=3, out_features=1, bias=True)
  (sigmoid): Sigmoid()
)",[0],conv2,0.9290000200271606
802,"PyTorchCNN(
  (conv1): Conv2d(1, 16, kernel_size=(3, 3), stride=(1, 1), padding=(1, 1))
  (relu1): ReLU()
  (pool1): MaxPool2d(kernel_size=2, stride=2, padding=0, dilation=1, ceil_mode=False)
  (conv2): Conv2d(16, 32, kernel_size=(3, 3), stride=(1, 1), padding=(1, 1))
  (relu2): ReLU()
  (pool2): MaxPool2d(kernel_size=2, stride=2, padding=0, dilation=1, ceil_mode=False)
  (conv3): Conv2d(32, 64, kernel_size=(3, 3), stride=(1, 1), padding=(1, 1))
  (relu3): ReLU()
  (flatten): Flatten(start_dim=1, end_dim=-1)
  (fc1): Linear(in_features=3136, out_features=3, bias=True)
  (relu4): ReLU()
  (fc2): Linear(in_features=3, out_features=1, bias=True)
  (sigmoid): Sigmoid()
)",[0],conv3,0.9070000052452087
803,"PyTorchCNN(
  (conv1): Conv2d(1, 16, kernel_size=(3, 3), stride=(1, 1), padding=(1, 1))
  (relu1): ReLU()
  (pool1): MaxPool2d(kernel_size=2, stride=2, padding=0, dilation=1, ceil_mode=False)
  (conv2): Conv2d(16, 32, kernel_size=(3, 3), stride=(1, 1), padding=(1, 1))
  (relu2): ReLU()
  (pool2): MaxPool2d(kernel_size=2, stride=2, padding=0, dilation=1, ceil_mode=False)
  (conv3): Conv2d(32, 64, kernel_size=(3, 3), stride=(1, 1), padding=(1, 1))
  (relu3): ReLU()
  (flatten): Flatten(start_dim=1, end_dim=-1)
  (fc1): Linear(in_features=3136, out_features=3, bias=True)
  (relu4): ReLU()
  (fc2): Linear(in_features=3, out_features=1, bias=True)
  (sigmoid): Sigmoid()
)",[0],fc1,0.6859999895095825
804,"PyTorchCNN(
  (conv1): Conv2d(1, 16, kernel_size=(3, 3), stride=(1, 1), padding=(1, 1))
  (relu1): ReLU()
  (pool1): MaxPool2d(kernel_size=2, stride=2, padding=0, dilation=1, ceil_mode=False)
  (conv2): Conv2d(16, 32, kernel_size=(3, 3), stride=(1, 1), padding=(1, 1))
  (relu2): ReLU()
  (pool2): MaxPool2d(kernel_size=2, stride=2, padding=0, dilation=1, ceil_mode=False)
  (conv3): Conv2d(32, 64, kernel_size=(3, 3), stride=(1, 1), padding=(1, 1))
  (relu3): ReLU()
  (flatten): Flatten(start_dim=1, end_dim=-1)
  (fc1): Linear(in_features=3136, out_features=3, bias=True)
  (relu4): ReLU()
  (fc2): Linear(in_features=3, out_features=1, bias=True)
  (sigmoid): Sigmoid()
)",[1],conv1,0.9570000171661377
805,"PyTorchCNN(
  (conv1): Conv2d(1, 16, kernel_size=(3, 3), stride=(1, 1), padding=(1, 1))
  (relu1): ReLU()
  (pool1): MaxPool2d(kernel_size=2, stride=2, padding=0, dilation=1, ceil_mode=False)
  (conv2): Conv2d(16, 32, kernel_size=(3, 3), stride=(1, 1), padding=(1, 1))
  (relu2): ReLU()
  (pool2): MaxPool2d(kernel_size=2, stride=2, padding=0, dilation=1, ceil_mode=False)
  (conv3): Conv2d(32, 64, kernel_size=(3, 3), stride=(1, 1), padding=(1, 1))
  (relu3): ReLU()
  (flatten): Flatten(start_dim=1, end_dim=-1)
  (fc1): Linear(in_features=3136, out_features=3, bias=True)
  (relu4): ReLU()
  (fc2): Linear(in_features=3, out_features=1, bias=True)
  (sigmoid): Sigmoid()
)",[1],conv2,0.9739999771118164
806,"PyTorchCNN(
  (conv1): Conv2d(1, 16, kernel_size=(3, 3), stride=(1, 1), padding=(1, 1))
  (relu1): ReLU()
  (pool1): MaxPool2d(kernel_size=2, stride=2, padding=0, dilation=1, ceil_mode=False)
  (conv2): Conv2d(16, 32, kernel_size=(3, 3), stride=(1, 1), padding=(1, 1))
  (relu2): ReLU()
  (pool2): MaxPool2d(kernel_size=2, stride=2, padding=0, dilation=1, ceil_mode=False)
  (conv3): Conv2d(32, 64, kernel_size=(3, 3), stride=(1, 1), padding=(1, 1))
  (relu3): ReLU()
  (flatten): Flatten(start_dim=1, end_dim=-1)
  (fc1): Linear(in_features=3136, out_features=3, bias=True)
  (relu4): ReLU()
  (fc2): Linear(in_features=3, out_features=1, bias=True)
  (sigmoid): Sigmoid()
)",[1],conv3,0.9330000281333923
807,"PyTorchCNN(
  (conv1): Conv2d(1, 16, kernel_size=(3, 3), stride=(1, 1), padding=(1, 1))
  (relu1): ReLU()
  (pool1): MaxPool2d(kernel_size=2, stride=2, padding=0, dilation=1, ceil_mode=False)
  (conv2): Conv2d(16, 32, kernel_size=(3, 3), stride=(1, 1), padding=(1, 1))
  (relu2): ReLU()
  (pool2): MaxPool2d(kernel_size=2, stride=2, padding=0, dilation=1, ceil_mode=False)
  (conv3): Conv2d(32, 64, kernel_size=(3, 3), stride=(1, 1), padding=(1, 1))
  (relu3): ReLU()
  (flatten): Flatten(start_dim=1, end_dim=-1)
  (fc1): Linear(in_features=3136, out_features=3, bias=True)
  (relu4): ReLU()
  (fc2): Linear(in_features=3, out_features=1, bias=True)
  (sigmoid): Sigmoid()
)",[1],fc1,0.6389999985694885
808,"PyTorchCNN(
  (conv1): Conv2d(1, 16, kernel_size=(3, 3), stride=(1, 1), padding=(1, 1))
  (relu1): ReLU()
  (pool1): MaxPool2d(kernel_size=2, stride=2, padding=0, dilation=1, ceil_mode=False)
  (conv2): Conv2d(16, 32, kernel_size=(3, 3), stride=(1, 1), padding=(1, 1))
  (relu2): ReLU()
  (pool2): MaxPool2d(kernel_size=2, stride=2, padding=0, dilation=1, ceil_mode=False)
  (conv3): Conv2d(32, 64, kernel_size=(3, 3), stride=(1, 1), padding=(1, 1))
  (relu3): ReLU()
  (flatten): Flatten(start_dim=1, end_dim=-1)
  (fc1): Linear(in_features=3136, out_features=3, bias=True)
  (relu4): ReLU()
  (fc2): Linear(in_features=3, out_features=1, bias=True)
  (sigmoid): Sigmoid()
)",[2],conv1,0.9490000009536743
809,"PyTorchCNN(
  (conv1): Conv2d(1, 16, kernel_size=(3, 3), stride=(1, 1), padding=(1, 1))
  (relu1): ReLU()
  (pool1): MaxPool2d(kernel_size=2, stride=2, padding=0, dilation=1, ceil_mode=False)
  (conv2): Conv2d(16, 32, kernel_size=(3, 3), stride=(1, 1), padding=(1, 1))
  (relu2): ReLU()
  (pool2): MaxPool2d(kernel_size=2, stride=2, padding=0, dilation=1, ceil_mode=False)
  (conv3): Conv2d(32, 64, kernel_size=(3, 3), stride=(1, 1), padding=(1, 1))
  (relu3): ReLU()
  (flatten): Flatten(start_dim=1, end_dim=-1)
  (fc1): Linear(in_features=3136, out_features=3, bias=True)
  (relu4): ReLU()
  (fc2): Linear(in_features=3, out_features=1, bias=True)
  (sigmoid): Sigmoid()
)",[2],conv2,0.9269999861717224
810,"PyTorchCNN(
  (conv1): Conv2d(1, 16, kernel_size=(3, 3), stride=(1, 1), padding=(1, 1))
  (relu1): ReLU()
  (pool1): MaxPool2d(kernel_size=2, stride=2, padding=0, dilation=1, ceil_mode=False)
  (conv2): Conv2d(16, 32, kernel_size=(3, 3), stride=(1, 1), padding=(1, 1))
  (relu2): ReLU()
  (pool2): MaxPool2d(kernel_size=2, stride=2, padding=0, dilation=1, ceil_mode=False)
  (conv3): Conv2d(32, 64, kernel_size=(3, 3), stride=(1, 1), padding=(1, 1))
  (relu3): ReLU()
  (flatten): Flatten(start_dim=1, end_dim=-1)
  (fc1): Linear(in_features=3136, out_features=3, bias=True)
  (relu4): ReLU()
  (fc2): Linear(in_features=3, out_features=1, bias=True)
  (sigmoid): Sigmoid()
)",[2],conv3,0.9039999842643738
811,"PyTorchCNN(
  (conv1): Conv2d(1, 16, kernel_size=(3, 3), stride=(1, 1), padding=(1, 1))
  (relu1): ReLU()
  (pool1): MaxPool2d(kernel_size=2, stride=2, padding=0, dilation=1, ceil_mode=False)
  (conv2): Conv2d(16, 32, kernel_size=(3, 3), stride=(1, 1), padding=(1, 1))
  (relu2): ReLU()
  (pool2): MaxPool2d(kernel_size=2, stride=2, padding=0, dilation=1, ceil_mode=False)
  (conv3): Conv2d(32, 64, kernel_size=(3, 3), stride=(1, 1), padding=(1, 1))
  (relu3): ReLU()
  (flatten): Flatten(start_dim=1, end_dim=-1)
  (fc1): Linear(in_features=3136, out_features=3, bias=True)
  (relu4): ReLU()
  (fc2): Linear(in_features=3, out_features=1, bias=True)
  (sigmoid): Sigmoid()
)",[2],fc1,0.7319999933242798
812,"PyTorchCNN(
  (conv1): Conv2d(1, 16, kernel_size=(3, 3), stride=(1, 1), padding=(1, 1))
  (relu1): ReLU()
  (pool1): MaxPool2d(kernel_size=2, stride=2, padding=0, dilation=1, ceil_mode=False)
  (conv2): Conv2d(16, 32, kernel_size=(3, 3), stride=(1, 1), padding=(1, 1))
  (relu2): ReLU()
  (pool2): MaxPool2d(kernel_size=2, stride=2, padding=0, dilation=1, ceil_mode=False)
  (conv3): Conv2d(32, 64, kernel_size=(3, 3), stride=(1, 1), padding=(1, 1))
  (relu3): ReLU()
  (flatten): Flatten(start_dim=1, end_dim=-1)
  (fc1): Linear(in_features=3136, out_features=3, bias=True)
  (relu4): ReLU()
  (fc2): Linear(in_features=3, out_features=1, bias=True)
  (sigmoid): Sigmoid()
)","[0, 1, 2]",conv1,0.9210000038146973
813,"PyTorchCNN(
  (conv1): Conv2d(1, 16, kernel_size=(3, 3), stride=(1, 1), padding=(1, 1))
  (relu1): ReLU()
  (pool1): MaxPool2d(kernel_size=2, stride=2, padding=0, dilation=1, ceil_mode=False)
  (conv2): Conv2d(16, 32, kernel_size=(3, 3), stride=(1, 1), padding=(1, 1))
  (relu2): ReLU()
  (pool2): MaxPool2d(kernel_size=2, stride=2, padding=0, dilation=1, ceil_mode=False)
  (conv3): Conv2d(32, 64, kernel_size=(3, 3), stride=(1, 1), padding=(1, 1))
  (relu3): ReLU()
  (flatten): Flatten(start_dim=1, end_dim=-1)
  (fc1): Linear(in_features=3136, out_features=3, bias=True)
  (relu4): ReLU()
  (fc2): Linear(in_features=3, out_features=1, bias=True)
  (sigmoid): Sigmoid()
)","[0, 1, 2]",conv2,0.925000011920929
814,"PyTorchCNN(
  (conv1): Conv2d(1, 16, kernel_size=(3, 3), stride=(1, 1), padding=(1, 1))
  (relu1): ReLU()
  (pool1): MaxPool2d(kernel_size=2, stride=2, padding=0, dilation=1, ceil_mode=False)
  (conv2): Conv2d(16, 32, kernel_size=(3, 3), stride=(1, 1), padding=(1, 1))
  (relu2): ReLU()
  (pool2): MaxPool2d(kernel_size=2, stride=2, padding=0, dilation=1, ceil_mode=False)
  (conv3): Conv2d(32, 64, kernel_size=(3, 3), stride=(1, 1), padding=(1, 1))
  (relu3): ReLU()
  (flatten): Flatten(start_dim=1, end_dim=-1)
  (fc1): Linear(in_features=3136, out_features=3, bias=True)
  (relu4): ReLU()
  (fc2): Linear(in_features=3, out_features=1, bias=True)
  (sigmoid): Sigmoid()
)","[0, 1, 2]",conv3,0.9150000214576721
815,"PyTorchCNN(
  (conv1): Conv2d(1, 16, kernel_size=(3, 3), stride=(1, 1), padding=(1, 1))
  (relu1): ReLU()
  (pool1): MaxPool2d(kernel_size=2, stride=2, padding=0, dilation=1, ceil_mode=False)
  (conv2): Conv2d(16, 32, kernel_size=(3, 3), stride=(1, 1), padding=(1, 1))
  (relu2): ReLU()
  (pool2): MaxPool2d(kernel_size=2, stride=2, padding=0, dilation=1, ceil_mode=False)
  (conv3): Conv2d(32, 64, kernel_size=(3, 3), stride=(1, 1), padding=(1, 1))
  (relu3): ReLU()
  (flatten): Flatten(start_dim=1, end_dim=-1)
  (fc1): Linear(in_features=3136, out_features=3, bias=True)
  (relu4): ReLU()
  (fc2): Linear(in_features=3, out_features=1, bias=True)
  (sigmoid): Sigmoid()
)","[0, 1, 2]",fc1,0.5389999747276306
816,"PyTorchCNN(
  (conv1): Conv2d(1, 16, kernel_size=(3, 3), stride=(1, 1), padding=(1, 1))
  (relu1): ReLU()
  (pool1): MaxPool2d(kernel_size=2, stride=2, padding=0, dilation=1, ceil_mode=False)
  (conv2): Conv2d(16, 32, kernel_size=(3, 3), stride=(1, 1), padding=(1, 1))
  (relu2): ReLU()
  (pool2): MaxPool2d(kernel_size=2, stride=2, padding=0, dilation=1, ceil_mode=False)
  (conv3): Conv2d(32, 64, kernel_size=(3, 3), stride=(1, 1), padding=(1, 1))
  (relu3): ReLU()
  (flatten): Flatten(start_dim=1, end_dim=-1)
  (fc1): Linear(in_features=3136, out_features=3, bias=True)
  (relu4): ReLU()
  (fc2): Linear(in_features=3, out_features=1, bias=True)
  (sigmoid): Sigmoid()
)","[0, 1]",conv1,0.9150000214576721
817,"PyTorchCNN(
  (conv1): Conv2d(1, 16, kernel_size=(3, 3), stride=(1, 1), padding=(1, 1))
  (relu1): ReLU()
  (pool1): MaxPool2d(kernel_size=2, stride=2, padding=0, dilation=1, ceil_mode=False)
  (conv2): Conv2d(16, 32, kernel_size=(3, 3), stride=(1, 1), padding=(1, 1))
  (relu2): ReLU()
  (pool2): MaxPool2d(kernel_size=2, stride=2, padding=0, dilation=1, ceil_mode=False)
  (conv3): Conv2d(32, 64, kernel_size=(3, 3), stride=(1, 1), padding=(1, 1))
  (relu3): ReLU()
  (flatten): Flatten(start_dim=1, end_dim=-1)
  (fc1): Linear(in_features=3136, out_features=3, bias=True)
  (relu4): ReLU()
  (fc2): Linear(in_features=3, out_features=1, bias=True)
  (sigmoid): Sigmoid()
)","[0, 1]",conv2,0.9129999876022339
818,"PyTorchCNN(
  (conv1): Conv2d(1, 16, kernel_size=(3, 3), stride=(1, 1), padding=(1, 1))
  (relu1): ReLU()
  (pool1): MaxPool2d(kernel_size=2, stride=2, padding=0, dilation=1, ceil_mode=False)
  (conv2): Conv2d(16, 32, kernel_size=(3, 3), stride=(1, 1), padding=(1, 1))
  (relu2): ReLU()
  (pool2): MaxPool2d(kernel_size=2, stride=2, padding=0, dilation=1, ceil_mode=False)
  (conv3): Conv2d(32, 64, kernel_size=(3, 3), stride=(1, 1), padding=(1, 1))
  (relu3): ReLU()
  (flatten): Flatten(start_dim=1, end_dim=-1)
  (fc1): Linear(in_features=3136, out_features=3, bias=True)
  (relu4): ReLU()
  (fc2): Linear(in_features=3, out_features=1, bias=True)
  (sigmoid): Sigmoid()
)","[0, 1]",conv3,0.9190000295639038
819,"PyTorchCNN(
  (conv1): Conv2d(1, 16, kernel_size=(3, 3), stride=(1, 1), padding=(1, 1))
  (relu1): ReLU()
  (pool1): MaxPool2d(kernel_size=2, stride=2, padding=0, dilation=1, ceil_mode=False)
  (conv2): Conv2d(16, 32, kernel_size=(3, 3), stride=(1, 1), padding=(1, 1))
  (relu2): ReLU()
  (pool2): MaxPool2d(kernel_size=2, stride=2, padding=0, dilation=1, ceil_mode=False)
  (conv3): Conv2d(32, 64, kernel_size=(3, 3), stride=(1, 1), padding=(1, 1))
  (relu3): ReLU()
  (flatten): Flatten(start_dim=1, end_dim=-1)
  (fc1): Linear(in_features=3136, out_features=3, bias=True)
  (relu4): ReLU()
  (fc2): Linear(in_features=3, out_features=1, bias=True)
  (sigmoid): Sigmoid()
)","[0, 1]",fc1,0.7549999952316284
820,"PyTorchCNN(
  (conv1): Conv2d(1, 16, kernel_size=(3, 3), stride=(1, 1), padding=(1, 1))
  (relu1): ReLU()
  (pool1): MaxPool2d(kernel_size=2, stride=2, padding=0, dilation=1, ceil_mode=False)
  (conv2): Conv2d(16, 32, kernel_size=(3, 3), stride=(1, 1), padding=(1, 1))
  (relu2): ReLU()
  (pool2): MaxPool2d(kernel_size=2, stride=2, padding=0, dilation=1, ceil_mode=False)
  (conv3): Conv2d(32, 64, kernel_size=(3, 3), stride=(1, 1), padding=(1, 1))
  (relu3): ReLU()
  (flatten): Flatten(start_dim=1, end_dim=-1)
  (fc1): Linear(in_features=3136, out_features=3, bias=True)
  (relu4): ReLU()
  (fc2): Linear(in_features=3, out_features=1, bias=True)
  (sigmoid): Sigmoid()
)","[0, 2]",conv1,0.9359999895095825
821,"PyTorchCNN(
  (conv1): Conv2d(1, 16, kernel_size=(3, 3), stride=(1, 1), padding=(1, 1))
  (relu1): ReLU()
  (pool1): MaxPool2d(kernel_size=2, stride=2, padding=0, dilation=1, ceil_mode=False)
  (conv2): Conv2d(16, 32, kernel_size=(3, 3), stride=(1, 1), padding=(1, 1))
  (relu2): ReLU()
  (pool2): MaxPool2d(kernel_size=2, stride=2, padding=0, dilation=1, ceil_mode=False)
  (conv3): Conv2d(32, 64, kernel_size=(3, 3), stride=(1, 1), padding=(1, 1))
  (relu3): ReLU()
  (flatten): Flatten(start_dim=1, end_dim=-1)
  (fc1): Linear(in_features=3136, out_features=3, bias=True)
  (relu4): ReLU()
  (fc2): Linear(in_features=3, out_features=1, bias=True)
  (sigmoid): Sigmoid()
)","[0, 2]",conv2,0.9390000104904175
822,"PyTorchCNN(
  (conv1): Conv2d(1, 16, kernel_size=(3, 3), stride=(1, 1), padding=(1, 1))
  (relu1): ReLU()
  (pool1): MaxPool2d(kernel_size=2, stride=2, padding=0, dilation=1, ceil_mode=False)
  (conv2): Conv2d(16, 32, kernel_size=(3, 3), stride=(1, 1), padding=(1, 1))
  (relu2): ReLU()
  (pool2): MaxPool2d(kernel_size=2, stride=2, padding=0, dilation=1, ceil_mode=False)
  (conv3): Conv2d(32, 64, kernel_size=(3, 3), stride=(1, 1), padding=(1, 1))
  (relu3): ReLU()
  (flatten): Flatten(start_dim=1, end_dim=-1)
  (fc1): Linear(in_features=3136, out_features=3, bias=True)
  (relu4): ReLU()
  (fc2): Linear(in_features=3, out_features=1, bias=True)
  (sigmoid): Sigmoid()
)","[0, 2]",conv3,0.9200000166893005
823,"PyTorchCNN(
  (conv1): Conv2d(1, 16, kernel_size=(3, 3), stride=(1, 1), padding=(1, 1))
  (relu1): ReLU()
  (pool1): MaxPool2d(kernel_size=2, stride=2, padding=0, dilation=1, ceil_mode=False)
  (conv2): Conv2d(16, 32, kernel_size=(3, 3), stride=(1, 1), padding=(1, 1))
  (relu2): ReLU()
  (pool2): MaxPool2d(kernel_size=2, stride=2, padding=0, dilation=1, ceil_mode=False)
  (conv3): Conv2d(32, 64, kernel_size=(3, 3), stride=(1, 1), padding=(1, 1))
  (relu3): ReLU()
  (flatten): Flatten(start_dim=1, end_dim=-1)
  (fc1): Linear(in_features=3136, out_features=3, bias=True)
  (relu4): ReLU()
  (fc2): Linear(in_features=3, out_features=1, bias=True)
  (sigmoid): Sigmoid()
)","[0, 2]",fc1,0.7710000276565552
824,"PyTorchCNN(
  (conv1): Conv2d(1, 16, kernel_size=(3, 3), stride=(1, 1), padding=(1, 1))
  (relu1): ReLU()
  (pool1): MaxPool2d(kernel_size=2, stride=2, padding=0, dilation=1, ceil_mode=False)
  (conv2): Conv2d(16, 32, kernel_size=(3, 3), stride=(1, 1), padding=(1, 1))
  (relu2): ReLU()
  (pool2): MaxPool2d(kernel_size=2, stride=2, padding=0, dilation=1, ceil_mode=False)
  (conv3): Conv2d(32, 64, kernel_size=(3, 3), stride=(1, 1), padding=(1, 1))
  (relu3): ReLU()
  (flatten): Flatten(start_dim=1, end_dim=-1)
  (fc1): Linear(in_features=3136, out_features=3, bias=True)
  (relu4): ReLU()
  (fc2): Linear(in_features=3, out_features=1, bias=True)
  (sigmoid): Sigmoid()
)","[1, 2]",conv1,0.9459999799728394
825,"PyTorchCNN(
  (conv1): Conv2d(1, 16, kernel_size=(3, 3), stride=(1, 1), padding=(1, 1))
  (relu1): ReLU()
  (pool1): MaxPool2d(kernel_size=2, stride=2, padding=0, dilation=1, ceil_mode=False)
  (conv2): Conv2d(16, 32, kernel_size=(3, 3), stride=(1, 1), padding=(1, 1))
  (relu2): ReLU()
  (pool2): MaxPool2d(kernel_size=2, stride=2, padding=0, dilation=1, ceil_mode=False)
  (conv3): Conv2d(32, 64, kernel_size=(3, 3), stride=(1, 1), padding=(1, 1))
  (relu3): ReLU()
  (flatten): Flatten(start_dim=1, end_dim=-1)
  (fc1): Linear(in_features=3136, out_features=3, bias=True)
  (relu4): ReLU()
  (fc2): Linear(in_features=3, out_features=1, bias=True)
  (sigmoid): Sigmoid()
)","[1, 2]",conv2,0.9259999990463257
826,"PyTorchCNN(
  (conv1): Conv2d(1, 16, kernel_size=(3, 3), stride=(1, 1), padding=(1, 1))
  (relu1): ReLU()
  (pool1): MaxPool2d(kernel_size=2, stride=2, padding=0, dilation=1, ceil_mode=False)
  (conv2): Conv2d(16, 32, kernel_size=(3, 3), stride=(1, 1), padding=(1, 1))
  (relu2): ReLU()
  (pool2): MaxPool2d(kernel_size=2, stride=2, padding=0, dilation=1, ceil_mode=False)
  (conv3): Conv2d(32, 64, kernel_size=(3, 3), stride=(1, 1), padding=(1, 1))
  (relu3): ReLU()
  (flatten): Flatten(start_dim=1, end_dim=-1)
  (fc1): Linear(in_features=3136, out_features=3, bias=True)
  (relu4): ReLU()
  (fc2): Linear(in_features=3, out_features=1, bias=True)
  (sigmoid): Sigmoid()
)","[1, 2]",conv3,0.8759999871253967
827,"PyTorchCNN(
  (conv1): Conv2d(1, 16, kernel_size=(3, 3), stride=(1, 1), padding=(1, 1))
  (relu1): ReLU()
  (pool1): MaxPool2d(kernel_size=2, stride=2, padding=0, dilation=1, ceil_mode=False)
  (conv2): Conv2d(16, 32, kernel_size=(3, 3), stride=(1, 1), padding=(1, 1))
  (relu2): ReLU()
  (pool2): MaxPool2d(kernel_size=2, stride=2, padding=0, dilation=1, ceil_mode=False)
  (conv3): Conv2d(32, 64, kernel_size=(3, 3), stride=(1, 1), padding=(1, 1))
  (relu3): ReLU()
  (flatten): Flatten(start_dim=1, end_dim=-1)
  (fc1): Linear(in_features=3136, out_features=3, bias=True)
  (relu4): ReLU()
  (fc2): Linear(in_features=3, out_features=1, bias=True)
  (sigmoid): Sigmoid()
)","[1, 2]",fc1,0.6629999876022339
828,"PyTorchCNN(
  (conv1): Conv2d(1, 16, kernel_size=(3, 3), stride=(1, 1), padding=(1, 1))
  (relu1): ReLU()
  (pool1): MaxPool2d(kernel_size=2, stride=2, padding=0, dilation=1, ceil_mode=False)
  (conv2): Conv2d(16, 32, kernel_size=(3, 3), stride=(1, 1), padding=(1, 1))
  (relu2): ReLU()
  (pool2): MaxPool2d(kernel_size=2, stride=2, padding=0, dilation=1, ceil_mode=False)
  (conv3): Conv2d(32, 64, kernel_size=(3, 3), stride=(1, 1), padding=(1, 1))
  (relu3): ReLU()
  (flatten): Flatten(start_dim=1, end_dim=-1)
  (fc1): Linear(in_features=3136, out_features=3, bias=True)
  (relu4): ReLU()
  (fc2): Linear(in_features=3, out_features=1, bias=True)
  (sigmoid): Sigmoid()
)",[0],conv1,0.9110000133514404
829,"PyTorchCNN(
  (conv1): Conv2d(1, 16, kernel_size=(3, 3), stride=(1, 1), padding=(1, 1))
  (relu1): ReLU()
  (pool1): MaxPool2d(kernel_size=2, stride=2, padding=0, dilation=1, ceil_mode=False)
  (conv2): Conv2d(16, 32, kernel_size=(3, 3), stride=(1, 1), padding=(1, 1))
  (relu2): ReLU()
  (pool2): MaxPool2d(kernel_size=2, stride=2, padding=0, dilation=1, ceil_mode=False)
  (conv3): Conv2d(32, 64, kernel_size=(3, 3), stride=(1, 1), padding=(1, 1))
  (relu3): ReLU()
  (flatten): Flatten(start_dim=1, end_dim=-1)
  (fc1): Linear(in_features=3136, out_features=3, bias=True)
  (relu4): ReLU()
  (fc2): Linear(in_features=3, out_features=1, bias=True)
  (sigmoid): Sigmoid()
)",[0],conv2,0.9100000262260437
830,"PyTorchCNN(
  (conv1): Conv2d(1, 16, kernel_size=(3, 3), stride=(1, 1), padding=(1, 1))
  (relu1): ReLU()
  (pool1): MaxPool2d(kernel_size=2, stride=2, padding=0, dilation=1, ceil_mode=False)
  (conv2): Conv2d(16, 32, kernel_size=(3, 3), stride=(1, 1), padding=(1, 1))
  (relu2): ReLU()
  (pool2): MaxPool2d(kernel_size=2, stride=2, padding=0, dilation=1, ceil_mode=False)
  (conv3): Conv2d(32, 64, kernel_size=(3, 3), stride=(1, 1), padding=(1, 1))
  (relu3): ReLU()
  (flatten): Flatten(start_dim=1, end_dim=-1)
  (fc1): Linear(in_features=3136, out_features=3, bias=True)
  (relu4): ReLU()
  (fc2): Linear(in_features=3, out_features=1, bias=True)
  (sigmoid): Sigmoid()
)",[0],conv3,0.8870000243186951
831,"PyTorchCNN(
  (conv1): Conv2d(1, 16, kernel_size=(3, 3), stride=(1, 1), padding=(1, 1))
  (relu1): ReLU()
  (pool1): MaxPool2d(kernel_size=2, stride=2, padding=0, dilation=1, ceil_mode=False)
  (conv2): Conv2d(16, 32, kernel_size=(3, 3), stride=(1, 1), padding=(1, 1))
  (relu2): ReLU()
  (pool2): MaxPool2d(kernel_size=2, stride=2, padding=0, dilation=1, ceil_mode=False)
  (conv3): Conv2d(32, 64, kernel_size=(3, 3), stride=(1, 1), padding=(1, 1))
  (relu3): ReLU()
  (flatten): Flatten(start_dim=1, end_dim=-1)
  (fc1): Linear(in_features=3136, out_features=3, bias=True)
  (relu4): ReLU()
  (fc2): Linear(in_features=3, out_features=1, bias=True)
  (sigmoid): Sigmoid()
)",[0],fc1,0.7149999737739563
832,"PyTorchCNN(
  (conv1): Conv2d(1, 16, kernel_size=(3, 3), stride=(1, 1), padding=(1, 1))
  (relu1): ReLU()
  (pool1): MaxPool2d(kernel_size=2, stride=2, padding=0, dilation=1, ceil_mode=False)
  (conv2): Conv2d(16, 32, kernel_size=(3, 3), stride=(1, 1), padding=(1, 1))
  (relu2): ReLU()
  (pool2): MaxPool2d(kernel_size=2, stride=2, padding=0, dilation=1, ceil_mode=False)
  (conv3): Conv2d(32, 64, kernel_size=(3, 3), stride=(1, 1), padding=(1, 1))
  (relu3): ReLU()
  (flatten): Flatten(start_dim=1, end_dim=-1)
  (fc1): Linear(in_features=3136, out_features=3, bias=True)
  (relu4): ReLU()
  (fc2): Linear(in_features=3, out_features=1, bias=True)
  (sigmoid): Sigmoid()
)",[1],conv1,0.9599999785423279
833,"PyTorchCNN(
  (conv1): Conv2d(1, 16, kernel_size=(3, 3), stride=(1, 1), padding=(1, 1))
  (relu1): ReLU()
  (pool1): MaxPool2d(kernel_size=2, stride=2, padding=0, dilation=1, ceil_mode=False)
  (conv2): Conv2d(16, 32, kernel_size=(3, 3), stride=(1, 1), padding=(1, 1))
  (relu2): ReLU()
  (pool2): MaxPool2d(kernel_size=2, stride=2, padding=0, dilation=1, ceil_mode=False)
  (conv3): Conv2d(32, 64, kernel_size=(3, 3), stride=(1, 1), padding=(1, 1))
  (relu3): ReLU()
  (flatten): Flatten(start_dim=1, end_dim=-1)
  (fc1): Linear(in_features=3136, out_features=3, bias=True)
  (relu4): ReLU()
  (fc2): Linear(in_features=3, out_features=1, bias=True)
  (sigmoid): Sigmoid()
)",[1],conv2,0.953000009059906
834,"PyTorchCNN(
  (conv1): Conv2d(1, 16, kernel_size=(3, 3), stride=(1, 1), padding=(1, 1))
  (relu1): ReLU()
  (pool1): MaxPool2d(kernel_size=2, stride=2, padding=0, dilation=1, ceil_mode=False)
  (conv2): Conv2d(16, 32, kernel_size=(3, 3), stride=(1, 1), padding=(1, 1))
  (relu2): ReLU()
  (pool2): MaxPool2d(kernel_size=2, stride=2, padding=0, dilation=1, ceil_mode=False)
  (conv3): Conv2d(32, 64, kernel_size=(3, 3), stride=(1, 1), padding=(1, 1))
  (relu3): ReLU()
  (flatten): Flatten(start_dim=1, end_dim=-1)
  (fc1): Linear(in_features=3136, out_features=3, bias=True)
  (relu4): ReLU()
  (fc2): Linear(in_features=3, out_features=1, bias=True)
  (sigmoid): Sigmoid()
)",[1],conv3,0.9369999766349792
835,"PyTorchCNN(
  (conv1): Conv2d(1, 16, kernel_size=(3, 3), stride=(1, 1), padding=(1, 1))
  (relu1): ReLU()
  (pool1): MaxPool2d(kernel_size=2, stride=2, padding=0, dilation=1, ceil_mode=False)
  (conv2): Conv2d(16, 32, kernel_size=(3, 3), stride=(1, 1), padding=(1, 1))
  (relu2): ReLU()
  (pool2): MaxPool2d(kernel_size=2, stride=2, padding=0, dilation=1, ceil_mode=False)
  (conv3): Conv2d(32, 64, kernel_size=(3, 3), stride=(1, 1), padding=(1, 1))
  (relu3): ReLU()
  (flatten): Flatten(start_dim=1, end_dim=-1)
  (fc1): Linear(in_features=3136, out_features=3, bias=True)
  (relu4): ReLU()
  (fc2): Linear(in_features=3, out_features=1, bias=True)
  (sigmoid): Sigmoid()
)",[1],fc1,0.7519999742507935
836,"PyTorchCNN(
  (conv1): Conv2d(1, 16, kernel_size=(3, 3), stride=(1, 1), padding=(1, 1))
  (relu1): ReLU()
  (pool1): MaxPool2d(kernel_size=2, stride=2, padding=0, dilation=1, ceil_mode=False)
  (conv2): Conv2d(16, 32, kernel_size=(3, 3), stride=(1, 1), padding=(1, 1))
  (relu2): ReLU()
  (pool2): MaxPool2d(kernel_size=2, stride=2, padding=0, dilation=1, ceil_mode=False)
  (conv3): Conv2d(32, 64, kernel_size=(3, 3), stride=(1, 1), padding=(1, 1))
  (relu3): ReLU()
  (flatten): Flatten(start_dim=1, end_dim=-1)
  (fc1): Linear(in_features=3136, out_features=3, bias=True)
  (relu4): ReLU()
  (fc2): Linear(in_features=3, out_features=1, bias=True)
  (sigmoid): Sigmoid()
)",[2],conv1,0.9440000057220459
837,"PyTorchCNN(
  (conv1): Conv2d(1, 16, kernel_size=(3, 3), stride=(1, 1), padding=(1, 1))
  (relu1): ReLU()
  (pool1): MaxPool2d(kernel_size=2, stride=2, padding=0, dilation=1, ceil_mode=False)
  (conv2): Conv2d(16, 32, kernel_size=(3, 3), stride=(1, 1), padding=(1, 1))
  (relu2): ReLU()
  (pool2): MaxPool2d(kernel_size=2, stride=2, padding=0, dilation=1, ceil_mode=False)
  (conv3): Conv2d(32, 64, kernel_size=(3, 3), stride=(1, 1), padding=(1, 1))
  (relu3): ReLU()
  (flatten): Flatten(start_dim=1, end_dim=-1)
  (fc1): Linear(in_features=3136, out_features=3, bias=True)
  (relu4): ReLU()
  (fc2): Linear(in_features=3, out_features=1, bias=True)
  (sigmoid): Sigmoid()
)",[2],conv2,0.9570000171661377
838,"PyTorchCNN(
  (conv1): Conv2d(1, 16, kernel_size=(3, 3), stride=(1, 1), padding=(1, 1))
  (relu1): ReLU()
  (pool1): MaxPool2d(kernel_size=2, stride=2, padding=0, dilation=1, ceil_mode=False)
  (conv2): Conv2d(16, 32, kernel_size=(3, 3), stride=(1, 1), padding=(1, 1))
  (relu2): ReLU()
  (pool2): MaxPool2d(kernel_size=2, stride=2, padding=0, dilation=1, ceil_mode=False)
  (conv3): Conv2d(32, 64, kernel_size=(3, 3), stride=(1, 1), padding=(1, 1))
  (relu3): ReLU()
  (flatten): Flatten(start_dim=1, end_dim=-1)
  (fc1): Linear(in_features=3136, out_features=3, bias=True)
  (relu4): ReLU()
  (fc2): Linear(in_features=3, out_features=1, bias=True)
  (sigmoid): Sigmoid()
)",[2],conv3,0.9309999942779541
839,"PyTorchCNN(
  (conv1): Conv2d(1, 16, kernel_size=(3, 3), stride=(1, 1), padding=(1, 1))
  (relu1): ReLU()
  (pool1): MaxPool2d(kernel_size=2, stride=2, padding=0, dilation=1, ceil_mode=False)
  (conv2): Conv2d(16, 32, kernel_size=(3, 3), stride=(1, 1), padding=(1, 1))
  (relu2): ReLU()
  (pool2): MaxPool2d(kernel_size=2, stride=2, padding=0, dilation=1, ceil_mode=False)
  (conv3): Conv2d(32, 64, kernel_size=(3, 3), stride=(1, 1), padding=(1, 1))
  (relu3): ReLU()
  (flatten): Flatten(start_dim=1, end_dim=-1)
  (fc1): Linear(in_features=3136, out_features=3, bias=True)
  (relu4): ReLU()
  (fc2): Linear(in_features=3, out_features=1, bias=True)
  (sigmoid): Sigmoid()
)",[2],fc1,0.7440000176429749
