,model,variables,layer,accuracy
0,"PyTorchCNN(
  (conv1): Conv2d(1, 16, kernel_size=(3, 3), stride=(1, 1), padding=(1, 1))
  (relu1): ReLU()
  (pool1): MaxPool2d(kernel_size=2, stride=2, padding=0, dilation=1, ceil_mode=False)
  (conv2): Conv2d(16, 32, kernel_size=(3, 3), stride=(1, 1), padding=(1, 1))
  (relu2): ReLU()
  (pool2): MaxPool2d(kernel_size=2, stride=2, padding=0, dilation=1, ceil_mode=False)
  (conv3): Conv2d(32, 64, kernel_size=(3, 3), stride=(1, 1), padding=(1, 1))
  (relu3): ReLU()
  (flatten): Flatten(start_dim=1, end_dim=-1)
  (fc1): Linear(in_features=3136, out_features=3, bias=True)
  (relu4): ReLU()
  (fc2): Linear(in_features=3, out_features=1, bias=True)
  (sigmoid): Sigmoid()
)","[0, 1, 2]",conv1,0.9350000023841858
1,"PyTorchCNN(
  (conv1): Conv2d(1, 16, kernel_size=(3, 3), stride=(1, 1), padding=(1, 1))
  (relu1): ReLU()
  (pool1): MaxPool2d(kernel_size=2, stride=2, padding=0, dilation=1, ceil_mode=False)
  (conv2): Conv2d(16, 32, kernel_size=(3, 3), stride=(1, 1), padding=(1, 1))
  (relu2): ReLU()
  (pool2): MaxPool2d(kernel_size=2, stride=2, padding=0, dilation=1, ceil_mode=False)
  (conv3): Conv2d(32, 64, kernel_size=(3, 3), stride=(1, 1), padding=(1, 1))
  (relu3): ReLU()
  (flatten): Flatten(start_dim=1, end_dim=-1)
  (fc1): Linear(in_features=3136, out_features=3, bias=True)
  (relu4): ReLU()
  (fc2): Linear(in_features=3, out_features=1, bias=True)
  (sigmoid): Sigmoid()
)","[0, 1, 2]",conv2,0.9240000247955322
2,"PyTorchCNN(
  (conv1): Conv2d(1, 16, kernel_size=(3, 3), stride=(1, 1), padding=(1, 1))
  (relu1): ReLU()
  (pool1): MaxPool2d(kernel_size=2, stride=2, padding=0, dilation=1, ceil_mode=False)
  (conv2): Conv2d(16, 32, kernel_size=(3, 3), stride=(1, 1), padding=(1, 1))
  (relu2): ReLU()
  (pool2): MaxPool2d(kernel_size=2, stride=2, padding=0, dilation=1, ceil_mode=False)
  (conv3): Conv2d(32, 64, kernel_size=(3, 3), stride=(1, 1), padding=(1, 1))
  (relu3): ReLU()
  (flatten): Flatten(start_dim=1, end_dim=-1)
  (fc1): Linear(in_features=3136, out_features=3, bias=True)
  (relu4): ReLU()
  (fc2): Linear(in_features=3, out_features=1, bias=True)
  (sigmoid): Sigmoid()
)","[0, 1, 2]",conv3,0.9430000185966492
3,"PyTorchCNN(
  (conv1): Conv2d(1, 16, kernel_size=(3, 3), stride=(1, 1), padding=(1, 1))
  (relu1): ReLU()
  (pool1): MaxPool2d(kernel_size=2, stride=2, padding=0, dilation=1, ceil_mode=False)
  (conv2): Conv2d(16, 32, kernel_size=(3, 3), stride=(1, 1), padding=(1, 1))
  (relu2): ReLU()
  (pool2): MaxPool2d(kernel_size=2, stride=2, padding=0, dilation=1, ceil_mode=False)
  (conv3): Conv2d(32, 64, kernel_size=(3, 3), stride=(1, 1), padding=(1, 1))
  (relu3): ReLU()
  (flatten): Flatten(start_dim=1, end_dim=-1)
  (fc1): Linear(in_features=3136, out_features=3, bias=True)
  (relu4): ReLU()
  (fc2): Linear(in_features=3, out_features=1, bias=True)
  (sigmoid): Sigmoid()
)","[0, 1, 2]",fc1,0.9419999718666077
4,"PyTorchCNN(
  (conv1): Conv2d(1, 16, kernel_size=(3, 3), stride=(1, 1), padding=(1, 1))
  (relu1): ReLU()
  (pool1): MaxPool2d(kernel_size=2, stride=2, padding=0, dilation=1, ceil_mode=False)
  (conv2): Conv2d(16, 32, kernel_size=(3, 3), stride=(1, 1), padding=(1, 1))
  (relu2): ReLU()
  (pool2): MaxPool2d(kernel_size=2, stride=2, padding=0, dilation=1, ceil_mode=False)
  (conv3): Conv2d(32, 64, kernel_size=(3, 3), stride=(1, 1), padding=(1, 1))
  (relu3): ReLU()
  (flatten): Flatten(start_dim=1, end_dim=-1)
  (fc1): Linear(in_features=3136, out_features=3, bias=True)
  (relu4): ReLU()
  (fc2): Linear(in_features=3, out_features=1, bias=True)
  (sigmoid): Sigmoid()
)","[0, 1]",conv1,0.8920000195503235
5,"PyTorchCNN(
  (conv1): Conv2d(1, 16, kernel_size=(3, 3), stride=(1, 1), padding=(1, 1))
  (relu1): ReLU()
  (pool1): MaxPool2d(kernel_size=2, stride=2, padding=0, dilation=1, ceil_mode=False)
  (conv2): Conv2d(16, 32, kernel_size=(3, 3), stride=(1, 1), padding=(1, 1))
  (relu2): ReLU()
  (pool2): MaxPool2d(kernel_size=2, stride=2, padding=0, dilation=1, ceil_mode=False)
  (conv3): Conv2d(32, 64, kernel_size=(3, 3), stride=(1, 1), padding=(1, 1))
  (relu3): ReLU()
  (flatten): Flatten(start_dim=1, end_dim=-1)
  (fc1): Linear(in_features=3136, out_features=3, bias=True)
  (relu4): ReLU()
  (fc2): Linear(in_features=3, out_features=1, bias=True)
  (sigmoid): Sigmoid()
)","[0, 1]",conv2,0.9100000262260437
6,"PyTorchCNN(
  (conv1): Conv2d(1, 16, kernel_size=(3, 3), stride=(1, 1), padding=(1, 1))
  (relu1): ReLU()
  (pool1): MaxPool2d(kernel_size=2, stride=2, padding=0, dilation=1, ceil_mode=False)
  (conv2): Conv2d(16, 32, kernel_size=(3, 3), stride=(1, 1), padding=(1, 1))
  (relu2): ReLU()
  (pool2): MaxPool2d(kernel_size=2, stride=2, padding=0, dilation=1, ceil_mode=False)
  (conv3): Conv2d(32, 64, kernel_size=(3, 3), stride=(1, 1), padding=(1, 1))
  (relu3): ReLU()
  (flatten): Flatten(start_dim=1, end_dim=-1)
  (fc1): Linear(in_features=3136, out_features=3, bias=True)
  (relu4): ReLU()
  (fc2): Linear(in_features=3, out_features=1, bias=True)
  (sigmoid): Sigmoid()
)","[0, 1]",conv3,0.8920000195503235
7,"PyTorchCNN(
  (conv1): Conv2d(1, 16, kernel_size=(3, 3), stride=(1, 1), padding=(1, 1))
  (relu1): ReLU()
  (pool1): MaxPool2d(kernel_size=2, stride=2, padding=0, dilation=1, ceil_mode=False)
  (conv2): Conv2d(16, 32, kernel_size=(3, 3), stride=(1, 1), padding=(1, 1))
  (relu2): ReLU()
  (pool2): MaxPool2d(kernel_size=2, stride=2, padding=0, dilation=1, ceil_mode=False)
  (conv3): Conv2d(32, 64, kernel_size=(3, 3), stride=(1, 1), padding=(1, 1))
  (relu3): ReLU()
  (flatten): Flatten(start_dim=1, end_dim=-1)
  (fc1): Linear(in_features=3136, out_features=3, bias=True)
  (relu4): ReLU()
  (fc2): Linear(in_features=3, out_features=1, bias=True)
  (sigmoid): Sigmoid()
)","[0, 1]",fc1,0.6959999799728394
8,"PyTorchCNN(
  (conv1): Conv2d(1, 16, kernel_size=(3, 3), stride=(1, 1), padding=(1, 1))
  (relu1): ReLU()
  (pool1): MaxPool2d(kernel_size=2, stride=2, padding=0, dilation=1, ceil_mode=False)
  (conv2): Conv2d(16, 32, kernel_size=(3, 3), stride=(1, 1), padding=(1, 1))
  (relu2): ReLU()
  (pool2): MaxPool2d(kernel_size=2, stride=2, padding=0, dilation=1, ceil_mode=False)
  (conv3): Conv2d(32, 64, kernel_size=(3, 3), stride=(1, 1), padding=(1, 1))
  (relu3): ReLU()
  (flatten): Flatten(start_dim=1, end_dim=-1)
  (fc1): Linear(in_features=3136, out_features=3, bias=True)
  (relu4): ReLU()
  (fc2): Linear(in_features=3, out_features=1, bias=True)
  (sigmoid): Sigmoid()
)","[0, 2]",conv1,0.921999990940094
9,"PyTorchCNN(
  (conv1): Conv2d(1, 16, kernel_size=(3, 3), stride=(1, 1), padding=(1, 1))
  (relu1): ReLU()
  (pool1): MaxPool2d(kernel_size=2, stride=2, padding=0, dilation=1, ceil_mode=False)
  (conv2): Conv2d(16, 32, kernel_size=(3, 3), stride=(1, 1), padding=(1, 1))
  (relu2): ReLU()
  (pool2): MaxPool2d(kernel_size=2, stride=2, padding=0, dilation=1, ceil_mode=False)
  (conv3): Conv2d(32, 64, kernel_size=(3, 3), stride=(1, 1), padding=(1, 1))
  (relu3): ReLU()
  (flatten): Flatten(start_dim=1, end_dim=-1)
  (fc1): Linear(in_features=3136, out_features=3, bias=True)
  (relu4): ReLU()
  (fc2): Linear(in_features=3, out_features=1, bias=True)
  (sigmoid): Sigmoid()
)","[0, 2]",conv2,0.9330000281333923
10,"PyTorchCNN(
  (conv1): Conv2d(1, 16, kernel_size=(3, 3), stride=(1, 1), padding=(1, 1))
  (relu1): ReLU()
  (pool1): MaxPool2d(kernel_size=2, stride=2, padding=0, dilation=1, ceil_mode=False)
  (conv2): Conv2d(16, 32, kernel_size=(3, 3), stride=(1, 1), padding=(1, 1))
  (relu2): ReLU()
  (pool2): MaxPool2d(kernel_size=2, stride=2, padding=0, dilation=1, ceil_mode=False)
  (conv3): Conv2d(32, 64, kernel_size=(3, 3), stride=(1, 1), padding=(1, 1))
  (relu3): ReLU()
  (flatten): Flatten(start_dim=1, end_dim=-1)
  (fc1): Linear(in_features=3136, out_features=3, bias=True)
  (relu4): ReLU()
  (fc2): Linear(in_features=3, out_features=1, bias=True)
  (sigmoid): Sigmoid()
)","[0, 2]",conv3,0.9240000247955322
11,"PyTorchCNN(
  (conv1): Conv2d(1, 16, kernel_size=(3, 3), stride=(1, 1), padding=(1, 1))
  (relu1): ReLU()
  (pool1): MaxPool2d(kernel_size=2, stride=2, padding=0, dilation=1, ceil_mode=False)
  (conv2): Conv2d(16, 32, kernel_size=(3, 3), stride=(1, 1), padding=(1, 1))
  (relu2): ReLU()
  (pool2): MaxPool2d(kernel_size=2, stride=2, padding=0, dilation=1, ceil_mode=False)
  (conv3): Conv2d(32, 64, kernel_size=(3, 3), stride=(1, 1), padding=(1, 1))
  (relu3): ReLU()
  (flatten): Flatten(start_dim=1, end_dim=-1)
  (fc1): Linear(in_features=3136, out_features=3, bias=True)
  (relu4): ReLU()
  (fc2): Linear(in_features=3, out_features=1, bias=True)
  (sigmoid): Sigmoid()
)","[0, 2]",fc1,0.8149999976158142
12,"PyTorchCNN(
  (conv1): Conv2d(1, 16, kernel_size=(3, 3), stride=(1, 1), padding=(1, 1))
  (relu1): ReLU()
  (pool1): MaxPool2d(kernel_size=2, stride=2, padding=0, dilation=1, ceil_mode=False)
  (conv2): Conv2d(16, 32, kernel_size=(3, 3), stride=(1, 1), padding=(1, 1))
  (relu2): ReLU()
  (pool2): MaxPool2d(kernel_size=2, stride=2, padding=0, dilation=1, ceil_mode=False)
  (conv3): Conv2d(32, 64, kernel_size=(3, 3), stride=(1, 1), padding=(1, 1))
  (relu3): ReLU()
  (flatten): Flatten(start_dim=1, end_dim=-1)
  (fc1): Linear(in_features=3136, out_features=3, bias=True)
  (relu4): ReLU()
  (fc2): Linear(in_features=3, out_features=1, bias=True)
  (sigmoid): Sigmoid()
)","[1, 2]",conv1,0.9110000133514404
13,"PyTorchCNN(
  (conv1): Conv2d(1, 16, kernel_size=(3, 3), stride=(1, 1), padding=(1, 1))
  (relu1): ReLU()
  (pool1): MaxPool2d(kernel_size=2, stride=2, padding=0, dilation=1, ceil_mode=False)
  (conv2): Conv2d(16, 32, kernel_size=(3, 3), stride=(1, 1), padding=(1, 1))
  (relu2): ReLU()
  (pool2): MaxPool2d(kernel_size=2, stride=2, padding=0, dilation=1, ceil_mode=False)
  (conv3): Conv2d(32, 64, kernel_size=(3, 3), stride=(1, 1), padding=(1, 1))
  (relu3): ReLU()
  (flatten): Flatten(start_dim=1, end_dim=-1)
  (fc1): Linear(in_features=3136, out_features=3, bias=True)
  (relu4): ReLU()
  (fc2): Linear(in_features=3, out_features=1, bias=True)
  (sigmoid): Sigmoid()
)","[1, 2]",conv2,0.8980000019073486
14,"PyTorchCNN(
  (conv1): Conv2d(1, 16, kernel_size=(3, 3), stride=(1, 1), padding=(1, 1))
  (relu1): ReLU()
  (pool1): MaxPool2d(kernel_size=2, stride=2, padding=0, dilation=1, ceil_mode=False)
  (conv2): Conv2d(16, 32, kernel_size=(3, 3), stride=(1, 1), padding=(1, 1))
  (relu2): ReLU()
  (pool2): MaxPool2d(kernel_size=2, stride=2, padding=0, dilation=1, ceil_mode=False)
  (conv3): Conv2d(32, 64, kernel_size=(3, 3), stride=(1, 1), padding=(1, 1))
  (relu3): ReLU()
  (flatten): Flatten(start_dim=1, end_dim=-1)
  (fc1): Linear(in_features=3136, out_features=3, bias=True)
  (relu4): ReLU()
  (fc2): Linear(in_features=3, out_features=1, bias=True)
  (sigmoid): Sigmoid()
)","[1, 2]",conv3,0.8790000081062317
15,"PyTorchCNN(
  (conv1): Conv2d(1, 16, kernel_size=(3, 3), stride=(1, 1), padding=(1, 1))
  (relu1): ReLU()
  (pool1): MaxPool2d(kernel_size=2, stride=2, padding=0, dilation=1, ceil_mode=False)
  (conv2): Conv2d(16, 32, kernel_size=(3, 3), stride=(1, 1), padding=(1, 1))
  (relu2): ReLU()
  (pool2): MaxPool2d(kernel_size=2, stride=2, padding=0, dilation=1, ceil_mode=False)
  (conv3): Conv2d(32, 64, kernel_size=(3, 3), stride=(1, 1), padding=(1, 1))
  (relu3): ReLU()
  (flatten): Flatten(start_dim=1, end_dim=-1)
  (fc1): Linear(in_features=3136, out_features=3, bias=True)
  (relu4): ReLU()
  (fc2): Linear(in_features=3, out_features=1, bias=True)
  (sigmoid): Sigmoid()
)","[1, 2]",fc1,0.6589999794960022
16,"PyTorchCNN(
  (conv1): Conv2d(1, 16, kernel_size=(3, 3), stride=(1, 1), padding=(1, 1))
  (relu1): ReLU()
  (pool1): MaxPool2d(kernel_size=2, stride=2, padding=0, dilation=1, ceil_mode=False)
  (conv2): Conv2d(16, 32, kernel_size=(3, 3), stride=(1, 1), padding=(1, 1))
  (relu2): ReLU()
  (pool2): MaxPool2d(kernel_size=2, stride=2, padding=0, dilation=1, ceil_mode=False)
  (conv3): Conv2d(32, 64, kernel_size=(3, 3), stride=(1, 1), padding=(1, 1))
  (relu3): ReLU()
  (flatten): Flatten(start_dim=1, end_dim=-1)
  (fc1): Linear(in_features=3136, out_features=3, bias=True)
  (relu4): ReLU()
  (fc2): Linear(in_features=3, out_features=1, bias=True)
  (sigmoid): Sigmoid()
)",[0],conv1,0.921999990940094
17,"PyTorchCNN(
  (conv1): Conv2d(1, 16, kernel_size=(3, 3), stride=(1, 1), padding=(1, 1))
  (relu1): ReLU()
  (pool1): MaxPool2d(kernel_size=2, stride=2, padding=0, dilation=1, ceil_mode=False)
  (conv2): Conv2d(16, 32, kernel_size=(3, 3), stride=(1, 1), padding=(1, 1))
  (relu2): ReLU()
  (pool2): MaxPool2d(kernel_size=2, stride=2, padding=0, dilation=1, ceil_mode=False)
  (conv3): Conv2d(32, 64, kernel_size=(3, 3), stride=(1, 1), padding=(1, 1))
  (relu3): ReLU()
  (flatten): Flatten(start_dim=1, end_dim=-1)
  (fc1): Linear(in_features=3136, out_features=3, bias=True)
  (relu4): ReLU()
  (fc2): Linear(in_features=3, out_features=1, bias=True)
  (sigmoid): Sigmoid()
)",[0],conv2,0.9100000262260437
18,"PyTorchCNN(
  (conv1): Conv2d(1, 16, kernel_size=(3, 3), stride=(1, 1), padding=(1, 1))
  (relu1): ReLU()
  (pool1): MaxPool2d(kernel_size=2, stride=2, padding=0, dilation=1, ceil_mode=False)
  (conv2): Conv2d(16, 32, kernel_size=(3, 3), stride=(1, 1), padding=(1, 1))
  (relu2): ReLU()
  (pool2): MaxPool2d(kernel_size=2, stride=2, padding=0, dilation=1, ceil_mode=False)
  (conv3): Conv2d(32, 64, kernel_size=(3, 3), stride=(1, 1), padding=(1, 1))
  (relu3): ReLU()
  (flatten): Flatten(start_dim=1, end_dim=-1)
  (fc1): Linear(in_features=3136, out_features=3, bias=True)
  (relu4): ReLU()
  (fc2): Linear(in_features=3, out_features=1, bias=True)
  (sigmoid): Sigmoid()
)",[0],conv3,0.8790000081062317
19,"PyTorchCNN(
  (conv1): Conv2d(1, 16, kernel_size=(3, 3), stride=(1, 1), padding=(1, 1))
  (relu1): ReLU()
  (pool1): MaxPool2d(kernel_size=2, stride=2, padding=0, dilation=1, ceil_mode=False)
  (conv2): Conv2d(16, 32, kernel_size=(3, 3), stride=(1, 1), padding=(1, 1))
  (relu2): ReLU()
  (pool2): MaxPool2d(kernel_size=2, stride=2, padding=0, dilation=1, ceil_mode=False)
  (conv3): Conv2d(32, 64, kernel_size=(3, 3), stride=(1, 1), padding=(1, 1))
  (relu3): ReLU()
  (flatten): Flatten(start_dim=1, end_dim=-1)
  (fc1): Linear(in_features=3136, out_features=3, bias=True)
  (relu4): ReLU()
  (fc2): Linear(in_features=3, out_features=1, bias=True)
  (sigmoid): Sigmoid()
)",[0],fc1,0.7409999966621399
20,"PyTorchCNN(
  (conv1): Conv2d(1, 16, kernel_size=(3, 3), stride=(1, 1), padding=(1, 1))
  (relu1): ReLU()
  (pool1): MaxPool2d(kernel_size=2, stride=2, padding=0, dilation=1, ceil_mode=False)
  (conv2): Conv2d(16, 32, kernel_size=(3, 3), stride=(1, 1), padding=(1, 1))
  (relu2): ReLU()
  (pool2): MaxPool2d(kernel_size=2, stride=2, padding=0, dilation=1, ceil_mode=False)
  (conv3): Conv2d(32, 64, kernel_size=(3, 3), stride=(1, 1), padding=(1, 1))
  (relu3): ReLU()
  (flatten): Flatten(start_dim=1, end_dim=-1)
  (fc1): Linear(in_features=3136, out_features=3, bias=True)
  (relu4): ReLU()
  (fc2): Linear(in_features=3, out_features=1, bias=True)
  (sigmoid): Sigmoid()
)",[1],conv1,0.953000009059906
21,"PyTorchCNN(
  (conv1): Conv2d(1, 16, kernel_size=(3, 3), stride=(1, 1), padding=(1, 1))
  (relu1): ReLU()
  (pool1): MaxPool2d(kernel_size=2, stride=2, padding=0, dilation=1, ceil_mode=False)
  (conv2): Conv2d(16, 32, kernel_size=(3, 3), stride=(1, 1), padding=(1, 1))
  (relu2): ReLU()
  (pool2): MaxPool2d(kernel_size=2, stride=2, padding=0, dilation=1, ceil_mode=False)
  (conv3): Conv2d(32, 64, kernel_size=(3, 3), stride=(1, 1), padding=(1, 1))
  (relu3): ReLU()
  (flatten): Flatten(start_dim=1, end_dim=-1)
  (fc1): Linear(in_features=3136, out_features=3, bias=True)
  (relu4): ReLU()
  (fc2): Linear(in_features=3, out_features=1, bias=True)
  (sigmoid): Sigmoid()
)",[1],conv2,0.968999981880188
22,"PyTorchCNN(
  (conv1): Conv2d(1, 16, kernel_size=(3, 3), stride=(1, 1), padding=(1, 1))
  (relu1): ReLU()
  (pool1): MaxPool2d(kernel_size=2, stride=2, padding=0, dilation=1, ceil_mode=False)
  (conv2): Conv2d(16, 32, kernel_size=(3, 3), stride=(1, 1), padding=(1, 1))
  (relu2): ReLU()
  (pool2): MaxPool2d(kernel_size=2, stride=2, padding=0, dilation=1, ceil_mode=False)
  (conv3): Conv2d(32, 64, kernel_size=(3, 3), stride=(1, 1), padding=(1, 1))
  (relu3): ReLU()
  (flatten): Flatten(start_dim=1, end_dim=-1)
  (fc1): Linear(in_features=3136, out_features=3, bias=True)
  (relu4): ReLU()
  (fc2): Linear(in_features=3, out_features=1, bias=True)
  (sigmoid): Sigmoid()
)",[1],conv3,0.9380000233650208
23,"PyTorchCNN(
  (conv1): Conv2d(1, 16, kernel_size=(3, 3), stride=(1, 1), padding=(1, 1))
  (relu1): ReLU()
  (pool1): MaxPool2d(kernel_size=2, stride=2, padding=0, dilation=1, ceil_mode=False)
  (conv2): Conv2d(16, 32, kernel_size=(3, 3), stride=(1, 1), padding=(1, 1))
  (relu2): ReLU()
  (pool2): MaxPool2d(kernel_size=2, stride=2, padding=0, dilation=1, ceil_mode=False)
  (conv3): Conv2d(32, 64, kernel_size=(3, 3), stride=(1, 1), padding=(1, 1))
  (relu3): ReLU()
  (flatten): Flatten(start_dim=1, end_dim=-1)
  (fc1): Linear(in_features=3136, out_features=3, bias=True)
  (relu4): ReLU()
  (fc2): Linear(in_features=3, out_features=1, bias=True)
  (sigmoid): Sigmoid()
)",[1],fc1,0.7940000295639038
24,"PyTorchCNN(
  (conv1): Conv2d(1, 16, kernel_size=(3, 3), stride=(1, 1), padding=(1, 1))
  (relu1): ReLU()
  (pool1): MaxPool2d(kernel_size=2, stride=2, padding=0, dilation=1, ceil_mode=False)
  (conv2): Conv2d(16, 32, kernel_size=(3, 3), stride=(1, 1), padding=(1, 1))
  (relu2): ReLU()
  (pool2): MaxPool2d(kernel_size=2, stride=2, padding=0, dilation=1, ceil_mode=False)
  (conv3): Conv2d(32, 64, kernel_size=(3, 3), stride=(1, 1), padding=(1, 1))
  (relu3): ReLU()
  (flatten): Flatten(start_dim=1, end_dim=-1)
  (fc1): Linear(in_features=3136, out_features=3, bias=True)
  (relu4): ReLU()
  (fc2): Linear(in_features=3, out_features=1, bias=True)
  (sigmoid): Sigmoid()
)",[2],conv1,0.9290000200271606
25,"PyTorchCNN(
  (conv1): Conv2d(1, 16, kernel_size=(3, 3), stride=(1, 1), padding=(1, 1))
  (relu1): ReLU()
  (pool1): MaxPool2d(kernel_size=2, stride=2, padding=0, dilation=1, ceil_mode=False)
  (conv2): Conv2d(16, 32, kernel_size=(3, 3), stride=(1, 1), padding=(1, 1))
  (relu2): ReLU()
  (pool2): MaxPool2d(kernel_size=2, stride=2, padding=0, dilation=1, ceil_mode=False)
  (conv3): Conv2d(32, 64, kernel_size=(3, 3), stride=(1, 1), padding=(1, 1))
  (relu3): ReLU()
  (flatten): Flatten(start_dim=1, end_dim=-1)
  (fc1): Linear(in_features=3136, out_features=3, bias=True)
  (relu4): ReLU()
  (fc2): Linear(in_features=3, out_features=1, bias=True)
  (sigmoid): Sigmoid()
)",[2],conv2,0.9269999861717224
26,"PyTorchCNN(
  (conv1): Conv2d(1, 16, kernel_size=(3, 3), stride=(1, 1), padding=(1, 1))
  (relu1): ReLU()
  (pool1): MaxPool2d(kernel_size=2, stride=2, padding=0, dilation=1, ceil_mode=False)
  (conv2): Conv2d(16, 32, kernel_size=(3, 3), stride=(1, 1), padding=(1, 1))
  (relu2): ReLU()
  (pool2): MaxPool2d(kernel_size=2, stride=2, padding=0, dilation=1, ceil_mode=False)
  (conv3): Conv2d(32, 64, kernel_size=(3, 3), stride=(1, 1), padding=(1, 1))
  (relu3): ReLU()
  (flatten): Flatten(start_dim=1, end_dim=-1)
  (fc1): Linear(in_features=3136, out_features=3, bias=True)
  (relu4): ReLU()
  (fc2): Linear(in_features=3, out_features=1, bias=True)
  (sigmoid): Sigmoid()
)",[2],conv3,0.8659999966621399
27,"PyTorchCNN(
  (conv1): Conv2d(1, 16, kernel_size=(3, 3), stride=(1, 1), padding=(1, 1))
  (relu1): ReLU()
  (pool1): MaxPool2d(kernel_size=2, stride=2, padding=0, dilation=1, ceil_mode=False)
  (conv2): Conv2d(16, 32, kernel_size=(3, 3), stride=(1, 1), padding=(1, 1))
  (relu2): ReLU()
  (pool2): MaxPool2d(kernel_size=2, stride=2, padding=0, dilation=1, ceil_mode=False)
  (conv3): Conv2d(32, 64, kernel_size=(3, 3), stride=(1, 1), padding=(1, 1))
  (relu3): ReLU()
  (flatten): Flatten(start_dim=1, end_dim=-1)
  (fc1): Linear(in_features=3136, out_features=3, bias=True)
  (relu4): ReLU()
  (fc2): Linear(in_features=3, out_features=1, bias=True)
  (sigmoid): Sigmoid()
)",[2],fc1,0.7120000123977661
28,"PyTorchCNN(
  (conv1): Conv2d(1, 16, kernel_size=(3, 3), stride=(1, 1), padding=(1, 1))
  (relu1): ReLU()
  (pool1): MaxPool2d(kernel_size=2, stride=2, padding=0, dilation=1, ceil_mode=False)
  (conv2): Conv2d(16, 32, kernel_size=(3, 3), stride=(1, 1), padding=(1, 1))
  (relu2): ReLU()
  (pool2): MaxPool2d(kernel_size=2, stride=2, padding=0, dilation=1, ceil_mode=False)
  (conv3): Conv2d(32, 64, kernel_size=(3, 3), stride=(1, 1), padding=(1, 1))
  (relu3): ReLU()
  (flatten): Flatten(start_dim=1, end_dim=-1)
  (fc1): Linear(in_features=3136, out_features=3, bias=True)
  (relu4): ReLU()
  (fc2): Linear(in_features=3, out_features=1, bias=True)
  (sigmoid): Sigmoid()
)","[0, 1, 2]",conv1,0.9390000104904175
29,"PyTorchCNN(
  (conv1): Conv2d(1, 16, kernel_size=(3, 3), stride=(1, 1), padding=(1, 1))
  (relu1): ReLU()
  (pool1): MaxPool2d(kernel_size=2, stride=2, padding=0, dilation=1, ceil_mode=False)
  (conv2): Conv2d(16, 32, kernel_size=(3, 3), stride=(1, 1), padding=(1, 1))
  (relu2): ReLU()
  (pool2): MaxPool2d(kernel_size=2, stride=2, padding=0, dilation=1, ceil_mode=False)
  (conv3): Conv2d(32, 64, kernel_size=(3, 3), stride=(1, 1), padding=(1, 1))
  (relu3): ReLU()
  (flatten): Flatten(start_dim=1, end_dim=-1)
  (fc1): Linear(in_features=3136, out_features=3, bias=True)
  (relu4): ReLU()
  (fc2): Linear(in_features=3, out_features=1, bias=True)
  (sigmoid): Sigmoid()
)","[0, 1, 2]",conv2,0.9440000057220459
30,"PyTorchCNN(
  (conv1): Conv2d(1, 16, kernel_size=(3, 3), stride=(1, 1), padding=(1, 1))
  (relu1): ReLU()
  (pool1): MaxPool2d(kernel_size=2, stride=2, padding=0, dilation=1, ceil_mode=False)
  (conv2): Conv2d(16, 32, kernel_size=(3, 3), stride=(1, 1), padding=(1, 1))
  (relu2): ReLU()
  (pool2): MaxPool2d(kernel_size=2, stride=2, padding=0, dilation=1, ceil_mode=False)
  (conv3): Conv2d(32, 64, kernel_size=(3, 3), stride=(1, 1), padding=(1, 1))
  (relu3): ReLU()
  (flatten): Flatten(start_dim=1, end_dim=-1)
  (fc1): Linear(in_features=3136, out_features=3, bias=True)
  (relu4): ReLU()
  (fc2): Linear(in_features=3, out_features=1, bias=True)
  (sigmoid): Sigmoid()
)","[0, 1, 2]",conv3,0.9559999704360962
31,"PyTorchCNN(
  (conv1): Conv2d(1, 16, kernel_size=(3, 3), stride=(1, 1), padding=(1, 1))
  (relu1): ReLU()
  (pool1): MaxPool2d(kernel_size=2, stride=2, padding=0, dilation=1, ceil_mode=False)
  (conv2): Conv2d(16, 32, kernel_size=(3, 3), stride=(1, 1), padding=(1, 1))
  (relu2): ReLU()
  (pool2): MaxPool2d(kernel_size=2, stride=2, padding=0, dilation=1, ceil_mode=False)
  (conv3): Conv2d(32, 64, kernel_size=(3, 3), stride=(1, 1), padding=(1, 1))
  (relu3): ReLU()
  (flatten): Flatten(start_dim=1, end_dim=-1)
  (fc1): Linear(in_features=3136, out_features=3, bias=True)
  (relu4): ReLU()
  (fc2): Linear(in_features=3, out_features=1, bias=True)
  (sigmoid): Sigmoid()
)","[0, 1, 2]",fc1,0.48399999737739563
32,"PyTorchCNN(
  (conv1): Conv2d(1, 16, kernel_size=(3, 3), stride=(1, 1), padding=(1, 1))
  (relu1): ReLU()
  (pool1): MaxPool2d(kernel_size=2, stride=2, padding=0, dilation=1, ceil_mode=False)
  (conv2): Conv2d(16, 32, kernel_size=(3, 3), stride=(1, 1), padding=(1, 1))
  (relu2): ReLU()
  (pool2): MaxPool2d(kernel_size=2, stride=2, padding=0, dilation=1, ceil_mode=False)
  (conv3): Conv2d(32, 64, kernel_size=(3, 3), stride=(1, 1), padding=(1, 1))
  (relu3): ReLU()
  (flatten): Flatten(start_dim=1, end_dim=-1)
  (fc1): Linear(in_features=3136, out_features=3, bias=True)
  (relu4): ReLU()
  (fc2): Linear(in_features=3, out_features=1, bias=True)
  (sigmoid): Sigmoid()
)","[0, 1]",conv1,0.9079999923706055
33,"PyTorchCNN(
  (conv1): Conv2d(1, 16, kernel_size=(3, 3), stride=(1, 1), padding=(1, 1))
  (relu1): ReLU()
  (pool1): MaxPool2d(kernel_size=2, stride=2, padding=0, dilation=1, ceil_mode=False)
  (conv2): Conv2d(16, 32, kernel_size=(3, 3), stride=(1, 1), padding=(1, 1))
  (relu2): ReLU()
  (pool2): MaxPool2d(kernel_size=2, stride=2, padding=0, dilation=1, ceil_mode=False)
  (conv3): Conv2d(32, 64, kernel_size=(3, 3), stride=(1, 1), padding=(1, 1))
  (relu3): ReLU()
  (flatten): Flatten(start_dim=1, end_dim=-1)
  (fc1): Linear(in_features=3136, out_features=3, bias=True)
  (relu4): ReLU()
  (fc2): Linear(in_features=3, out_features=1, bias=True)
  (sigmoid): Sigmoid()
)","[0, 1]",conv2,0.9369999766349792
34,"PyTorchCNN(
  (conv1): Conv2d(1, 16, kernel_size=(3, 3), stride=(1, 1), padding=(1, 1))
  (relu1): ReLU()
  (pool1): MaxPool2d(kernel_size=2, stride=2, padding=0, dilation=1, ceil_mode=False)
  (conv2): Conv2d(16, 32, kernel_size=(3, 3), stride=(1, 1), padding=(1, 1))
  (relu2): ReLU()
  (pool2): MaxPool2d(kernel_size=2, stride=2, padding=0, dilation=1, ceil_mode=False)
  (conv3): Conv2d(32, 64, kernel_size=(3, 3), stride=(1, 1), padding=(1, 1))
  (relu3): ReLU()
  (flatten): Flatten(start_dim=1, end_dim=-1)
  (fc1): Linear(in_features=3136, out_features=3, bias=True)
  (relu4): ReLU()
  (fc2): Linear(in_features=3, out_features=1, bias=True)
  (sigmoid): Sigmoid()
)","[0, 1]",conv3,0.890999972820282
35,"PyTorchCNN(
  (conv1): Conv2d(1, 16, kernel_size=(3, 3), stride=(1, 1), padding=(1, 1))
  (relu1): ReLU()
  (pool1): MaxPool2d(kernel_size=2, stride=2, padding=0, dilation=1, ceil_mode=False)
  (conv2): Conv2d(16, 32, kernel_size=(3, 3), stride=(1, 1), padding=(1, 1))
  (relu2): ReLU()
  (pool2): MaxPool2d(kernel_size=2, stride=2, padding=0, dilation=1, ceil_mode=False)
  (conv3): Conv2d(32, 64, kernel_size=(3, 3), stride=(1, 1), padding=(1, 1))
  (relu3): ReLU()
  (flatten): Flatten(start_dim=1, end_dim=-1)
  (fc1): Linear(in_features=3136, out_features=3, bias=True)
  (relu4): ReLU()
  (fc2): Linear(in_features=3, out_features=1, bias=True)
  (sigmoid): Sigmoid()
)","[0, 1]",fc1,0.6899999976158142
36,"PyTorchCNN(
  (conv1): Conv2d(1, 16, kernel_size=(3, 3), stride=(1, 1), padding=(1, 1))
  (relu1): ReLU()
  (pool1): MaxPool2d(kernel_size=2, stride=2, padding=0, dilation=1, ceil_mode=False)
  (conv2): Conv2d(16, 32, kernel_size=(3, 3), stride=(1, 1), padding=(1, 1))
  (relu2): ReLU()
  (pool2): MaxPool2d(kernel_size=2, stride=2, padding=0, dilation=1, ceil_mode=False)
  (conv3): Conv2d(32, 64, kernel_size=(3, 3), stride=(1, 1), padding=(1, 1))
  (relu3): ReLU()
  (flatten): Flatten(start_dim=1, end_dim=-1)
  (fc1): Linear(in_features=3136, out_features=3, bias=True)
  (relu4): ReLU()
  (fc2): Linear(in_features=3, out_features=1, bias=True)
  (sigmoid): Sigmoid()
)","[0, 2]",conv1,0.9319999814033508
37,"PyTorchCNN(
  (conv1): Conv2d(1, 16, kernel_size=(3, 3), stride=(1, 1), padding=(1, 1))
  (relu1): ReLU()
  (pool1): MaxPool2d(kernel_size=2, stride=2, padding=0, dilation=1, ceil_mode=False)
  (conv2): Conv2d(16, 32, kernel_size=(3, 3), stride=(1, 1), padding=(1, 1))
  (relu2): ReLU()
  (pool2): MaxPool2d(kernel_size=2, stride=2, padding=0, dilation=1, ceil_mode=False)
  (conv3): Conv2d(32, 64, kernel_size=(3, 3), stride=(1, 1), padding=(1, 1))
  (relu3): ReLU()
  (flatten): Flatten(start_dim=1, end_dim=-1)
  (fc1): Linear(in_features=3136, out_features=3, bias=True)
  (relu4): ReLU()
  (fc2): Linear(in_features=3, out_features=1, bias=True)
  (sigmoid): Sigmoid()
)","[0, 2]",conv2,0.9449999928474426
38,"PyTorchCNN(
  (conv1): Conv2d(1, 16, kernel_size=(3, 3), stride=(1, 1), padding=(1, 1))
  (relu1): ReLU()
  (pool1): MaxPool2d(kernel_size=2, stride=2, padding=0, dilation=1, ceil_mode=False)
  (conv2): Conv2d(16, 32, kernel_size=(3, 3), stride=(1, 1), padding=(1, 1))
  (relu2): ReLU()
  (pool2): MaxPool2d(kernel_size=2, stride=2, padding=0, dilation=1, ceil_mode=False)
  (conv3): Conv2d(32, 64, kernel_size=(3, 3), stride=(1, 1), padding=(1, 1))
  (relu3): ReLU()
  (flatten): Flatten(start_dim=1, end_dim=-1)
  (fc1): Linear(in_features=3136, out_features=3, bias=True)
  (relu4): ReLU()
  (fc2): Linear(in_features=3, out_features=1, bias=True)
  (sigmoid): Sigmoid()
)","[0, 2]",conv3,0.9300000071525574
39,"PyTorchCNN(
  (conv1): Conv2d(1, 16, kernel_size=(3, 3), stride=(1, 1), padding=(1, 1))
  (relu1): ReLU()
  (pool1): MaxPool2d(kernel_size=2, stride=2, padding=0, dilation=1, ceil_mode=False)
  (conv2): Conv2d(16, 32, kernel_size=(3, 3), stride=(1, 1), padding=(1, 1))
  (relu2): ReLU()
  (pool2): MaxPool2d(kernel_size=2, stride=2, padding=0, dilation=1, ceil_mode=False)
  (conv3): Conv2d(32, 64, kernel_size=(3, 3), stride=(1, 1), padding=(1, 1))
  (relu3): ReLU()
  (flatten): Flatten(start_dim=1, end_dim=-1)
  (fc1): Linear(in_features=3136, out_features=3, bias=True)
  (relu4): ReLU()
  (fc2): Linear(in_features=3, out_features=1, bias=True)
  (sigmoid): Sigmoid()
)","[0, 2]",fc1,0.7049999833106995
40,"PyTorchCNN(
  (conv1): Conv2d(1, 16, kernel_size=(3, 3), stride=(1, 1), padding=(1, 1))
  (relu1): ReLU()
  (pool1): MaxPool2d(kernel_size=2, stride=2, padding=0, dilation=1, ceil_mode=False)
  (conv2): Conv2d(16, 32, kernel_size=(3, 3), stride=(1, 1), padding=(1, 1))
  (relu2): ReLU()
  (pool2): MaxPool2d(kernel_size=2, stride=2, padding=0, dilation=1, ceil_mode=False)
  (conv3): Conv2d(32, 64, kernel_size=(3, 3), stride=(1, 1), padding=(1, 1))
  (relu3): ReLU()
  (flatten): Flatten(start_dim=1, end_dim=-1)
  (fc1): Linear(in_features=3136, out_features=3, bias=True)
  (relu4): ReLU()
  (fc2): Linear(in_features=3, out_features=1, bias=True)
  (sigmoid): Sigmoid()
)","[1, 2]",conv1,0.9169999957084656
41,"PyTorchCNN(
  (conv1): Conv2d(1, 16, kernel_size=(3, 3), stride=(1, 1), padding=(1, 1))
  (relu1): ReLU()
  (pool1): MaxPool2d(kernel_size=2, stride=2, padding=0, dilation=1, ceil_mode=False)
  (conv2): Conv2d(16, 32, kernel_size=(3, 3), stride=(1, 1), padding=(1, 1))
  (relu2): ReLU()
  (pool2): MaxPool2d(kernel_size=2, stride=2, padding=0, dilation=1, ceil_mode=False)
  (conv3): Conv2d(32, 64, kernel_size=(3, 3), stride=(1, 1), padding=(1, 1))
  (relu3): ReLU()
  (flatten): Flatten(start_dim=1, end_dim=-1)
  (fc1): Linear(in_features=3136, out_features=3, bias=True)
  (relu4): ReLU()
  (fc2): Linear(in_features=3, out_features=1, bias=True)
  (sigmoid): Sigmoid()
)","[1, 2]",conv2,0.9049999713897705
42,"PyTorchCNN(
  (conv1): Conv2d(1, 16, kernel_size=(3, 3), stride=(1, 1), padding=(1, 1))
  (relu1): ReLU()
  (pool1): MaxPool2d(kernel_size=2, stride=2, padding=0, dilation=1, ceil_mode=False)
  (conv2): Conv2d(16, 32, kernel_size=(3, 3), stride=(1, 1), padding=(1, 1))
  (relu2): ReLU()
  (pool2): MaxPool2d(kernel_size=2, stride=2, padding=0, dilation=1, ceil_mode=False)
  (conv3): Conv2d(32, 64, kernel_size=(3, 3), stride=(1, 1), padding=(1, 1))
  (relu3): ReLU()
  (flatten): Flatten(start_dim=1, end_dim=-1)
  (fc1): Linear(in_features=3136, out_features=3, bias=True)
  (relu4): ReLU()
  (fc2): Linear(in_features=3, out_features=1, bias=True)
  (sigmoid): Sigmoid()
)","[1, 2]",conv3,0.9039999842643738
43,"PyTorchCNN(
  (conv1): Conv2d(1, 16, kernel_size=(3, 3), stride=(1, 1), padding=(1, 1))
  (relu1): ReLU()
  (pool1): MaxPool2d(kernel_size=2, stride=2, padding=0, dilation=1, ceil_mode=False)
  (conv2): Conv2d(16, 32, kernel_size=(3, 3), stride=(1, 1), padding=(1, 1))
  (relu2): ReLU()
  (pool2): MaxPool2d(kernel_size=2, stride=2, padding=0, dilation=1, ceil_mode=False)
  (conv3): Conv2d(32, 64, kernel_size=(3, 3), stride=(1, 1), padding=(1, 1))
  (relu3): ReLU()
  (flatten): Flatten(start_dim=1, end_dim=-1)
  (fc1): Linear(in_features=3136, out_features=3, bias=True)
  (relu4): ReLU()
  (fc2): Linear(in_features=3, out_features=1, bias=True)
  (sigmoid): Sigmoid()
)","[1, 2]",fc1,0.5630000233650208
44,"PyTorchCNN(
  (conv1): Conv2d(1, 16, kernel_size=(3, 3), stride=(1, 1), padding=(1, 1))
  (relu1): ReLU()
  (pool1): MaxPool2d(kernel_size=2, stride=2, padding=0, dilation=1, ceil_mode=False)
  (conv2): Conv2d(16, 32, kernel_size=(3, 3), stride=(1, 1), padding=(1, 1))
  (relu2): ReLU()
  (pool2): MaxPool2d(kernel_size=2, stride=2, padding=0, dilation=1, ceil_mode=False)
  (conv3): Conv2d(32, 64, kernel_size=(3, 3), stride=(1, 1), padding=(1, 1))
  (relu3): ReLU()
  (flatten): Flatten(start_dim=1, end_dim=-1)
  (fc1): Linear(in_features=3136, out_features=3, bias=True)
  (relu4): ReLU()
  (fc2): Linear(in_features=3, out_features=1, bias=True)
  (sigmoid): Sigmoid()
)",[0],conv1,0.9129999876022339
45,"PyTorchCNN(
  (conv1): Conv2d(1, 16, kernel_size=(3, 3), stride=(1, 1), padding=(1, 1))
  (relu1): ReLU()
  (pool1): MaxPool2d(kernel_size=2, stride=2, padding=0, dilation=1, ceil_mode=False)
  (conv2): Conv2d(16, 32, kernel_size=(3, 3), stride=(1, 1), padding=(1, 1))
  (relu2): ReLU()
  (pool2): MaxPool2d(kernel_size=2, stride=2, padding=0, dilation=1, ceil_mode=False)
  (conv3): Conv2d(32, 64, kernel_size=(3, 3), stride=(1, 1), padding=(1, 1))
  (relu3): ReLU()
  (flatten): Flatten(start_dim=1, end_dim=-1)
  (fc1): Linear(in_features=3136, out_features=3, bias=True)
  (relu4): ReLU()
  (fc2): Linear(in_features=3, out_features=1, bias=True)
  (sigmoid): Sigmoid()
)",[0],conv2,0.9229999780654907
46,"PyTorchCNN(
  (conv1): Conv2d(1, 16, kernel_size=(3, 3), stride=(1, 1), padding=(1, 1))
  (relu1): ReLU()
  (pool1): MaxPool2d(kernel_size=2, stride=2, padding=0, dilation=1, ceil_mode=False)
  (conv2): Conv2d(16, 32, kernel_size=(3, 3), stride=(1, 1), padding=(1, 1))
  (relu2): ReLU()
  (pool2): MaxPool2d(kernel_size=2, stride=2, padding=0, dilation=1, ceil_mode=False)
  (conv3): Conv2d(32, 64, kernel_size=(3, 3), stride=(1, 1), padding=(1, 1))
  (relu3): ReLU()
  (flatten): Flatten(start_dim=1, end_dim=-1)
  (fc1): Linear(in_features=3136, out_features=3, bias=True)
  (relu4): ReLU()
  (fc2): Linear(in_features=3, out_features=1, bias=True)
  (sigmoid): Sigmoid()
)",[0],conv3,0.9200000166893005
47,"PyTorchCNN(
  (conv1): Conv2d(1, 16, kernel_size=(3, 3), stride=(1, 1), padding=(1, 1))
  (relu1): ReLU()
  (pool1): MaxPool2d(kernel_size=2, stride=2, padding=0, dilation=1, ceil_mode=False)
  (conv2): Conv2d(16, 32, kernel_size=(3, 3), stride=(1, 1), padding=(1, 1))
  (relu2): ReLU()
  (pool2): MaxPool2d(kernel_size=2, stride=2, padding=0, dilation=1, ceil_mode=False)
  (conv3): Conv2d(32, 64, kernel_size=(3, 3), stride=(1, 1), padding=(1, 1))
  (relu3): ReLU()
  (flatten): Flatten(start_dim=1, end_dim=-1)
  (fc1): Linear(in_features=3136, out_features=3, bias=True)
  (relu4): ReLU()
  (fc2): Linear(in_features=3, out_features=1, bias=True)
  (sigmoid): Sigmoid()
)",[0],fc1,0.6669999957084656
48,"PyTorchCNN(
  (conv1): Conv2d(1, 16, kernel_size=(3, 3), stride=(1, 1), padding=(1, 1))
  (relu1): ReLU()
  (pool1): MaxPool2d(kernel_size=2, stride=2, padding=0, dilation=1, ceil_mode=False)
  (conv2): Conv2d(16, 32, kernel_size=(3, 3), stride=(1, 1), padding=(1, 1))
  (relu2): ReLU()
  (pool2): MaxPool2d(kernel_size=2, stride=2, padding=0, dilation=1, ceil_mode=False)
  (conv3): Conv2d(32, 64, kernel_size=(3, 3), stride=(1, 1), padding=(1, 1))
  (relu3): ReLU()
  (flatten): Flatten(start_dim=1, end_dim=-1)
  (fc1): Linear(in_features=3136, out_features=3, bias=True)
  (relu4): ReLU()
  (fc2): Linear(in_features=3, out_features=1, bias=True)
  (sigmoid): Sigmoid()
)",[1],conv1,0.9580000042915344
49,"PyTorchCNN(
  (conv1): Conv2d(1, 16, kernel_size=(3, 3), stride=(1, 1), padding=(1, 1))
  (relu1): ReLU()
  (pool1): MaxPool2d(kernel_size=2, stride=2, padding=0, dilation=1, ceil_mode=False)
  (conv2): Conv2d(16, 32, kernel_size=(3, 3), stride=(1, 1), padding=(1, 1))
  (relu2): ReLU()
  (pool2): MaxPool2d(kernel_size=2, stride=2, padding=0, dilation=1, ceil_mode=False)
  (conv3): Conv2d(32, 64, kernel_size=(3, 3), stride=(1, 1), padding=(1, 1))
  (relu3): ReLU()
  (flatten): Flatten(start_dim=1, end_dim=-1)
  (fc1): Linear(in_features=3136, out_features=3, bias=True)
  (relu4): ReLU()
  (fc2): Linear(in_features=3, out_features=1, bias=True)
  (sigmoid): Sigmoid()
)",[1],conv2,0.972000002861023
50,"PyTorchCNN(
  (conv1): Conv2d(1, 16, kernel_size=(3, 3), stride=(1, 1), padding=(1, 1))
  (relu1): ReLU()
  (pool1): MaxPool2d(kernel_size=2, stride=2, padding=0, dilation=1, ceil_mode=False)
  (conv2): Conv2d(16, 32, kernel_size=(3, 3), stride=(1, 1), padding=(1, 1))
  (relu2): ReLU()
  (pool2): MaxPool2d(kernel_size=2, stride=2, padding=0, dilation=1, ceil_mode=False)
  (conv3): Conv2d(32, 64, kernel_size=(3, 3), stride=(1, 1), padding=(1, 1))
  (relu3): ReLU()
  (flatten): Flatten(start_dim=1, end_dim=-1)
  (fc1): Linear(in_features=3136, out_features=3, bias=True)
  (relu4): ReLU()
  (fc2): Linear(in_features=3, out_features=1, bias=True)
  (sigmoid): Sigmoid()
)",[1],conv3,0.949999988079071
51,"PyTorchCNN(
  (conv1): Conv2d(1, 16, kernel_size=(3, 3), stride=(1, 1), padding=(1, 1))
  (relu1): ReLU()
  (pool1): MaxPool2d(kernel_size=2, stride=2, padding=0, dilation=1, ceil_mode=False)
  (conv2): Conv2d(16, 32, kernel_size=(3, 3), stride=(1, 1), padding=(1, 1))
  (relu2): ReLU()
  (pool2): MaxPool2d(kernel_size=2, stride=2, padding=0, dilation=1, ceil_mode=False)
  (conv3): Conv2d(32, 64, kernel_size=(3, 3), stride=(1, 1), padding=(1, 1))
  (relu3): ReLU()
  (flatten): Flatten(start_dim=1, end_dim=-1)
  (fc1): Linear(in_features=3136, out_features=3, bias=True)
  (relu4): ReLU()
  (fc2): Linear(in_features=3, out_features=1, bias=True)
  (sigmoid): Sigmoid()
)",[1],fc1,0.7239999771118164
52,"PyTorchCNN(
  (conv1): Conv2d(1, 16, kernel_size=(3, 3), stride=(1, 1), padding=(1, 1))
  (relu1): ReLU()
  (pool1): MaxPool2d(kernel_size=2, stride=2, padding=0, dilation=1, ceil_mode=False)
  (conv2): Conv2d(16, 32, kernel_size=(3, 3), stride=(1, 1), padding=(1, 1))
  (relu2): ReLU()
  (pool2): MaxPool2d(kernel_size=2, stride=2, padding=0, dilation=1, ceil_mode=False)
  (conv3): Conv2d(32, 64, kernel_size=(3, 3), stride=(1, 1), padding=(1, 1))
  (relu3): ReLU()
  (flatten): Flatten(start_dim=1, end_dim=-1)
  (fc1): Linear(in_features=3136, out_features=3, bias=True)
  (relu4): ReLU()
  (fc2): Linear(in_features=3, out_features=1, bias=True)
  (sigmoid): Sigmoid()
)",[2],conv1,0.9229999780654907
53,"PyTorchCNN(
  (conv1): Conv2d(1, 16, kernel_size=(3, 3), stride=(1, 1), padding=(1, 1))
  (relu1): ReLU()
  (pool1): MaxPool2d(kernel_size=2, stride=2, padding=0, dilation=1, ceil_mode=False)
  (conv2): Conv2d(16, 32, kernel_size=(3, 3), stride=(1, 1), padding=(1, 1))
  (relu2): ReLU()
  (pool2): MaxPool2d(kernel_size=2, stride=2, padding=0, dilation=1, ceil_mode=False)
  (conv3): Conv2d(32, 64, kernel_size=(3, 3), stride=(1, 1), padding=(1, 1))
  (relu3): ReLU()
  (flatten): Flatten(start_dim=1, end_dim=-1)
  (fc1): Linear(in_features=3136, out_features=3, bias=True)
  (relu4): ReLU()
  (fc2): Linear(in_features=3, out_features=1, bias=True)
  (sigmoid): Sigmoid()
)",[2],conv2,0.9240000247955322
54,"PyTorchCNN(
  (conv1): Conv2d(1, 16, kernel_size=(3, 3), stride=(1, 1), padding=(1, 1))
  (relu1): ReLU()
  (pool1): MaxPool2d(kernel_size=2, stride=2, padding=0, dilation=1, ceil_mode=False)
  (conv2): Conv2d(16, 32, kernel_size=(3, 3), stride=(1, 1), padding=(1, 1))
  (relu2): ReLU()
  (pool2): MaxPool2d(kernel_size=2, stride=2, padding=0, dilation=1, ceil_mode=False)
  (conv3): Conv2d(32, 64, kernel_size=(3, 3), stride=(1, 1), padding=(1, 1))
  (relu3): ReLU()
  (flatten): Flatten(start_dim=1, end_dim=-1)
  (fc1): Linear(in_features=3136, out_features=3, bias=True)
  (relu4): ReLU()
  (fc2): Linear(in_features=3, out_features=1, bias=True)
  (sigmoid): Sigmoid()
)",[2],conv3,0.8889999985694885
55,"PyTorchCNN(
  (conv1): Conv2d(1, 16, kernel_size=(3, 3), stride=(1, 1), padding=(1, 1))
  (relu1): ReLU()
  (pool1): MaxPool2d(kernel_size=2, stride=2, padding=0, dilation=1, ceil_mode=False)
  (conv2): Conv2d(16, 32, kernel_size=(3, 3), stride=(1, 1), padding=(1, 1))
  (relu2): ReLU()
  (pool2): MaxPool2d(kernel_size=2, stride=2, padding=0, dilation=1, ceil_mode=False)
  (conv3): Conv2d(32, 64, kernel_size=(3, 3), stride=(1, 1), padding=(1, 1))
  (relu3): ReLU()
  (flatten): Flatten(start_dim=1, end_dim=-1)
  (fc1): Linear(in_features=3136, out_features=3, bias=True)
  (relu4): ReLU()
  (fc2): Linear(in_features=3, out_features=1, bias=True)
  (sigmoid): Sigmoid()
)",[2],fc1,0.6499999761581421
56,"PyTorchCNN(
  (conv1): Conv2d(1, 16, kernel_size=(3, 3), stride=(1, 1), padding=(1, 1))
  (relu1): ReLU()
  (pool1): MaxPool2d(kernel_size=2, stride=2, padding=0, dilation=1, ceil_mode=False)
  (conv2): Conv2d(16, 32, kernel_size=(3, 3), stride=(1, 1), padding=(1, 1))
  (relu2): ReLU()
  (pool2): MaxPool2d(kernel_size=2, stride=2, padding=0, dilation=1, ceil_mode=False)
  (conv3): Conv2d(32, 64, kernel_size=(3, 3), stride=(1, 1), padding=(1, 1))
  (relu3): ReLU()
  (flatten): Flatten(start_dim=1, end_dim=-1)
  (fc1): Linear(in_features=3136, out_features=3, bias=True)
  (relu4): ReLU()
  (fc2): Linear(in_features=3, out_features=1, bias=True)
  (sigmoid): Sigmoid()
)","[0, 1, 2]",conv1,0.9399999976158142
57,"PyTorchCNN(
  (conv1): Conv2d(1, 16, kernel_size=(3, 3), stride=(1, 1), padding=(1, 1))
  (relu1): ReLU()
  (pool1): MaxPool2d(kernel_size=2, stride=2, padding=0, dilation=1, ceil_mode=False)
  (conv2): Conv2d(16, 32, kernel_size=(3, 3), stride=(1, 1), padding=(1, 1))
  (relu2): ReLU()
  (pool2): MaxPool2d(kernel_size=2, stride=2, padding=0, dilation=1, ceil_mode=False)
  (conv3): Conv2d(32, 64, kernel_size=(3, 3), stride=(1, 1), padding=(1, 1))
  (relu3): ReLU()
  (flatten): Flatten(start_dim=1, end_dim=-1)
  (fc1): Linear(in_features=3136, out_features=3, bias=True)
  (relu4): ReLU()
  (fc2): Linear(in_features=3, out_features=1, bias=True)
  (sigmoid): Sigmoid()
)","[0, 1, 2]",conv2,0.9390000104904175
58,"PyTorchCNN(
  (conv1): Conv2d(1, 16, kernel_size=(3, 3), stride=(1, 1), padding=(1, 1))
  (relu1): ReLU()
  (pool1): MaxPool2d(kernel_size=2, stride=2, padding=0, dilation=1, ceil_mode=False)
  (conv2): Conv2d(16, 32, kernel_size=(3, 3), stride=(1, 1), padding=(1, 1))
  (relu2): ReLU()
  (pool2): MaxPool2d(kernel_size=2, stride=2, padding=0, dilation=1, ceil_mode=False)
  (conv3): Conv2d(32, 64, kernel_size=(3, 3), stride=(1, 1), padding=(1, 1))
  (relu3): ReLU()
  (flatten): Flatten(start_dim=1, end_dim=-1)
  (fc1): Linear(in_features=3136, out_features=3, bias=True)
  (relu4): ReLU()
  (fc2): Linear(in_features=3, out_features=1, bias=True)
  (sigmoid): Sigmoid()
)","[0, 1, 2]",conv3,0.9449999928474426
59,"PyTorchCNN(
  (conv1): Conv2d(1, 16, kernel_size=(3, 3), stride=(1, 1), padding=(1, 1))
  (relu1): ReLU()
  (pool1): MaxPool2d(kernel_size=2, stride=2, padding=0, dilation=1, ceil_mode=False)
  (conv2): Conv2d(16, 32, kernel_size=(3, 3), stride=(1, 1), padding=(1, 1))
  (relu2): ReLU()
  (pool2): MaxPool2d(kernel_size=2, stride=2, padding=0, dilation=1, ceil_mode=False)
  (conv3): Conv2d(32, 64, kernel_size=(3, 3), stride=(1, 1), padding=(1, 1))
  (relu3): ReLU()
  (flatten): Flatten(start_dim=1, end_dim=-1)
  (fc1): Linear(in_features=3136, out_features=3, bias=True)
  (relu4): ReLU()
  (fc2): Linear(in_features=3, out_features=1, bias=True)
  (sigmoid): Sigmoid()
)","[0, 1, 2]",fc1,0.7379999756813049
60,"PyTorchCNN(
  (conv1): Conv2d(1, 16, kernel_size=(3, 3), stride=(1, 1), padding=(1, 1))
  (relu1): ReLU()
  (pool1): MaxPool2d(kernel_size=2, stride=2, padding=0, dilation=1, ceil_mode=False)
  (conv2): Conv2d(16, 32, kernel_size=(3, 3), stride=(1, 1), padding=(1, 1))
  (relu2): ReLU()
  (pool2): MaxPool2d(kernel_size=2, stride=2, padding=0, dilation=1, ceil_mode=False)
  (conv3): Conv2d(32, 64, kernel_size=(3, 3), stride=(1, 1), padding=(1, 1))
  (relu3): ReLU()
  (flatten): Flatten(start_dim=1, end_dim=-1)
  (fc1): Linear(in_features=3136, out_features=3, bias=True)
  (relu4): ReLU()
  (fc2): Linear(in_features=3, out_features=1, bias=True)
  (sigmoid): Sigmoid()
)","[0, 1]",conv1,0.9129999876022339
61,"PyTorchCNN(
  (conv1): Conv2d(1, 16, kernel_size=(3, 3), stride=(1, 1), padding=(1, 1))
  (relu1): ReLU()
  (pool1): MaxPool2d(kernel_size=2, stride=2, padding=0, dilation=1, ceil_mode=False)
  (conv2): Conv2d(16, 32, kernel_size=(3, 3), stride=(1, 1), padding=(1, 1))
  (relu2): ReLU()
  (pool2): MaxPool2d(kernel_size=2, stride=2, padding=0, dilation=1, ceil_mode=False)
  (conv3): Conv2d(32, 64, kernel_size=(3, 3), stride=(1, 1), padding=(1, 1))
  (relu3): ReLU()
  (flatten): Flatten(start_dim=1, end_dim=-1)
  (fc1): Linear(in_features=3136, out_features=3, bias=True)
  (relu4): ReLU()
  (fc2): Linear(in_features=3, out_features=1, bias=True)
  (sigmoid): Sigmoid()
)","[0, 1]",conv2,0.9190000295639038
62,"PyTorchCNN(
  (conv1): Conv2d(1, 16, kernel_size=(3, 3), stride=(1, 1), padding=(1, 1))
  (relu1): ReLU()
  (pool1): MaxPool2d(kernel_size=2, stride=2, padding=0, dilation=1, ceil_mode=False)
  (conv2): Conv2d(16, 32, kernel_size=(3, 3), stride=(1, 1), padding=(1, 1))
  (relu2): ReLU()
  (pool2): MaxPool2d(kernel_size=2, stride=2, padding=0, dilation=1, ceil_mode=False)
  (conv3): Conv2d(32, 64, kernel_size=(3, 3), stride=(1, 1), padding=(1, 1))
  (relu3): ReLU()
  (flatten): Flatten(start_dim=1, end_dim=-1)
  (fc1): Linear(in_features=3136, out_features=3, bias=True)
  (relu4): ReLU()
  (fc2): Linear(in_features=3, out_features=1, bias=True)
  (sigmoid): Sigmoid()
)","[0, 1]",conv3,0.9020000100135803
63,"PyTorchCNN(
  (conv1): Conv2d(1, 16, kernel_size=(3, 3), stride=(1, 1), padding=(1, 1))
  (relu1): ReLU()
  (pool1): MaxPool2d(kernel_size=2, stride=2, padding=0, dilation=1, ceil_mode=False)
  (conv2): Conv2d(16, 32, kernel_size=(3, 3), stride=(1, 1), padding=(1, 1))
  (relu2): ReLU()
  (pool2): MaxPool2d(kernel_size=2, stride=2, padding=0, dilation=1, ceil_mode=False)
  (conv3): Conv2d(32, 64, kernel_size=(3, 3), stride=(1, 1), padding=(1, 1))
  (relu3): ReLU()
  (flatten): Flatten(start_dim=1, end_dim=-1)
  (fc1): Linear(in_features=3136, out_features=3, bias=True)
  (relu4): ReLU()
  (fc2): Linear(in_features=3, out_features=1, bias=True)
  (sigmoid): Sigmoid()
)","[0, 1]",fc1,0.6819999814033508
64,"PyTorchCNN(
  (conv1): Conv2d(1, 16, kernel_size=(3, 3), stride=(1, 1), padding=(1, 1))
  (relu1): ReLU()
  (pool1): MaxPool2d(kernel_size=2, stride=2, padding=0, dilation=1, ceil_mode=False)
  (conv2): Conv2d(16, 32, kernel_size=(3, 3), stride=(1, 1), padding=(1, 1))
  (relu2): ReLU()
  (pool2): MaxPool2d(kernel_size=2, stride=2, padding=0, dilation=1, ceil_mode=False)
  (conv3): Conv2d(32, 64, kernel_size=(3, 3), stride=(1, 1), padding=(1, 1))
  (relu3): ReLU()
  (flatten): Flatten(start_dim=1, end_dim=-1)
  (fc1): Linear(in_features=3136, out_features=3, bias=True)
  (relu4): ReLU()
  (fc2): Linear(in_features=3, out_features=1, bias=True)
  (sigmoid): Sigmoid()
)","[0, 2]",conv1,0.9380000233650208
65,"PyTorchCNN(
  (conv1): Conv2d(1, 16, kernel_size=(3, 3), stride=(1, 1), padding=(1, 1))
  (relu1): ReLU()
  (pool1): MaxPool2d(kernel_size=2, stride=2, padding=0, dilation=1, ceil_mode=False)
  (conv2): Conv2d(16, 32, kernel_size=(3, 3), stride=(1, 1), padding=(1, 1))
  (relu2): ReLU()
  (pool2): MaxPool2d(kernel_size=2, stride=2, padding=0, dilation=1, ceil_mode=False)
  (conv3): Conv2d(32, 64, kernel_size=(3, 3), stride=(1, 1), padding=(1, 1))
  (relu3): ReLU()
  (flatten): Flatten(start_dim=1, end_dim=-1)
  (fc1): Linear(in_features=3136, out_features=3, bias=True)
  (relu4): ReLU()
  (fc2): Linear(in_features=3, out_features=1, bias=True)
  (sigmoid): Sigmoid()
)","[0, 2]",conv2,0.9110000133514404
66,"PyTorchCNN(
  (conv1): Conv2d(1, 16, kernel_size=(3, 3), stride=(1, 1), padding=(1, 1))
  (relu1): ReLU()
  (pool1): MaxPool2d(kernel_size=2, stride=2, padding=0, dilation=1, ceil_mode=False)
  (conv2): Conv2d(16, 32, kernel_size=(3, 3), stride=(1, 1), padding=(1, 1))
  (relu2): ReLU()
  (pool2): MaxPool2d(kernel_size=2, stride=2, padding=0, dilation=1, ceil_mode=False)
  (conv3): Conv2d(32, 64, kernel_size=(3, 3), stride=(1, 1), padding=(1, 1))
  (relu3): ReLU()
  (flatten): Flatten(start_dim=1, end_dim=-1)
  (fc1): Linear(in_features=3136, out_features=3, bias=True)
  (relu4): ReLU()
  (fc2): Linear(in_features=3, out_features=1, bias=True)
  (sigmoid): Sigmoid()
)","[0, 2]",conv3,0.9190000295639038
67,"PyTorchCNN(
  (conv1): Conv2d(1, 16, kernel_size=(3, 3), stride=(1, 1), padding=(1, 1))
  (relu1): ReLU()
  (pool1): MaxPool2d(kernel_size=2, stride=2, padding=0, dilation=1, ceil_mode=False)
  (conv2): Conv2d(16, 32, kernel_size=(3, 3), stride=(1, 1), padding=(1, 1))
  (relu2): ReLU()
  (pool2): MaxPool2d(kernel_size=2, stride=2, padding=0, dilation=1, ceil_mode=False)
  (conv3): Conv2d(32, 64, kernel_size=(3, 3), stride=(1, 1), padding=(1, 1))
  (relu3): ReLU()
  (flatten): Flatten(start_dim=1, end_dim=-1)
  (fc1): Linear(in_features=3136, out_features=3, bias=True)
  (relu4): ReLU()
  (fc2): Linear(in_features=3, out_features=1, bias=True)
  (sigmoid): Sigmoid()
)","[0, 2]",fc1,0.6660000085830688
68,"PyTorchCNN(
  (conv1): Conv2d(1, 16, kernel_size=(3, 3), stride=(1, 1), padding=(1, 1))
  (relu1): ReLU()
  (pool1): MaxPool2d(kernel_size=2, stride=2, padding=0, dilation=1, ceil_mode=False)
  (conv2): Conv2d(16, 32, kernel_size=(3, 3), stride=(1, 1), padding=(1, 1))
  (relu2): ReLU()
  (pool2): MaxPool2d(kernel_size=2, stride=2, padding=0, dilation=1, ceil_mode=False)
  (conv3): Conv2d(32, 64, kernel_size=(3, 3), stride=(1, 1), padding=(1, 1))
  (relu3): ReLU()
  (flatten): Flatten(start_dim=1, end_dim=-1)
  (fc1): Linear(in_features=3136, out_features=3, bias=True)
  (relu4): ReLU()
  (fc2): Linear(in_features=3, out_features=1, bias=True)
  (sigmoid): Sigmoid()
)","[1, 2]",conv1,0.9169999957084656
69,"PyTorchCNN(
  (conv1): Conv2d(1, 16, kernel_size=(3, 3), stride=(1, 1), padding=(1, 1))
  (relu1): ReLU()
  (pool1): MaxPool2d(kernel_size=2, stride=2, padding=0, dilation=1, ceil_mode=False)
  (conv2): Conv2d(16, 32, kernel_size=(3, 3), stride=(1, 1), padding=(1, 1))
  (relu2): ReLU()
  (pool2): MaxPool2d(kernel_size=2, stride=2, padding=0, dilation=1, ceil_mode=False)
  (conv3): Conv2d(32, 64, kernel_size=(3, 3), stride=(1, 1), padding=(1, 1))
  (relu3): ReLU()
  (flatten): Flatten(start_dim=1, end_dim=-1)
  (fc1): Linear(in_features=3136, out_features=3, bias=True)
  (relu4): ReLU()
  (fc2): Linear(in_features=3, out_features=1, bias=True)
  (sigmoid): Sigmoid()
)","[1, 2]",conv2,0.9129999876022339
70,"PyTorchCNN(
  (conv1): Conv2d(1, 16, kernel_size=(3, 3), stride=(1, 1), padding=(1, 1))
  (relu1): ReLU()
  (pool1): MaxPool2d(kernel_size=2, stride=2, padding=0, dilation=1, ceil_mode=False)
  (conv2): Conv2d(16, 32, kernel_size=(3, 3), stride=(1, 1), padding=(1, 1))
  (relu2): ReLU()
  (pool2): MaxPool2d(kernel_size=2, stride=2, padding=0, dilation=1, ceil_mode=False)
  (conv3): Conv2d(32, 64, kernel_size=(3, 3), stride=(1, 1), padding=(1, 1))
  (relu3): ReLU()
  (flatten): Flatten(start_dim=1, end_dim=-1)
  (fc1): Linear(in_features=3136, out_features=3, bias=True)
  (relu4): ReLU()
  (fc2): Linear(in_features=3, out_features=1, bias=True)
  (sigmoid): Sigmoid()
)","[1, 2]",conv3,0.8809999823570251
71,"PyTorchCNN(
  (conv1): Conv2d(1, 16, kernel_size=(3, 3), stride=(1, 1), padding=(1, 1))
  (relu1): ReLU()
  (pool1): MaxPool2d(kernel_size=2, stride=2, padding=0, dilation=1, ceil_mode=False)
  (conv2): Conv2d(16, 32, kernel_size=(3, 3), stride=(1, 1), padding=(1, 1))
  (relu2): ReLU()
  (pool2): MaxPool2d(kernel_size=2, stride=2, padding=0, dilation=1, ceil_mode=False)
  (conv3): Conv2d(32, 64, kernel_size=(3, 3), stride=(1, 1), padding=(1, 1))
  (relu3): ReLU()
  (flatten): Flatten(start_dim=1, end_dim=-1)
  (fc1): Linear(in_features=3136, out_features=3, bias=True)
  (relu4): ReLU()
  (fc2): Linear(in_features=3, out_features=1, bias=True)
  (sigmoid): Sigmoid()
)","[1, 2]",fc1,0.6880000233650208
72,"PyTorchCNN(
  (conv1): Conv2d(1, 16, kernel_size=(3, 3), stride=(1, 1), padding=(1, 1))
  (relu1): ReLU()
  (pool1): MaxPool2d(kernel_size=2, stride=2, padding=0, dilation=1, ceil_mode=False)
  (conv2): Conv2d(16, 32, kernel_size=(3, 3), stride=(1, 1), padding=(1, 1))
  (relu2): ReLU()
  (pool2): MaxPool2d(kernel_size=2, stride=2, padding=0, dilation=1, ceil_mode=False)
  (conv3): Conv2d(32, 64, kernel_size=(3, 3), stride=(1, 1), padding=(1, 1))
  (relu3): ReLU()
  (flatten): Flatten(start_dim=1, end_dim=-1)
  (fc1): Linear(in_features=3136, out_features=3, bias=True)
  (relu4): ReLU()
  (fc2): Linear(in_features=3, out_features=1, bias=True)
  (sigmoid): Sigmoid()
)",[0],conv1,0.9129999876022339
73,"PyTorchCNN(
  (conv1): Conv2d(1, 16, kernel_size=(3, 3), stride=(1, 1), padding=(1, 1))
  (relu1): ReLU()
  (pool1): MaxPool2d(kernel_size=2, stride=2, padding=0, dilation=1, ceil_mode=False)
  (conv2): Conv2d(16, 32, kernel_size=(3, 3), stride=(1, 1), padding=(1, 1))
  (relu2): ReLU()
  (pool2): MaxPool2d(kernel_size=2, stride=2, padding=0, dilation=1, ceil_mode=False)
  (conv3): Conv2d(32, 64, kernel_size=(3, 3), stride=(1, 1), padding=(1, 1))
  (relu3): ReLU()
  (flatten): Flatten(start_dim=1, end_dim=-1)
  (fc1): Linear(in_features=3136, out_features=3, bias=True)
  (relu4): ReLU()
  (fc2): Linear(in_features=3, out_features=1, bias=True)
  (sigmoid): Sigmoid()
)",[0],conv2,0.8880000114440918
74,"PyTorchCNN(
  (conv1): Conv2d(1, 16, kernel_size=(3, 3), stride=(1, 1), padding=(1, 1))
  (relu1): ReLU()
  (pool1): MaxPool2d(kernel_size=2, stride=2, padding=0, dilation=1, ceil_mode=False)
  (conv2): Conv2d(16, 32, kernel_size=(3, 3), stride=(1, 1), padding=(1, 1))
  (relu2): ReLU()
  (pool2): MaxPool2d(kernel_size=2, stride=2, padding=0, dilation=1, ceil_mode=False)
  (conv3): Conv2d(32, 64, kernel_size=(3, 3), stride=(1, 1), padding=(1, 1))
  (relu3): ReLU()
  (flatten): Flatten(start_dim=1, end_dim=-1)
  (fc1): Linear(in_features=3136, out_features=3, bias=True)
  (relu4): ReLU()
  (fc2): Linear(in_features=3, out_features=1, bias=True)
  (sigmoid): Sigmoid()
)",[0],conv3,0.871999979019165
75,"PyTorchCNN(
  (conv1): Conv2d(1, 16, kernel_size=(3, 3), stride=(1, 1), padding=(1, 1))
  (relu1): ReLU()
  (pool1): MaxPool2d(kernel_size=2, stride=2, padding=0, dilation=1, ceil_mode=False)
  (conv2): Conv2d(16, 32, kernel_size=(3, 3), stride=(1, 1), padding=(1, 1))
  (relu2): ReLU()
  (pool2): MaxPool2d(kernel_size=2, stride=2, padding=0, dilation=1, ceil_mode=False)
  (conv3): Conv2d(32, 64, kernel_size=(3, 3), stride=(1, 1), padding=(1, 1))
  (relu3): ReLU()
  (flatten): Flatten(start_dim=1, end_dim=-1)
  (fc1): Linear(in_features=3136, out_features=3, bias=True)
  (relu4): ReLU()
  (fc2): Linear(in_features=3, out_features=1, bias=True)
  (sigmoid): Sigmoid()
)",[0],fc1,0.7680000066757202
76,"PyTorchCNN(
  (conv1): Conv2d(1, 16, kernel_size=(3, 3), stride=(1, 1), padding=(1, 1))
  (relu1): ReLU()
  (pool1): MaxPool2d(kernel_size=2, stride=2, padding=0, dilation=1, ceil_mode=False)
  (conv2): Conv2d(16, 32, kernel_size=(3, 3), stride=(1, 1), padding=(1, 1))
  (relu2): ReLU()
  (pool2): MaxPool2d(kernel_size=2, stride=2, padding=0, dilation=1, ceil_mode=False)
  (conv3): Conv2d(32, 64, kernel_size=(3, 3), stride=(1, 1), padding=(1, 1))
  (relu3): ReLU()
  (flatten): Flatten(start_dim=1, end_dim=-1)
  (fc1): Linear(in_features=3136, out_features=3, bias=True)
  (relu4): ReLU()
  (fc2): Linear(in_features=3, out_features=1, bias=True)
  (sigmoid): Sigmoid()
)",[1],conv1,0.9679999947547913
77,"PyTorchCNN(
  (conv1): Conv2d(1, 16, kernel_size=(3, 3), stride=(1, 1), padding=(1, 1))
  (relu1): ReLU()
  (pool1): MaxPool2d(kernel_size=2, stride=2, padding=0, dilation=1, ceil_mode=False)
  (conv2): Conv2d(16, 32, kernel_size=(3, 3), stride=(1, 1), padding=(1, 1))
  (relu2): ReLU()
  (pool2): MaxPool2d(kernel_size=2, stride=2, padding=0, dilation=1, ceil_mode=False)
  (conv3): Conv2d(32, 64, kernel_size=(3, 3), stride=(1, 1), padding=(1, 1))
  (relu3): ReLU()
  (flatten): Flatten(start_dim=1, end_dim=-1)
  (fc1): Linear(in_features=3136, out_features=3, bias=True)
  (relu4): ReLU()
  (fc2): Linear(in_features=3, out_features=1, bias=True)
  (sigmoid): Sigmoid()
)",[1],conv2,0.949999988079071
78,"PyTorchCNN(
  (conv1): Conv2d(1, 16, kernel_size=(3, 3), stride=(1, 1), padding=(1, 1))
  (relu1): ReLU()
  (pool1): MaxPool2d(kernel_size=2, stride=2, padding=0, dilation=1, ceil_mode=False)
  (conv2): Conv2d(16, 32, kernel_size=(3, 3), stride=(1, 1), padding=(1, 1))
  (relu2): ReLU()
  (pool2): MaxPool2d(kernel_size=2, stride=2, padding=0, dilation=1, ceil_mode=False)
  (conv3): Conv2d(32, 64, kernel_size=(3, 3), stride=(1, 1), padding=(1, 1))
  (relu3): ReLU()
  (flatten): Flatten(start_dim=1, end_dim=-1)
  (fc1): Linear(in_features=3136, out_features=3, bias=True)
  (relu4): ReLU()
  (fc2): Linear(in_features=3, out_features=1, bias=True)
  (sigmoid): Sigmoid()
)",[1],conv3,0.9200000166893005
79,"PyTorchCNN(
  (conv1): Conv2d(1, 16, kernel_size=(3, 3), stride=(1, 1), padding=(1, 1))
  (relu1): ReLU()
  (pool1): MaxPool2d(kernel_size=2, stride=2, padding=0, dilation=1, ceil_mode=False)
  (conv2): Conv2d(16, 32, kernel_size=(3, 3), stride=(1, 1), padding=(1, 1))
  (relu2): ReLU()
  (pool2): MaxPool2d(kernel_size=2, stride=2, padding=0, dilation=1, ceil_mode=False)
  (conv3): Conv2d(32, 64, kernel_size=(3, 3), stride=(1, 1), padding=(1, 1))
  (relu3): ReLU()
  (flatten): Flatten(start_dim=1, end_dim=-1)
  (fc1): Linear(in_features=3136, out_features=3, bias=True)
  (relu4): ReLU()
  (fc2): Linear(in_features=3, out_features=1, bias=True)
  (sigmoid): Sigmoid()
)",[1],fc1,0.7260000109672546
80,"PyTorchCNN(
  (conv1): Conv2d(1, 16, kernel_size=(3, 3), stride=(1, 1), padding=(1, 1))
  (relu1): ReLU()
  (pool1): MaxPool2d(kernel_size=2, stride=2, padding=0, dilation=1, ceil_mode=False)
  (conv2): Conv2d(16, 32, kernel_size=(3, 3), stride=(1, 1), padding=(1, 1))
  (relu2): ReLU()
  (pool2): MaxPool2d(kernel_size=2, stride=2, padding=0, dilation=1, ceil_mode=False)
  (conv3): Conv2d(32, 64, kernel_size=(3, 3), stride=(1, 1), padding=(1, 1))
  (relu3): ReLU()
  (flatten): Flatten(start_dim=1, end_dim=-1)
  (fc1): Linear(in_features=3136, out_features=3, bias=True)
  (relu4): ReLU()
  (fc2): Linear(in_features=3, out_features=1, bias=True)
  (sigmoid): Sigmoid()
)",[2],conv1,0.9440000057220459
81,"PyTorchCNN(
  (conv1): Conv2d(1, 16, kernel_size=(3, 3), stride=(1, 1), padding=(1, 1))
  (relu1): ReLU()
  (pool1): MaxPool2d(kernel_size=2, stride=2, padding=0, dilation=1, ceil_mode=False)
  (conv2): Conv2d(16, 32, kernel_size=(3, 3), stride=(1, 1), padding=(1, 1))
  (relu2): ReLU()
  (pool2): MaxPool2d(kernel_size=2, stride=2, padding=0, dilation=1, ceil_mode=False)
  (conv3): Conv2d(32, 64, kernel_size=(3, 3), stride=(1, 1), padding=(1, 1))
  (relu3): ReLU()
  (flatten): Flatten(start_dim=1, end_dim=-1)
  (fc1): Linear(in_features=3136, out_features=3, bias=True)
  (relu4): ReLU()
  (fc2): Linear(in_features=3, out_features=1, bias=True)
  (sigmoid): Sigmoid()
)",[2],conv2,0.9459999799728394
82,"PyTorchCNN(
  (conv1): Conv2d(1, 16, kernel_size=(3, 3), stride=(1, 1), padding=(1, 1))
  (relu1): ReLU()
  (pool1): MaxPool2d(kernel_size=2, stride=2, padding=0, dilation=1, ceil_mode=False)
  (conv2): Conv2d(16, 32, kernel_size=(3, 3), stride=(1, 1), padding=(1, 1))
  (relu2): ReLU()
  (pool2): MaxPool2d(kernel_size=2, stride=2, padding=0, dilation=1, ceil_mode=False)
  (conv3): Conv2d(32, 64, kernel_size=(3, 3), stride=(1, 1), padding=(1, 1))
  (relu3): ReLU()
  (flatten): Flatten(start_dim=1, end_dim=-1)
  (fc1): Linear(in_features=3136, out_features=3, bias=True)
  (relu4): ReLU()
  (fc2): Linear(in_features=3, out_features=1, bias=True)
  (sigmoid): Sigmoid()
)",[2],conv3,0.9340000152587891
83,"PyTorchCNN(
  (conv1): Conv2d(1, 16, kernel_size=(3, 3), stride=(1, 1), padding=(1, 1))
  (relu1): ReLU()
  (pool1): MaxPool2d(kernel_size=2, stride=2, padding=0, dilation=1, ceil_mode=False)
  (conv2): Conv2d(16, 32, kernel_size=(3, 3), stride=(1, 1), padding=(1, 1))
  (relu2): ReLU()
  (pool2): MaxPool2d(kernel_size=2, stride=2, padding=0, dilation=1, ceil_mode=False)
  (conv3): Conv2d(32, 64, kernel_size=(3, 3), stride=(1, 1), padding=(1, 1))
  (relu3): ReLU()
  (flatten): Flatten(start_dim=1, end_dim=-1)
  (fc1): Linear(in_features=3136, out_features=3, bias=True)
  (relu4): ReLU()
  (fc2): Linear(in_features=3, out_features=1, bias=True)
  (sigmoid): Sigmoid()
)",[2],fc1,0.8050000071525574
84,"PyTorchCNN(
  (conv1): Conv2d(1, 16, kernel_size=(3, 3), stride=(1, 1), padding=(1, 1))
  (relu1): ReLU()
  (pool1): MaxPool2d(kernel_size=2, stride=2, padding=0, dilation=1, ceil_mode=False)
  (conv2): Conv2d(16, 32, kernel_size=(3, 3), stride=(1, 1), padding=(1, 1))
  (relu2): ReLU()
  (pool2): MaxPool2d(kernel_size=2, stride=2, padding=0, dilation=1, ceil_mode=False)
  (conv3): Conv2d(32, 64, kernel_size=(3, 3), stride=(1, 1), padding=(1, 1))
  (relu3): ReLU()
  (flatten): Flatten(start_dim=1, end_dim=-1)
  (fc1): Linear(in_features=3136, out_features=3, bias=True)
  (relu4): ReLU()
  (fc2): Linear(in_features=3, out_features=1, bias=True)
  (sigmoid): Sigmoid()
)","[0, 1, 2]",conv1,0.949999988079071
85,"PyTorchCNN(
  (conv1): Conv2d(1, 16, kernel_size=(3, 3), stride=(1, 1), padding=(1, 1))
  (relu1): ReLU()
  (pool1): MaxPool2d(kernel_size=2, stride=2, padding=0, dilation=1, ceil_mode=False)
  (conv2): Conv2d(16, 32, kernel_size=(3, 3), stride=(1, 1), padding=(1, 1))
  (relu2): ReLU()
  (pool2): MaxPool2d(kernel_size=2, stride=2, padding=0, dilation=1, ceil_mode=False)
  (conv3): Conv2d(32, 64, kernel_size=(3, 3), stride=(1, 1), padding=(1, 1))
  (relu3): ReLU()
  (flatten): Flatten(start_dim=1, end_dim=-1)
  (fc1): Linear(in_features=3136, out_features=3, bias=True)
  (relu4): ReLU()
  (fc2): Linear(in_features=3, out_features=1, bias=True)
  (sigmoid): Sigmoid()
)","[0, 1, 2]",conv2,0.9160000085830688
86,"PyTorchCNN(
  (conv1): Conv2d(1, 16, kernel_size=(3, 3), stride=(1, 1), padding=(1, 1))
  (relu1): ReLU()
  (pool1): MaxPool2d(kernel_size=2, stride=2, padding=0, dilation=1, ceil_mode=False)
  (conv2): Conv2d(16, 32, kernel_size=(3, 3), stride=(1, 1), padding=(1, 1))
  (relu2): ReLU()
  (pool2): MaxPool2d(kernel_size=2, stride=2, padding=0, dilation=1, ceil_mode=False)
  (conv3): Conv2d(32, 64, kernel_size=(3, 3), stride=(1, 1), padding=(1, 1))
  (relu3): ReLU()
  (flatten): Flatten(start_dim=1, end_dim=-1)
  (fc1): Linear(in_features=3136, out_features=3, bias=True)
  (relu4): ReLU()
  (fc2): Linear(in_features=3, out_features=1, bias=True)
  (sigmoid): Sigmoid()
)","[0, 1, 2]",conv3,0.9340000152587891
87,"PyTorchCNN(
  (conv1): Conv2d(1, 16, kernel_size=(3, 3), stride=(1, 1), padding=(1, 1))
  (relu1): ReLU()
  (pool1): MaxPool2d(kernel_size=2, stride=2, padding=0, dilation=1, ceil_mode=False)
  (conv2): Conv2d(16, 32, kernel_size=(3, 3), stride=(1, 1), padding=(1, 1))
  (relu2): ReLU()
  (pool2): MaxPool2d(kernel_size=2, stride=2, padding=0, dilation=1, ceil_mode=False)
  (conv3): Conv2d(32, 64, kernel_size=(3, 3), stride=(1, 1), padding=(1, 1))
  (relu3): ReLU()
  (flatten): Flatten(start_dim=1, end_dim=-1)
  (fc1): Linear(in_features=3136, out_features=3, bias=True)
  (relu4): ReLU()
  (fc2): Linear(in_features=3, out_features=1, bias=True)
  (sigmoid): Sigmoid()
)","[0, 1, 2]",fc1,0.5149999856948853
88,"PyTorchCNN(
  (conv1): Conv2d(1, 16, kernel_size=(3, 3), stride=(1, 1), padding=(1, 1))
  (relu1): ReLU()
  (pool1): MaxPool2d(kernel_size=2, stride=2, padding=0, dilation=1, ceil_mode=False)
  (conv2): Conv2d(16, 32, kernel_size=(3, 3), stride=(1, 1), padding=(1, 1))
  (relu2): ReLU()
  (pool2): MaxPool2d(kernel_size=2, stride=2, padding=0, dilation=1, ceil_mode=False)
  (conv3): Conv2d(32, 64, kernel_size=(3, 3), stride=(1, 1), padding=(1, 1))
  (relu3): ReLU()
  (flatten): Flatten(start_dim=1, end_dim=-1)
  (fc1): Linear(in_features=3136, out_features=3, bias=True)
  (relu4): ReLU()
  (fc2): Linear(in_features=3, out_features=1, bias=True)
  (sigmoid): Sigmoid()
)","[0, 1]",conv1,0.9139999747276306
89,"PyTorchCNN(
  (conv1): Conv2d(1, 16, kernel_size=(3, 3), stride=(1, 1), padding=(1, 1))
  (relu1): ReLU()
  (pool1): MaxPool2d(kernel_size=2, stride=2, padding=0, dilation=1, ceil_mode=False)
  (conv2): Conv2d(16, 32, kernel_size=(3, 3), stride=(1, 1), padding=(1, 1))
  (relu2): ReLU()
  (pool2): MaxPool2d(kernel_size=2, stride=2, padding=0, dilation=1, ceil_mode=False)
  (conv3): Conv2d(32, 64, kernel_size=(3, 3), stride=(1, 1), padding=(1, 1))
  (relu3): ReLU()
  (flatten): Flatten(start_dim=1, end_dim=-1)
  (fc1): Linear(in_features=3136, out_features=3, bias=True)
  (relu4): ReLU()
  (fc2): Linear(in_features=3, out_features=1, bias=True)
  (sigmoid): Sigmoid()
)","[0, 1]",conv2,0.9070000052452087
90,"PyTorchCNN(
  (conv1): Conv2d(1, 16, kernel_size=(3, 3), stride=(1, 1), padding=(1, 1))
  (relu1): ReLU()
  (pool1): MaxPool2d(kernel_size=2, stride=2, padding=0, dilation=1, ceil_mode=False)
  (conv2): Conv2d(16, 32, kernel_size=(3, 3), stride=(1, 1), padding=(1, 1))
  (relu2): ReLU()
  (pool2): MaxPool2d(kernel_size=2, stride=2, padding=0, dilation=1, ceil_mode=False)
  (conv3): Conv2d(32, 64, kernel_size=(3, 3), stride=(1, 1), padding=(1, 1))
  (relu3): ReLU()
  (flatten): Flatten(start_dim=1, end_dim=-1)
  (fc1): Linear(in_features=3136, out_features=3, bias=True)
  (relu4): ReLU()
  (fc2): Linear(in_features=3, out_features=1, bias=True)
  (sigmoid): Sigmoid()
)","[0, 1]",conv3,0.8970000147819519
91,"PyTorchCNN(
  (conv1): Conv2d(1, 16, kernel_size=(3, 3), stride=(1, 1), padding=(1, 1))
  (relu1): ReLU()
  (pool1): MaxPool2d(kernel_size=2, stride=2, padding=0, dilation=1, ceil_mode=False)
  (conv2): Conv2d(16, 32, kernel_size=(3, 3), stride=(1, 1), padding=(1, 1))
  (relu2): ReLU()
  (pool2): MaxPool2d(kernel_size=2, stride=2, padding=0, dilation=1, ceil_mode=False)
  (conv3): Conv2d(32, 64, kernel_size=(3, 3), stride=(1, 1), padding=(1, 1))
  (relu3): ReLU()
  (flatten): Flatten(start_dim=1, end_dim=-1)
  (fc1): Linear(in_features=3136, out_features=3, bias=True)
  (relu4): ReLU()
  (fc2): Linear(in_features=3, out_features=1, bias=True)
  (sigmoid): Sigmoid()
)","[0, 1]",fc1,0.6389999985694885
92,"PyTorchCNN(
  (conv1): Conv2d(1, 16, kernel_size=(3, 3), stride=(1, 1), padding=(1, 1))
  (relu1): ReLU()
  (pool1): MaxPool2d(kernel_size=2, stride=2, padding=0, dilation=1, ceil_mode=False)
  (conv2): Conv2d(16, 32, kernel_size=(3, 3), stride=(1, 1), padding=(1, 1))
  (relu2): ReLU()
  (pool2): MaxPool2d(kernel_size=2, stride=2, padding=0, dilation=1, ceil_mode=False)
  (conv3): Conv2d(32, 64, kernel_size=(3, 3), stride=(1, 1), padding=(1, 1))
  (relu3): ReLU()
  (flatten): Flatten(start_dim=1, end_dim=-1)
  (fc1): Linear(in_features=3136, out_features=3, bias=True)
  (relu4): ReLU()
  (fc2): Linear(in_features=3, out_features=1, bias=True)
  (sigmoid): Sigmoid()
)","[0, 2]",conv1,0.9340000152587891
93,"PyTorchCNN(
  (conv1): Conv2d(1, 16, kernel_size=(3, 3), stride=(1, 1), padding=(1, 1))
  (relu1): ReLU()
  (pool1): MaxPool2d(kernel_size=2, stride=2, padding=0, dilation=1, ceil_mode=False)
  (conv2): Conv2d(16, 32, kernel_size=(3, 3), stride=(1, 1), padding=(1, 1))
  (relu2): ReLU()
  (pool2): MaxPool2d(kernel_size=2, stride=2, padding=0, dilation=1, ceil_mode=False)
  (conv3): Conv2d(32, 64, kernel_size=(3, 3), stride=(1, 1), padding=(1, 1))
  (relu3): ReLU()
  (flatten): Flatten(start_dim=1, end_dim=-1)
  (fc1): Linear(in_features=3136, out_features=3, bias=True)
  (relu4): ReLU()
  (fc2): Linear(in_features=3, out_features=1, bias=True)
  (sigmoid): Sigmoid()
)","[0, 2]",conv2,0.9319999814033508
94,"PyTorchCNN(
  (conv1): Conv2d(1, 16, kernel_size=(3, 3), stride=(1, 1), padding=(1, 1))
  (relu1): ReLU()
  (pool1): MaxPool2d(kernel_size=2, stride=2, padding=0, dilation=1, ceil_mode=False)
  (conv2): Conv2d(16, 32, kernel_size=(3, 3), stride=(1, 1), padding=(1, 1))
  (relu2): ReLU()
  (pool2): MaxPool2d(kernel_size=2, stride=2, padding=0, dilation=1, ceil_mode=False)
  (conv3): Conv2d(32, 64, kernel_size=(3, 3), stride=(1, 1), padding=(1, 1))
  (relu3): ReLU()
  (flatten): Flatten(start_dim=1, end_dim=-1)
  (fc1): Linear(in_features=3136, out_features=3, bias=True)
  (relu4): ReLU()
  (fc2): Linear(in_features=3, out_features=1, bias=True)
  (sigmoid): Sigmoid()
)","[0, 2]",conv3,0.9110000133514404
95,"PyTorchCNN(
  (conv1): Conv2d(1, 16, kernel_size=(3, 3), stride=(1, 1), padding=(1, 1))
  (relu1): ReLU()
  (pool1): MaxPool2d(kernel_size=2, stride=2, padding=0, dilation=1, ceil_mode=False)
  (conv2): Conv2d(16, 32, kernel_size=(3, 3), stride=(1, 1), padding=(1, 1))
  (relu2): ReLU()
  (pool2): MaxPool2d(kernel_size=2, stride=2, padding=0, dilation=1, ceil_mode=False)
  (conv3): Conv2d(32, 64, kernel_size=(3, 3), stride=(1, 1), padding=(1, 1))
  (relu3): ReLU()
  (flatten): Flatten(start_dim=1, end_dim=-1)
  (fc1): Linear(in_features=3136, out_features=3, bias=True)
  (relu4): ReLU()
  (fc2): Linear(in_features=3, out_features=1, bias=True)
  (sigmoid): Sigmoid()
)","[0, 2]",fc1,0.6169999837875366
96,"PyTorchCNN(
  (conv1): Conv2d(1, 16, kernel_size=(3, 3), stride=(1, 1), padding=(1, 1))
  (relu1): ReLU()
  (pool1): MaxPool2d(kernel_size=2, stride=2, padding=0, dilation=1, ceil_mode=False)
  (conv2): Conv2d(16, 32, kernel_size=(3, 3), stride=(1, 1), padding=(1, 1))
  (relu2): ReLU()
  (pool2): MaxPool2d(kernel_size=2, stride=2, padding=0, dilation=1, ceil_mode=False)
  (conv3): Conv2d(32, 64, kernel_size=(3, 3), stride=(1, 1), padding=(1, 1))
  (relu3): ReLU()
  (flatten): Flatten(start_dim=1, end_dim=-1)
  (fc1): Linear(in_features=3136, out_features=3, bias=True)
  (relu4): ReLU()
  (fc2): Linear(in_features=3, out_features=1, bias=True)
  (sigmoid): Sigmoid()
)","[1, 2]",conv1,0.9110000133514404
97,"PyTorchCNN(
  (conv1): Conv2d(1, 16, kernel_size=(3, 3), stride=(1, 1), padding=(1, 1))
  (relu1): ReLU()
  (pool1): MaxPool2d(kernel_size=2, stride=2, padding=0, dilation=1, ceil_mode=False)
  (conv2): Conv2d(16, 32, kernel_size=(3, 3), stride=(1, 1), padding=(1, 1))
  (relu2): ReLU()
  (pool2): MaxPool2d(kernel_size=2, stride=2, padding=0, dilation=1, ceil_mode=False)
  (conv3): Conv2d(32, 64, kernel_size=(3, 3), stride=(1, 1), padding=(1, 1))
  (relu3): ReLU()
  (flatten): Flatten(start_dim=1, end_dim=-1)
  (fc1): Linear(in_features=3136, out_features=3, bias=True)
  (relu4): ReLU()
  (fc2): Linear(in_features=3, out_features=1, bias=True)
  (sigmoid): Sigmoid()
)","[1, 2]",conv2,0.9309999942779541
98,"PyTorchCNN(
  (conv1): Conv2d(1, 16, kernel_size=(3, 3), stride=(1, 1), padding=(1, 1))
  (relu1): ReLU()
  (pool1): MaxPool2d(kernel_size=2, stride=2, padding=0, dilation=1, ceil_mode=False)
  (conv2): Conv2d(16, 32, kernel_size=(3, 3), stride=(1, 1), padding=(1, 1))
  (relu2): ReLU()
  (pool2): MaxPool2d(kernel_size=2, stride=2, padding=0, dilation=1, ceil_mode=False)
  (conv3): Conv2d(32, 64, kernel_size=(3, 3), stride=(1, 1), padding=(1, 1))
  (relu3): ReLU()
  (flatten): Flatten(start_dim=1, end_dim=-1)
  (fc1): Linear(in_features=3136, out_features=3, bias=True)
  (relu4): ReLU()
  (fc2): Linear(in_features=3, out_features=1, bias=True)
  (sigmoid): Sigmoid()
)","[1, 2]",conv3,0.8560000061988831
99,"PyTorchCNN(
  (conv1): Conv2d(1, 16, kernel_size=(3, 3), stride=(1, 1), padding=(1, 1))
  (relu1): ReLU()
  (pool1): MaxPool2d(kernel_size=2, stride=2, padding=0, dilation=1, ceil_mode=False)
  (conv2): Conv2d(16, 32, kernel_size=(3, 3), stride=(1, 1), padding=(1, 1))
  (relu2): ReLU()
  (pool2): MaxPool2d(kernel_size=2, stride=2, padding=0, dilation=1, ceil_mode=False)
  (conv3): Conv2d(32, 64, kernel_size=(3, 3), stride=(1, 1), padding=(1, 1))
  (relu3): ReLU()
  (flatten): Flatten(start_dim=1, end_dim=-1)
  (fc1): Linear(in_features=3136, out_features=3, bias=True)
  (relu4): ReLU()
  (fc2): Linear(in_features=3, out_features=1, bias=True)
  (sigmoid): Sigmoid()
)","[1, 2]",fc1,0.765999972820282
100,"PyTorchCNN(
  (conv1): Conv2d(1, 16, kernel_size=(3, 3), stride=(1, 1), padding=(1, 1))
  (relu1): ReLU()
  (pool1): MaxPool2d(kernel_size=2, stride=2, padding=0, dilation=1, ceil_mode=False)
  (conv2): Conv2d(16, 32, kernel_size=(3, 3), stride=(1, 1), padding=(1, 1))
  (relu2): ReLU()
  (pool2): MaxPool2d(kernel_size=2, stride=2, padding=0, dilation=1, ceil_mode=False)
  (conv3): Conv2d(32, 64, kernel_size=(3, 3), stride=(1, 1), padding=(1, 1))
  (relu3): ReLU()
  (flatten): Flatten(start_dim=1, end_dim=-1)
  (fc1): Linear(in_features=3136, out_features=3, bias=True)
  (relu4): ReLU()
  (fc2): Linear(in_features=3, out_features=1, bias=True)
  (sigmoid): Sigmoid()
)",[0],conv1,0.9160000085830688
101,"PyTorchCNN(
  (conv1): Conv2d(1, 16, kernel_size=(3, 3), stride=(1, 1), padding=(1, 1))
  (relu1): ReLU()
  (pool1): MaxPool2d(kernel_size=2, stride=2, padding=0, dilation=1, ceil_mode=False)
  (conv2): Conv2d(16, 32, kernel_size=(3, 3), stride=(1, 1), padding=(1, 1))
  (relu2): ReLU()
  (pool2): MaxPool2d(kernel_size=2, stride=2, padding=0, dilation=1, ceil_mode=False)
  (conv3): Conv2d(32, 64, kernel_size=(3, 3), stride=(1, 1), padding=(1, 1))
  (relu3): ReLU()
  (flatten): Flatten(start_dim=1, end_dim=-1)
  (fc1): Linear(in_features=3136, out_features=3, bias=True)
  (relu4): ReLU()
  (fc2): Linear(in_features=3, out_features=1, bias=True)
  (sigmoid): Sigmoid()
)",[0],conv2,0.921999990940094
102,"PyTorchCNN(
  (conv1): Conv2d(1, 16, kernel_size=(3, 3), stride=(1, 1), padding=(1, 1))
  (relu1): ReLU()
  (pool1): MaxPool2d(kernel_size=2, stride=2, padding=0, dilation=1, ceil_mode=False)
  (conv2): Conv2d(16, 32, kernel_size=(3, 3), stride=(1, 1), padding=(1, 1))
  (relu2): ReLU()
  (pool2): MaxPool2d(kernel_size=2, stride=2, padding=0, dilation=1, ceil_mode=False)
  (conv3): Conv2d(32, 64, kernel_size=(3, 3), stride=(1, 1), padding=(1, 1))
  (relu3): ReLU()
  (flatten): Flatten(start_dim=1, end_dim=-1)
  (fc1): Linear(in_features=3136, out_features=3, bias=True)
  (relu4): ReLU()
  (fc2): Linear(in_features=3, out_features=1, bias=True)
  (sigmoid): Sigmoid()
)",[0],conv3,0.8999999761581421
103,"PyTorchCNN(
  (conv1): Conv2d(1, 16, kernel_size=(3, 3), stride=(1, 1), padding=(1, 1))
  (relu1): ReLU()
  (pool1): MaxPool2d(kernel_size=2, stride=2, padding=0, dilation=1, ceil_mode=False)
  (conv2): Conv2d(16, 32, kernel_size=(3, 3), stride=(1, 1), padding=(1, 1))
  (relu2): ReLU()
  (pool2): MaxPool2d(kernel_size=2, stride=2, padding=0, dilation=1, ceil_mode=False)
  (conv3): Conv2d(32, 64, kernel_size=(3, 3), stride=(1, 1), padding=(1, 1))
  (relu3): ReLU()
  (flatten): Flatten(start_dim=1, end_dim=-1)
  (fc1): Linear(in_features=3136, out_features=3, bias=True)
  (relu4): ReLU()
  (fc2): Linear(in_features=3, out_features=1, bias=True)
  (sigmoid): Sigmoid()
)",[0],fc1,0.6019999980926514
104,"PyTorchCNN(
  (conv1): Conv2d(1, 16, kernel_size=(3, 3), stride=(1, 1), padding=(1, 1))
  (relu1): ReLU()
  (pool1): MaxPool2d(kernel_size=2, stride=2, padding=0, dilation=1, ceil_mode=False)
  (conv2): Conv2d(16, 32, kernel_size=(3, 3), stride=(1, 1), padding=(1, 1))
  (relu2): ReLU()
  (pool2): MaxPool2d(kernel_size=2, stride=2, padding=0, dilation=1, ceil_mode=False)
  (conv3): Conv2d(32, 64, kernel_size=(3, 3), stride=(1, 1), padding=(1, 1))
  (relu3): ReLU()
  (flatten): Flatten(start_dim=1, end_dim=-1)
  (fc1): Linear(in_features=3136, out_features=3, bias=True)
  (relu4): ReLU()
  (fc2): Linear(in_features=3, out_features=1, bias=True)
  (sigmoid): Sigmoid()
)",[1],conv1,0.9649999737739563
105,"PyTorchCNN(
  (conv1): Conv2d(1, 16, kernel_size=(3, 3), stride=(1, 1), padding=(1, 1))
  (relu1): ReLU()
  (pool1): MaxPool2d(kernel_size=2, stride=2, padding=0, dilation=1, ceil_mode=False)
  (conv2): Conv2d(16, 32, kernel_size=(3, 3), stride=(1, 1), padding=(1, 1))
  (relu2): ReLU()
  (pool2): MaxPool2d(kernel_size=2, stride=2, padding=0, dilation=1, ceil_mode=False)
  (conv3): Conv2d(32, 64, kernel_size=(3, 3), stride=(1, 1), padding=(1, 1))
  (relu3): ReLU()
  (flatten): Flatten(start_dim=1, end_dim=-1)
  (fc1): Linear(in_features=3136, out_features=3, bias=True)
  (relu4): ReLU()
  (fc2): Linear(in_features=3, out_features=1, bias=True)
  (sigmoid): Sigmoid()
)",[1],conv2,0.9629999995231628
106,"PyTorchCNN(
  (conv1): Conv2d(1, 16, kernel_size=(3, 3), stride=(1, 1), padding=(1, 1))
  (relu1): ReLU()
  (pool1): MaxPool2d(kernel_size=2, stride=2, padding=0, dilation=1, ceil_mode=False)
  (conv2): Conv2d(16, 32, kernel_size=(3, 3), stride=(1, 1), padding=(1, 1))
  (relu2): ReLU()
  (pool2): MaxPool2d(kernel_size=2, stride=2, padding=0, dilation=1, ceil_mode=False)
  (conv3): Conv2d(32, 64, kernel_size=(3, 3), stride=(1, 1), padding=(1, 1))
  (relu3): ReLU()
  (flatten): Flatten(start_dim=1, end_dim=-1)
  (fc1): Linear(in_features=3136, out_features=3, bias=True)
  (relu4): ReLU()
  (fc2): Linear(in_features=3, out_features=1, bias=True)
  (sigmoid): Sigmoid()
)",[1],conv3,0.9440000057220459
107,"PyTorchCNN(
  (conv1): Conv2d(1, 16, kernel_size=(3, 3), stride=(1, 1), padding=(1, 1))
  (relu1): ReLU()
  (pool1): MaxPool2d(kernel_size=2, stride=2, padding=0, dilation=1, ceil_mode=False)
  (conv2): Conv2d(16, 32, kernel_size=(3, 3), stride=(1, 1), padding=(1, 1))
  (relu2): ReLU()
  (pool2): MaxPool2d(kernel_size=2, stride=2, padding=0, dilation=1, ceil_mode=False)
  (conv3): Conv2d(32, 64, kernel_size=(3, 3), stride=(1, 1), padding=(1, 1))
  (relu3): ReLU()
  (flatten): Flatten(start_dim=1, end_dim=-1)
  (fc1): Linear(in_features=3136, out_features=3, bias=True)
  (relu4): ReLU()
  (fc2): Linear(in_features=3, out_features=1, bias=True)
  (sigmoid): Sigmoid()
)",[1],fc1,0.6919999718666077
108,"PyTorchCNN(
  (conv1): Conv2d(1, 16, kernel_size=(3, 3), stride=(1, 1), padding=(1, 1))
  (relu1): ReLU()
  (pool1): MaxPool2d(kernel_size=2, stride=2, padding=0, dilation=1, ceil_mode=False)
  (conv2): Conv2d(16, 32, kernel_size=(3, 3), stride=(1, 1), padding=(1, 1))
  (relu2): ReLU()
  (pool2): MaxPool2d(kernel_size=2, stride=2, padding=0, dilation=1, ceil_mode=False)
  (conv3): Conv2d(32, 64, kernel_size=(3, 3), stride=(1, 1), padding=(1, 1))
  (relu3): ReLU()
  (flatten): Flatten(start_dim=1, end_dim=-1)
  (fc1): Linear(in_features=3136, out_features=3, bias=True)
  (relu4): ReLU()
  (fc2): Linear(in_features=3, out_features=1, bias=True)
  (sigmoid): Sigmoid()
)",[2],conv1,0.9399999976158142
109,"PyTorchCNN(
  (conv1): Conv2d(1, 16, kernel_size=(3, 3), stride=(1, 1), padding=(1, 1))
  (relu1): ReLU()
  (pool1): MaxPool2d(kernel_size=2, stride=2, padding=0, dilation=1, ceil_mode=False)
  (conv2): Conv2d(16, 32, kernel_size=(3, 3), stride=(1, 1), padding=(1, 1))
  (relu2): ReLU()
  (pool2): MaxPool2d(kernel_size=2, stride=2, padding=0, dilation=1, ceil_mode=False)
  (conv3): Conv2d(32, 64, kernel_size=(3, 3), stride=(1, 1), padding=(1, 1))
  (relu3): ReLU()
  (flatten): Flatten(start_dim=1, end_dim=-1)
  (fc1): Linear(in_features=3136, out_features=3, bias=True)
  (relu4): ReLU()
  (fc2): Linear(in_features=3, out_features=1, bias=True)
  (sigmoid): Sigmoid()
)",[2],conv2,0.9340000152587891
110,"PyTorchCNN(
  (conv1): Conv2d(1, 16, kernel_size=(3, 3), stride=(1, 1), padding=(1, 1))
  (relu1): ReLU()
  (pool1): MaxPool2d(kernel_size=2, stride=2, padding=0, dilation=1, ceil_mode=False)
  (conv2): Conv2d(16, 32, kernel_size=(3, 3), stride=(1, 1), padding=(1, 1))
  (relu2): ReLU()
  (pool2): MaxPool2d(kernel_size=2, stride=2, padding=0, dilation=1, ceil_mode=False)
  (conv3): Conv2d(32, 64, kernel_size=(3, 3), stride=(1, 1), padding=(1, 1))
  (relu3): ReLU()
  (flatten): Flatten(start_dim=1, end_dim=-1)
  (fc1): Linear(in_features=3136, out_features=3, bias=True)
  (relu4): ReLU()
  (fc2): Linear(in_features=3, out_features=1, bias=True)
  (sigmoid): Sigmoid()
)",[2],conv3,0.9100000262260437
111,"PyTorchCNN(
  (conv1): Conv2d(1, 16, kernel_size=(3, 3), stride=(1, 1), padding=(1, 1))
  (relu1): ReLU()
  (pool1): MaxPool2d(kernel_size=2, stride=2, padding=0, dilation=1, ceil_mode=False)
  (conv2): Conv2d(16, 32, kernel_size=(3, 3), stride=(1, 1), padding=(1, 1))
  (relu2): ReLU()
  (pool2): MaxPool2d(kernel_size=2, stride=2, padding=0, dilation=1, ceil_mode=False)
  (conv3): Conv2d(32, 64, kernel_size=(3, 3), stride=(1, 1), padding=(1, 1))
  (relu3): ReLU()
  (flatten): Flatten(start_dim=1, end_dim=-1)
  (fc1): Linear(in_features=3136, out_features=3, bias=True)
  (relu4): ReLU()
  (fc2): Linear(in_features=3, out_features=1, bias=True)
  (sigmoid): Sigmoid()
)",[2],fc1,0.7509999871253967
112,"PyTorchCNN(
  (conv1): Conv2d(1, 16, kernel_size=(3, 3), stride=(1, 1), padding=(1, 1))
  (relu1): ReLU()
  (pool1): MaxPool2d(kernel_size=2, stride=2, padding=0, dilation=1, ceil_mode=False)
  (conv2): Conv2d(16, 32, kernel_size=(3, 3), stride=(1, 1), padding=(1, 1))
  (relu2): ReLU()
  (pool2): MaxPool2d(kernel_size=2, stride=2, padding=0, dilation=1, ceil_mode=False)
  (conv3): Conv2d(32, 64, kernel_size=(3, 3), stride=(1, 1), padding=(1, 1))
  (relu3): ReLU()
  (flatten): Flatten(start_dim=1, end_dim=-1)
  (fc1): Linear(in_features=3136, out_features=3, bias=True)
  (relu4): ReLU()
  (fc2): Linear(in_features=3, out_features=1, bias=True)
  (sigmoid): Sigmoid()
)","[0, 1, 2]",conv1,0.9470000267028809
113,"PyTorchCNN(
  (conv1): Conv2d(1, 16, kernel_size=(3, 3), stride=(1, 1), padding=(1, 1))
  (relu1): ReLU()
  (pool1): MaxPool2d(kernel_size=2, stride=2, padding=0, dilation=1, ceil_mode=False)
  (conv2): Conv2d(16, 32, kernel_size=(3, 3), stride=(1, 1), padding=(1, 1))
  (relu2): ReLU()
  (pool2): MaxPool2d(kernel_size=2, stride=2, padding=0, dilation=1, ceil_mode=False)
  (conv3): Conv2d(32, 64, kernel_size=(3, 3), stride=(1, 1), padding=(1, 1))
  (relu3): ReLU()
  (flatten): Flatten(start_dim=1, end_dim=-1)
  (fc1): Linear(in_features=3136, out_features=3, bias=True)
  (relu4): ReLU()
  (fc2): Linear(in_features=3, out_features=1, bias=True)
  (sigmoid): Sigmoid()
)","[0, 1, 2]",conv2,0.9610000252723694
114,"PyTorchCNN(
  (conv1): Conv2d(1, 16, kernel_size=(3, 3), stride=(1, 1), padding=(1, 1))
  (relu1): ReLU()
  (pool1): MaxPool2d(kernel_size=2, stride=2, padding=0, dilation=1, ceil_mode=False)
  (conv2): Conv2d(16, 32, kernel_size=(3, 3), stride=(1, 1), padding=(1, 1))
  (relu2): ReLU()
  (pool2): MaxPool2d(kernel_size=2, stride=2, padding=0, dilation=1, ceil_mode=False)
  (conv3): Conv2d(32, 64, kernel_size=(3, 3), stride=(1, 1), padding=(1, 1))
  (relu3): ReLU()
  (flatten): Flatten(start_dim=1, end_dim=-1)
  (fc1): Linear(in_features=3136, out_features=3, bias=True)
  (relu4): ReLU()
  (fc2): Linear(in_features=3, out_features=1, bias=True)
  (sigmoid): Sigmoid()
)","[0, 1, 2]",conv3,0.9380000233650208
115,"PyTorchCNN(
  (conv1): Conv2d(1, 16, kernel_size=(3, 3), stride=(1, 1), padding=(1, 1))
  (relu1): ReLU()
  (pool1): MaxPool2d(kernel_size=2, stride=2, padding=0, dilation=1, ceil_mode=False)
  (conv2): Conv2d(16, 32, kernel_size=(3, 3), stride=(1, 1), padding=(1, 1))
  (relu2): ReLU()
  (pool2): MaxPool2d(kernel_size=2, stride=2, padding=0, dilation=1, ceil_mode=False)
  (conv3): Conv2d(32, 64, kernel_size=(3, 3), stride=(1, 1), padding=(1, 1))
  (relu3): ReLU()
  (flatten): Flatten(start_dim=1, end_dim=-1)
  (fc1): Linear(in_features=3136, out_features=3, bias=True)
  (relu4): ReLU()
  (fc2): Linear(in_features=3, out_features=1, bias=True)
  (sigmoid): Sigmoid()
)","[0, 1, 2]",fc1,0.9089999794960022
116,"PyTorchCNN(
  (conv1): Conv2d(1, 16, kernel_size=(3, 3), stride=(1, 1), padding=(1, 1))
  (relu1): ReLU()
  (pool1): MaxPool2d(kernel_size=2, stride=2, padding=0, dilation=1, ceil_mode=False)
  (conv2): Conv2d(16, 32, kernel_size=(3, 3), stride=(1, 1), padding=(1, 1))
  (relu2): ReLU()
  (pool2): MaxPool2d(kernel_size=2, stride=2, padding=0, dilation=1, ceil_mode=False)
  (conv3): Conv2d(32, 64, kernel_size=(3, 3), stride=(1, 1), padding=(1, 1))
  (relu3): ReLU()
  (flatten): Flatten(start_dim=1, end_dim=-1)
  (fc1): Linear(in_features=3136, out_features=3, bias=True)
  (relu4): ReLU()
  (fc2): Linear(in_features=3, out_features=1, bias=True)
  (sigmoid): Sigmoid()
)","[0, 1]",conv1,0.9309999942779541
117,"PyTorchCNN(
  (conv1): Conv2d(1, 16, kernel_size=(3, 3), stride=(1, 1), padding=(1, 1))
  (relu1): ReLU()
  (pool1): MaxPool2d(kernel_size=2, stride=2, padding=0, dilation=1, ceil_mode=False)
  (conv2): Conv2d(16, 32, kernel_size=(3, 3), stride=(1, 1), padding=(1, 1))
  (relu2): ReLU()
  (pool2): MaxPool2d(kernel_size=2, stride=2, padding=0, dilation=1, ceil_mode=False)
  (conv3): Conv2d(32, 64, kernel_size=(3, 3), stride=(1, 1), padding=(1, 1))
  (relu3): ReLU()
  (flatten): Flatten(start_dim=1, end_dim=-1)
  (fc1): Linear(in_features=3136, out_features=3, bias=True)
  (relu4): ReLU()
  (fc2): Linear(in_features=3, out_features=1, bias=True)
  (sigmoid): Sigmoid()
)","[0, 1]",conv2,0.9049999713897705
118,"PyTorchCNN(
  (conv1): Conv2d(1, 16, kernel_size=(3, 3), stride=(1, 1), padding=(1, 1))
  (relu1): ReLU()
  (pool1): MaxPool2d(kernel_size=2, stride=2, padding=0, dilation=1, ceil_mode=False)
  (conv2): Conv2d(16, 32, kernel_size=(3, 3), stride=(1, 1), padding=(1, 1))
  (relu2): ReLU()
  (pool2): MaxPool2d(kernel_size=2, stride=2, padding=0, dilation=1, ceil_mode=False)
  (conv3): Conv2d(32, 64, kernel_size=(3, 3), stride=(1, 1), padding=(1, 1))
  (relu3): ReLU()
  (flatten): Flatten(start_dim=1, end_dim=-1)
  (fc1): Linear(in_features=3136, out_features=3, bias=True)
  (relu4): ReLU()
  (fc2): Linear(in_features=3, out_features=1, bias=True)
  (sigmoid): Sigmoid()
)","[0, 1]",conv3,0.8930000066757202
119,"PyTorchCNN(
  (conv1): Conv2d(1, 16, kernel_size=(3, 3), stride=(1, 1), padding=(1, 1))
  (relu1): ReLU()
  (pool1): MaxPool2d(kernel_size=2, stride=2, padding=0, dilation=1, ceil_mode=False)
  (conv2): Conv2d(16, 32, kernel_size=(3, 3), stride=(1, 1), padding=(1, 1))
  (relu2): ReLU()
  (pool2): MaxPool2d(kernel_size=2, stride=2, padding=0, dilation=1, ceil_mode=False)
  (conv3): Conv2d(32, 64, kernel_size=(3, 3), stride=(1, 1), padding=(1, 1))
  (relu3): ReLU()
  (flatten): Flatten(start_dim=1, end_dim=-1)
  (fc1): Linear(in_features=3136, out_features=3, bias=True)
  (relu4): ReLU()
  (fc2): Linear(in_features=3, out_features=1, bias=True)
  (sigmoid): Sigmoid()
)","[0, 1]",fc1,0.7120000123977661
120,"PyTorchCNN(
  (conv1): Conv2d(1, 16, kernel_size=(3, 3), stride=(1, 1), padding=(1, 1))
  (relu1): ReLU()
  (pool1): MaxPool2d(kernel_size=2, stride=2, padding=0, dilation=1, ceil_mode=False)
  (conv2): Conv2d(16, 32, kernel_size=(3, 3), stride=(1, 1), padding=(1, 1))
  (relu2): ReLU()
  (pool2): MaxPool2d(kernel_size=2, stride=2, padding=0, dilation=1, ceil_mode=False)
  (conv3): Conv2d(32, 64, kernel_size=(3, 3), stride=(1, 1), padding=(1, 1))
  (relu3): ReLU()
  (flatten): Flatten(start_dim=1, end_dim=-1)
  (fc1): Linear(in_features=3136, out_features=3, bias=True)
  (relu4): ReLU()
  (fc2): Linear(in_features=3, out_features=1, bias=True)
  (sigmoid): Sigmoid()
)","[0, 2]",conv1,0.9480000138282776
121,"PyTorchCNN(
  (conv1): Conv2d(1, 16, kernel_size=(3, 3), stride=(1, 1), padding=(1, 1))
  (relu1): ReLU()
  (pool1): MaxPool2d(kernel_size=2, stride=2, padding=0, dilation=1, ceil_mode=False)
  (conv2): Conv2d(16, 32, kernel_size=(3, 3), stride=(1, 1), padding=(1, 1))
  (relu2): ReLU()
  (pool2): MaxPool2d(kernel_size=2, stride=2, padding=0, dilation=1, ceil_mode=False)
  (conv3): Conv2d(32, 64, kernel_size=(3, 3), stride=(1, 1), padding=(1, 1))
  (relu3): ReLU()
  (flatten): Flatten(start_dim=1, end_dim=-1)
  (fc1): Linear(in_features=3136, out_features=3, bias=True)
  (relu4): ReLU()
  (fc2): Linear(in_features=3, out_features=1, bias=True)
  (sigmoid): Sigmoid()
)","[0, 2]",conv2,0.9430000185966492
122,"PyTorchCNN(
  (conv1): Conv2d(1, 16, kernel_size=(3, 3), stride=(1, 1), padding=(1, 1))
  (relu1): ReLU()
  (pool1): MaxPool2d(kernel_size=2, stride=2, padding=0, dilation=1, ceil_mode=False)
  (conv2): Conv2d(16, 32, kernel_size=(3, 3), stride=(1, 1), padding=(1, 1))
  (relu2): ReLU()
  (pool2): MaxPool2d(kernel_size=2, stride=2, padding=0, dilation=1, ceil_mode=False)
  (conv3): Conv2d(32, 64, kernel_size=(3, 3), stride=(1, 1), padding=(1, 1))
  (relu3): ReLU()
  (flatten): Flatten(start_dim=1, end_dim=-1)
  (fc1): Linear(in_features=3136, out_features=3, bias=True)
  (relu4): ReLU()
  (fc2): Linear(in_features=3, out_features=1, bias=True)
  (sigmoid): Sigmoid()
)","[0, 2]",conv3,0.9229999780654907
123,"PyTorchCNN(
  (conv1): Conv2d(1, 16, kernel_size=(3, 3), stride=(1, 1), padding=(1, 1))
  (relu1): ReLU()
  (pool1): MaxPool2d(kernel_size=2, stride=2, padding=0, dilation=1, ceil_mode=False)
  (conv2): Conv2d(16, 32, kernel_size=(3, 3), stride=(1, 1), padding=(1, 1))
  (relu2): ReLU()
  (pool2): MaxPool2d(kernel_size=2, stride=2, padding=0, dilation=1, ceil_mode=False)
  (conv3): Conv2d(32, 64, kernel_size=(3, 3), stride=(1, 1), padding=(1, 1))
  (relu3): ReLU()
  (flatten): Flatten(start_dim=1, end_dim=-1)
  (fc1): Linear(in_features=3136, out_features=3, bias=True)
  (relu4): ReLU()
  (fc2): Linear(in_features=3, out_features=1, bias=True)
  (sigmoid): Sigmoid()
)","[0, 2]",fc1,0.5950000286102295
124,"PyTorchCNN(
  (conv1): Conv2d(1, 16, kernel_size=(3, 3), stride=(1, 1), padding=(1, 1))
  (relu1): ReLU()
  (pool1): MaxPool2d(kernel_size=2, stride=2, padding=0, dilation=1, ceil_mode=False)
  (conv2): Conv2d(16, 32, kernel_size=(3, 3), stride=(1, 1), padding=(1, 1))
  (relu2): ReLU()
  (pool2): MaxPool2d(kernel_size=2, stride=2, padding=0, dilation=1, ceil_mode=False)
  (conv3): Conv2d(32, 64, kernel_size=(3, 3), stride=(1, 1), padding=(1, 1))
  (relu3): ReLU()
  (flatten): Flatten(start_dim=1, end_dim=-1)
  (fc1): Linear(in_features=3136, out_features=3, bias=True)
  (relu4): ReLU()
  (fc2): Linear(in_features=3, out_features=1, bias=True)
  (sigmoid): Sigmoid()
)","[1, 2]",conv1,0.9229999780654907
125,"PyTorchCNN(
  (conv1): Conv2d(1, 16, kernel_size=(3, 3), stride=(1, 1), padding=(1, 1))
  (relu1): ReLU()
  (pool1): MaxPool2d(kernel_size=2, stride=2, padding=0, dilation=1, ceil_mode=False)
  (conv2): Conv2d(16, 32, kernel_size=(3, 3), stride=(1, 1), padding=(1, 1))
  (relu2): ReLU()
  (pool2): MaxPool2d(kernel_size=2, stride=2, padding=0, dilation=1, ceil_mode=False)
  (conv3): Conv2d(32, 64, kernel_size=(3, 3), stride=(1, 1), padding=(1, 1))
  (relu3): ReLU()
  (flatten): Flatten(start_dim=1, end_dim=-1)
  (fc1): Linear(in_features=3136, out_features=3, bias=True)
  (relu4): ReLU()
  (fc2): Linear(in_features=3, out_features=1, bias=True)
  (sigmoid): Sigmoid()
)","[1, 2]",conv2,0.9089999794960022
126,"PyTorchCNN(
  (conv1): Conv2d(1, 16, kernel_size=(3, 3), stride=(1, 1), padding=(1, 1))
  (relu1): ReLU()
  (pool1): MaxPool2d(kernel_size=2, stride=2, padding=0, dilation=1, ceil_mode=False)
  (conv2): Conv2d(16, 32, kernel_size=(3, 3), stride=(1, 1), padding=(1, 1))
  (relu2): ReLU()
  (pool2): MaxPool2d(kernel_size=2, stride=2, padding=0, dilation=1, ceil_mode=False)
  (conv3): Conv2d(32, 64, kernel_size=(3, 3), stride=(1, 1), padding=(1, 1))
  (relu3): ReLU()
  (flatten): Flatten(start_dim=1, end_dim=-1)
  (fc1): Linear(in_features=3136, out_features=3, bias=True)
  (relu4): ReLU()
  (fc2): Linear(in_features=3, out_features=1, bias=True)
  (sigmoid): Sigmoid()
)","[1, 2]",conv3,0.9039999842643738
127,"PyTorchCNN(
  (conv1): Conv2d(1, 16, kernel_size=(3, 3), stride=(1, 1), padding=(1, 1))
  (relu1): ReLU()
  (pool1): MaxPool2d(kernel_size=2, stride=2, padding=0, dilation=1, ceil_mode=False)
  (conv2): Conv2d(16, 32, kernel_size=(3, 3), stride=(1, 1), padding=(1, 1))
  (relu2): ReLU()
  (pool2): MaxPool2d(kernel_size=2, stride=2, padding=0, dilation=1, ceil_mode=False)
  (conv3): Conv2d(32, 64, kernel_size=(3, 3), stride=(1, 1), padding=(1, 1))
  (relu3): ReLU()
  (flatten): Flatten(start_dim=1, end_dim=-1)
  (fc1): Linear(in_features=3136, out_features=3, bias=True)
  (relu4): ReLU()
  (fc2): Linear(in_features=3, out_features=1, bias=True)
  (sigmoid): Sigmoid()
)","[1, 2]",fc1,0.8090000152587891
128,"PyTorchCNN(
  (conv1): Conv2d(1, 16, kernel_size=(3, 3), stride=(1, 1), padding=(1, 1))
  (relu1): ReLU()
  (pool1): MaxPool2d(kernel_size=2, stride=2, padding=0, dilation=1, ceil_mode=False)
  (conv2): Conv2d(16, 32, kernel_size=(3, 3), stride=(1, 1), padding=(1, 1))
  (relu2): ReLU()
  (pool2): MaxPool2d(kernel_size=2, stride=2, padding=0, dilation=1, ceil_mode=False)
  (conv3): Conv2d(32, 64, kernel_size=(3, 3), stride=(1, 1), padding=(1, 1))
  (relu3): ReLU()
  (flatten): Flatten(start_dim=1, end_dim=-1)
  (fc1): Linear(in_features=3136, out_features=3, bias=True)
  (relu4): ReLU()
  (fc2): Linear(in_features=3, out_features=1, bias=True)
  (sigmoid): Sigmoid()
)",[0],conv1,0.9279999732971191
129,"PyTorchCNN(
  (conv1): Conv2d(1, 16, kernel_size=(3, 3), stride=(1, 1), padding=(1, 1))
  (relu1): ReLU()
  (pool1): MaxPool2d(kernel_size=2, stride=2, padding=0, dilation=1, ceil_mode=False)
  (conv2): Conv2d(16, 32, kernel_size=(3, 3), stride=(1, 1), padding=(1, 1))
  (relu2): ReLU()
  (pool2): MaxPool2d(kernel_size=2, stride=2, padding=0, dilation=1, ceil_mode=False)
  (conv3): Conv2d(32, 64, kernel_size=(3, 3), stride=(1, 1), padding=(1, 1))
  (relu3): ReLU()
  (flatten): Flatten(start_dim=1, end_dim=-1)
  (fc1): Linear(in_features=3136, out_features=3, bias=True)
  (relu4): ReLU()
  (fc2): Linear(in_features=3, out_features=1, bias=True)
  (sigmoid): Sigmoid()
)",[0],conv2,0.9350000023841858
130,"PyTorchCNN(
  (conv1): Conv2d(1, 16, kernel_size=(3, 3), stride=(1, 1), padding=(1, 1))
  (relu1): ReLU()
  (pool1): MaxPool2d(kernel_size=2, stride=2, padding=0, dilation=1, ceil_mode=False)
  (conv2): Conv2d(16, 32, kernel_size=(3, 3), stride=(1, 1), padding=(1, 1))
  (relu2): ReLU()
  (pool2): MaxPool2d(kernel_size=2, stride=2, padding=0, dilation=1, ceil_mode=False)
  (conv3): Conv2d(32, 64, kernel_size=(3, 3), stride=(1, 1), padding=(1, 1))
  (relu3): ReLU()
  (flatten): Flatten(start_dim=1, end_dim=-1)
  (fc1): Linear(in_features=3136, out_features=3, bias=True)
  (relu4): ReLU()
  (fc2): Linear(in_features=3, out_features=1, bias=True)
  (sigmoid): Sigmoid()
)",[0],conv3,0.9279999732971191
131,"PyTorchCNN(
  (conv1): Conv2d(1, 16, kernel_size=(3, 3), stride=(1, 1), padding=(1, 1))
  (relu1): ReLU()
  (pool1): MaxPool2d(kernel_size=2, stride=2, padding=0, dilation=1, ceil_mode=False)
  (conv2): Conv2d(16, 32, kernel_size=(3, 3), stride=(1, 1), padding=(1, 1))
  (relu2): ReLU()
  (pool2): MaxPool2d(kernel_size=2, stride=2, padding=0, dilation=1, ceil_mode=False)
  (conv3): Conv2d(32, 64, kernel_size=(3, 3), stride=(1, 1), padding=(1, 1))
  (relu3): ReLU()
  (flatten): Flatten(start_dim=1, end_dim=-1)
  (fc1): Linear(in_features=3136, out_features=3, bias=True)
  (relu4): ReLU()
  (fc2): Linear(in_features=3, out_features=1, bias=True)
  (sigmoid): Sigmoid()
)",[0],fc1,0.8360000252723694
132,"PyTorchCNN(
  (conv1): Conv2d(1, 16, kernel_size=(3, 3), stride=(1, 1), padding=(1, 1))
  (relu1): ReLU()
  (pool1): MaxPool2d(kernel_size=2, stride=2, padding=0, dilation=1, ceil_mode=False)
  (conv2): Conv2d(16, 32, kernel_size=(3, 3), stride=(1, 1), padding=(1, 1))
  (relu2): ReLU()
  (pool2): MaxPool2d(kernel_size=2, stride=2, padding=0, dilation=1, ceil_mode=False)
  (conv3): Conv2d(32, 64, kernel_size=(3, 3), stride=(1, 1), padding=(1, 1))
  (relu3): ReLU()
  (flatten): Flatten(start_dim=1, end_dim=-1)
  (fc1): Linear(in_features=3136, out_features=3, bias=True)
  (relu4): ReLU()
  (fc2): Linear(in_features=3, out_features=1, bias=True)
  (sigmoid): Sigmoid()
)",[1],conv1,0.972000002861023
133,"PyTorchCNN(
  (conv1): Conv2d(1, 16, kernel_size=(3, 3), stride=(1, 1), padding=(1, 1))
  (relu1): ReLU()
  (pool1): MaxPool2d(kernel_size=2, stride=2, padding=0, dilation=1, ceil_mode=False)
  (conv2): Conv2d(16, 32, kernel_size=(3, 3), stride=(1, 1), padding=(1, 1))
  (relu2): ReLU()
  (pool2): MaxPool2d(kernel_size=2, stride=2, padding=0, dilation=1, ceil_mode=False)
  (conv3): Conv2d(32, 64, kernel_size=(3, 3), stride=(1, 1), padding=(1, 1))
  (relu3): ReLU()
  (flatten): Flatten(start_dim=1, end_dim=-1)
  (fc1): Linear(in_features=3136, out_features=3, bias=True)
  (relu4): ReLU()
  (fc2): Linear(in_features=3, out_features=1, bias=True)
  (sigmoid): Sigmoid()
)",[1],conv2,0.949999988079071
134,"PyTorchCNN(
  (conv1): Conv2d(1, 16, kernel_size=(3, 3), stride=(1, 1), padding=(1, 1))
  (relu1): ReLU()
  (pool1): MaxPool2d(kernel_size=2, stride=2, padding=0, dilation=1, ceil_mode=False)
  (conv2): Conv2d(16, 32, kernel_size=(3, 3), stride=(1, 1), padding=(1, 1))
  (relu2): ReLU()
  (pool2): MaxPool2d(kernel_size=2, stride=2, padding=0, dilation=1, ceil_mode=False)
  (conv3): Conv2d(32, 64, kernel_size=(3, 3), stride=(1, 1), padding=(1, 1))
  (relu3): ReLU()
  (flatten): Flatten(start_dim=1, end_dim=-1)
  (fc1): Linear(in_features=3136, out_features=3, bias=True)
  (relu4): ReLU()
  (fc2): Linear(in_features=3, out_features=1, bias=True)
  (sigmoid): Sigmoid()
)",[1],conv3,0.9380000233650208
135,"PyTorchCNN(
  (conv1): Conv2d(1, 16, kernel_size=(3, 3), stride=(1, 1), padding=(1, 1))
  (relu1): ReLU()
  (pool1): MaxPool2d(kernel_size=2, stride=2, padding=0, dilation=1, ceil_mode=False)
  (conv2): Conv2d(16, 32, kernel_size=(3, 3), stride=(1, 1), padding=(1, 1))
  (relu2): ReLU()
  (pool2): MaxPool2d(kernel_size=2, stride=2, padding=0, dilation=1, ceil_mode=False)
  (conv3): Conv2d(32, 64, kernel_size=(3, 3), stride=(1, 1), padding=(1, 1))
  (relu3): ReLU()
  (flatten): Flatten(start_dim=1, end_dim=-1)
  (fc1): Linear(in_features=3136, out_features=3, bias=True)
  (relu4): ReLU()
  (fc2): Linear(in_features=3, out_features=1, bias=True)
  (sigmoid): Sigmoid()
)",[1],fc1,0.5899999737739563
136,"PyTorchCNN(
  (conv1): Conv2d(1, 16, kernel_size=(3, 3), stride=(1, 1), padding=(1, 1))
  (relu1): ReLU()
  (pool1): MaxPool2d(kernel_size=2, stride=2, padding=0, dilation=1, ceil_mode=False)
  (conv2): Conv2d(16, 32, kernel_size=(3, 3), stride=(1, 1), padding=(1, 1))
  (relu2): ReLU()
  (pool2): MaxPool2d(kernel_size=2, stride=2, padding=0, dilation=1, ceil_mode=False)
  (conv3): Conv2d(32, 64, kernel_size=(3, 3), stride=(1, 1), padding=(1, 1))
  (relu3): ReLU()
  (flatten): Flatten(start_dim=1, end_dim=-1)
  (fc1): Linear(in_features=3136, out_features=3, bias=True)
  (relu4): ReLU()
  (fc2): Linear(in_features=3, out_features=1, bias=True)
  (sigmoid): Sigmoid()
)",[2],conv1,0.9350000023841858
137,"PyTorchCNN(
  (conv1): Conv2d(1, 16, kernel_size=(3, 3), stride=(1, 1), padding=(1, 1))
  (relu1): ReLU()
  (pool1): MaxPool2d(kernel_size=2, stride=2, padding=0, dilation=1, ceil_mode=False)
  (conv2): Conv2d(16, 32, kernel_size=(3, 3), stride=(1, 1), padding=(1, 1))
  (relu2): ReLU()
  (pool2): MaxPool2d(kernel_size=2, stride=2, padding=0, dilation=1, ceil_mode=False)
  (conv3): Conv2d(32, 64, kernel_size=(3, 3), stride=(1, 1), padding=(1, 1))
  (relu3): ReLU()
  (flatten): Flatten(start_dim=1, end_dim=-1)
  (fc1): Linear(in_features=3136, out_features=3, bias=True)
  (relu4): ReLU()
  (fc2): Linear(in_features=3, out_features=1, bias=True)
  (sigmoid): Sigmoid()
)",[2],conv2,0.9340000152587891
138,"PyTorchCNN(
  (conv1): Conv2d(1, 16, kernel_size=(3, 3), stride=(1, 1), padding=(1, 1))
  (relu1): ReLU()
  (pool1): MaxPool2d(kernel_size=2, stride=2, padding=0, dilation=1, ceil_mode=False)
  (conv2): Conv2d(16, 32, kernel_size=(3, 3), stride=(1, 1), padding=(1, 1))
  (relu2): ReLU()
  (pool2): MaxPool2d(kernel_size=2, stride=2, padding=0, dilation=1, ceil_mode=False)
  (conv3): Conv2d(32, 64, kernel_size=(3, 3), stride=(1, 1), padding=(1, 1))
  (relu3): ReLU()
  (flatten): Flatten(start_dim=1, end_dim=-1)
  (fc1): Linear(in_features=3136, out_features=3, bias=True)
  (relu4): ReLU()
  (fc2): Linear(in_features=3, out_features=1, bias=True)
  (sigmoid): Sigmoid()
)",[2],conv3,0.9100000262260437
139,"PyTorchCNN(
  (conv1): Conv2d(1, 16, kernel_size=(3, 3), stride=(1, 1), padding=(1, 1))
  (relu1): ReLU()
  (pool1): MaxPool2d(kernel_size=2, stride=2, padding=0, dilation=1, ceil_mode=False)
  (conv2): Conv2d(16, 32, kernel_size=(3, 3), stride=(1, 1), padding=(1, 1))
  (relu2): ReLU()
  (pool2): MaxPool2d(kernel_size=2, stride=2, padding=0, dilation=1, ceil_mode=False)
  (conv3): Conv2d(32, 64, kernel_size=(3, 3), stride=(1, 1), padding=(1, 1))
  (relu3): ReLU()
  (flatten): Flatten(start_dim=1, end_dim=-1)
  (fc1): Linear(in_features=3136, out_features=3, bias=True)
  (relu4): ReLU()
  (fc2): Linear(in_features=3, out_features=1, bias=True)
  (sigmoid): Sigmoid()
)",[2],fc1,0.6629999876022339
140,"PyTorchCNN(
  (conv1): Conv2d(1, 16, kernel_size=(3, 3), stride=(1, 1), padding=(1, 1))
  (relu1): ReLU()
  (pool1): MaxPool2d(kernel_size=2, stride=2, padding=0, dilation=1, ceil_mode=False)
  (conv2): Conv2d(16, 32, kernel_size=(3, 3), stride=(1, 1), padding=(1, 1))
  (relu2): ReLU()
  (pool2): MaxPool2d(kernel_size=2, stride=2, padding=0, dilation=1, ceil_mode=False)
  (conv3): Conv2d(32, 64, kernel_size=(3, 3), stride=(1, 1), padding=(1, 1))
  (relu3): ReLU()
  (flatten): Flatten(start_dim=1, end_dim=-1)
  (fc1): Linear(in_features=3136, out_features=3, bias=True)
  (relu4): ReLU()
  (fc2): Linear(in_features=3, out_features=1, bias=True)
  (sigmoid): Sigmoid()
)","[0, 1, 2]",conv1,0.9449999928474426
141,"PyTorchCNN(
  (conv1): Conv2d(1, 16, kernel_size=(3, 3), stride=(1, 1), padding=(1, 1))
  (relu1): ReLU()
  (pool1): MaxPool2d(kernel_size=2, stride=2, padding=0, dilation=1, ceil_mode=False)
  (conv2): Conv2d(16, 32, kernel_size=(3, 3), stride=(1, 1), padding=(1, 1))
  (relu2): ReLU()
  (pool2): MaxPool2d(kernel_size=2, stride=2, padding=0, dilation=1, ceil_mode=False)
  (conv3): Conv2d(32, 64, kernel_size=(3, 3), stride=(1, 1), padding=(1, 1))
  (relu3): ReLU()
  (flatten): Flatten(start_dim=1, end_dim=-1)
  (fc1): Linear(in_features=3136, out_features=3, bias=True)
  (relu4): ReLU()
  (fc2): Linear(in_features=3, out_features=1, bias=True)
  (sigmoid): Sigmoid()
)","[0, 1, 2]",conv2,0.9160000085830688
142,"PyTorchCNN(
  (conv1): Conv2d(1, 16, kernel_size=(3, 3), stride=(1, 1), padding=(1, 1))
  (relu1): ReLU()
  (pool1): MaxPool2d(kernel_size=2, stride=2, padding=0, dilation=1, ceil_mode=False)
  (conv2): Conv2d(16, 32, kernel_size=(3, 3), stride=(1, 1), padding=(1, 1))
  (relu2): ReLU()
  (pool2): MaxPool2d(kernel_size=2, stride=2, padding=0, dilation=1, ceil_mode=False)
  (conv3): Conv2d(32, 64, kernel_size=(3, 3), stride=(1, 1), padding=(1, 1))
  (relu3): ReLU()
  (flatten): Flatten(start_dim=1, end_dim=-1)
  (fc1): Linear(in_features=3136, out_features=3, bias=True)
  (relu4): ReLU()
  (fc2): Linear(in_features=3, out_features=1, bias=True)
  (sigmoid): Sigmoid()
)","[0, 1, 2]",conv3,0.9210000038146973
143,"PyTorchCNN(
  (conv1): Conv2d(1, 16, kernel_size=(3, 3), stride=(1, 1), padding=(1, 1))
  (relu1): ReLU()
  (pool1): MaxPool2d(kernel_size=2, stride=2, padding=0, dilation=1, ceil_mode=False)
  (conv2): Conv2d(16, 32, kernel_size=(3, 3), stride=(1, 1), padding=(1, 1))
  (relu2): ReLU()
  (pool2): MaxPool2d(kernel_size=2, stride=2, padding=0, dilation=1, ceil_mode=False)
  (conv3): Conv2d(32, 64, kernel_size=(3, 3), stride=(1, 1), padding=(1, 1))
  (relu3): ReLU()
  (flatten): Flatten(start_dim=1, end_dim=-1)
  (fc1): Linear(in_features=3136, out_features=3, bias=True)
  (relu4): ReLU()
  (fc2): Linear(in_features=3, out_features=1, bias=True)
  (sigmoid): Sigmoid()
)","[0, 1, 2]",fc1,0.8980000019073486
144,"PyTorchCNN(
  (conv1): Conv2d(1, 16, kernel_size=(3, 3), stride=(1, 1), padding=(1, 1))
  (relu1): ReLU()
  (pool1): MaxPool2d(kernel_size=2, stride=2, padding=0, dilation=1, ceil_mode=False)
  (conv2): Conv2d(16, 32, kernel_size=(3, 3), stride=(1, 1), padding=(1, 1))
  (relu2): ReLU()
  (pool2): MaxPool2d(kernel_size=2, stride=2, padding=0, dilation=1, ceil_mode=False)
  (conv3): Conv2d(32, 64, kernel_size=(3, 3), stride=(1, 1), padding=(1, 1))
  (relu3): ReLU()
  (flatten): Flatten(start_dim=1, end_dim=-1)
  (fc1): Linear(in_features=3136, out_features=3, bias=True)
  (relu4): ReLU()
  (fc2): Linear(in_features=3, out_features=1, bias=True)
  (sigmoid): Sigmoid()
)","[0, 1]",conv1,0.9240000247955322
145,"PyTorchCNN(
  (conv1): Conv2d(1, 16, kernel_size=(3, 3), stride=(1, 1), padding=(1, 1))
  (relu1): ReLU()
  (pool1): MaxPool2d(kernel_size=2, stride=2, padding=0, dilation=1, ceil_mode=False)
  (conv2): Conv2d(16, 32, kernel_size=(3, 3), stride=(1, 1), padding=(1, 1))
  (relu2): ReLU()
  (pool2): MaxPool2d(kernel_size=2, stride=2, padding=0, dilation=1, ceil_mode=False)
  (conv3): Conv2d(32, 64, kernel_size=(3, 3), stride=(1, 1), padding=(1, 1))
  (relu3): ReLU()
  (flatten): Flatten(start_dim=1, end_dim=-1)
  (fc1): Linear(in_features=3136, out_features=3, bias=True)
  (relu4): ReLU()
  (fc2): Linear(in_features=3, out_features=1, bias=True)
  (sigmoid): Sigmoid()
)","[0, 1]",conv2,0.925000011920929
146,"PyTorchCNN(
  (conv1): Conv2d(1, 16, kernel_size=(3, 3), stride=(1, 1), padding=(1, 1))
  (relu1): ReLU()
  (pool1): MaxPool2d(kernel_size=2, stride=2, padding=0, dilation=1, ceil_mode=False)
  (conv2): Conv2d(16, 32, kernel_size=(3, 3), stride=(1, 1), padding=(1, 1))
  (relu2): ReLU()
  (pool2): MaxPool2d(kernel_size=2, stride=2, padding=0, dilation=1, ceil_mode=False)
  (conv3): Conv2d(32, 64, kernel_size=(3, 3), stride=(1, 1), padding=(1, 1))
  (relu3): ReLU()
  (flatten): Flatten(start_dim=1, end_dim=-1)
  (fc1): Linear(in_features=3136, out_features=3, bias=True)
  (relu4): ReLU()
  (fc2): Linear(in_features=3, out_features=1, bias=True)
  (sigmoid): Sigmoid()
)","[0, 1]",conv3,0.9079999923706055
147,"PyTorchCNN(
  (conv1): Conv2d(1, 16, kernel_size=(3, 3), stride=(1, 1), padding=(1, 1))
  (relu1): ReLU()
  (pool1): MaxPool2d(kernel_size=2, stride=2, padding=0, dilation=1, ceil_mode=False)
  (conv2): Conv2d(16, 32, kernel_size=(3, 3), stride=(1, 1), padding=(1, 1))
  (relu2): ReLU()
  (pool2): MaxPool2d(kernel_size=2, stride=2, padding=0, dilation=1, ceil_mode=False)
  (conv3): Conv2d(32, 64, kernel_size=(3, 3), stride=(1, 1), padding=(1, 1))
  (relu3): ReLU()
  (flatten): Flatten(start_dim=1, end_dim=-1)
  (fc1): Linear(in_features=3136, out_features=3, bias=True)
  (relu4): ReLU()
  (fc2): Linear(in_features=3, out_features=1, bias=True)
  (sigmoid): Sigmoid()
)","[0, 1]",fc1,0.5460000038146973
148,"PyTorchCNN(
  (conv1): Conv2d(1, 16, kernel_size=(3, 3), stride=(1, 1), padding=(1, 1))
  (relu1): ReLU()
  (pool1): MaxPool2d(kernel_size=2, stride=2, padding=0, dilation=1, ceil_mode=False)
  (conv2): Conv2d(16, 32, kernel_size=(3, 3), stride=(1, 1), padding=(1, 1))
  (relu2): ReLU()
  (pool2): MaxPool2d(kernel_size=2, stride=2, padding=0, dilation=1, ceil_mode=False)
  (conv3): Conv2d(32, 64, kernel_size=(3, 3), stride=(1, 1), padding=(1, 1))
  (relu3): ReLU()
  (flatten): Flatten(start_dim=1, end_dim=-1)
  (fc1): Linear(in_features=3136, out_features=3, bias=True)
  (relu4): ReLU()
  (fc2): Linear(in_features=3, out_features=1, bias=True)
  (sigmoid): Sigmoid()
)","[0, 2]",conv1,0.9190000295639038
149,"PyTorchCNN(
  (conv1): Conv2d(1, 16, kernel_size=(3, 3), stride=(1, 1), padding=(1, 1))
  (relu1): ReLU()
  (pool1): MaxPool2d(kernel_size=2, stride=2, padding=0, dilation=1, ceil_mode=False)
  (conv2): Conv2d(16, 32, kernel_size=(3, 3), stride=(1, 1), padding=(1, 1))
  (relu2): ReLU()
  (pool2): MaxPool2d(kernel_size=2, stride=2, padding=0, dilation=1, ceil_mode=False)
  (conv3): Conv2d(32, 64, kernel_size=(3, 3), stride=(1, 1), padding=(1, 1))
  (relu3): ReLU()
  (flatten): Flatten(start_dim=1, end_dim=-1)
  (fc1): Linear(in_features=3136, out_features=3, bias=True)
  (relu4): ReLU()
  (fc2): Linear(in_features=3, out_features=1, bias=True)
  (sigmoid): Sigmoid()
)","[0, 2]",conv2,0.9049999713897705
150,"PyTorchCNN(
  (conv1): Conv2d(1, 16, kernel_size=(3, 3), stride=(1, 1), padding=(1, 1))
  (relu1): ReLU()
  (pool1): MaxPool2d(kernel_size=2, stride=2, padding=0, dilation=1, ceil_mode=False)
  (conv2): Conv2d(16, 32, kernel_size=(3, 3), stride=(1, 1), padding=(1, 1))
  (relu2): ReLU()
  (pool2): MaxPool2d(kernel_size=2, stride=2, padding=0, dilation=1, ceil_mode=False)
  (conv3): Conv2d(32, 64, kernel_size=(3, 3), stride=(1, 1), padding=(1, 1))
  (relu3): ReLU()
  (flatten): Flatten(start_dim=1, end_dim=-1)
  (fc1): Linear(in_features=3136, out_features=3, bias=True)
  (relu4): ReLU()
  (fc2): Linear(in_features=3, out_features=1, bias=True)
  (sigmoid): Sigmoid()
)","[0, 2]",conv3,0.9010000228881836
151,"PyTorchCNN(
  (conv1): Conv2d(1, 16, kernel_size=(3, 3), stride=(1, 1), padding=(1, 1))
  (relu1): ReLU()
  (pool1): MaxPool2d(kernel_size=2, stride=2, padding=0, dilation=1, ceil_mode=False)
  (conv2): Conv2d(16, 32, kernel_size=(3, 3), stride=(1, 1), padding=(1, 1))
  (relu2): ReLU()
  (pool2): MaxPool2d(kernel_size=2, stride=2, padding=0, dilation=1, ceil_mode=False)
  (conv3): Conv2d(32, 64, kernel_size=(3, 3), stride=(1, 1), padding=(1, 1))
  (relu3): ReLU()
  (flatten): Flatten(start_dim=1, end_dim=-1)
  (fc1): Linear(in_features=3136, out_features=3, bias=True)
  (relu4): ReLU()
  (fc2): Linear(in_features=3, out_features=1, bias=True)
  (sigmoid): Sigmoid()
)","[0, 2]",fc1,0.7620000243186951
152,"PyTorchCNN(
  (conv1): Conv2d(1, 16, kernel_size=(3, 3), stride=(1, 1), padding=(1, 1))
  (relu1): ReLU()
  (pool1): MaxPool2d(kernel_size=2, stride=2, padding=0, dilation=1, ceil_mode=False)
  (conv2): Conv2d(16, 32, kernel_size=(3, 3), stride=(1, 1), padding=(1, 1))
  (relu2): ReLU()
  (pool2): MaxPool2d(kernel_size=2, stride=2, padding=0, dilation=1, ceil_mode=False)
  (conv3): Conv2d(32, 64, kernel_size=(3, 3), stride=(1, 1), padding=(1, 1))
  (relu3): ReLU()
  (flatten): Flatten(start_dim=1, end_dim=-1)
  (fc1): Linear(in_features=3136, out_features=3, bias=True)
  (relu4): ReLU()
  (fc2): Linear(in_features=3, out_features=1, bias=True)
  (sigmoid): Sigmoid()
)","[1, 2]",conv1,0.9399999976158142
153,"PyTorchCNN(
  (conv1): Conv2d(1, 16, kernel_size=(3, 3), stride=(1, 1), padding=(1, 1))
  (relu1): ReLU()
  (pool1): MaxPool2d(kernel_size=2, stride=2, padding=0, dilation=1, ceil_mode=False)
  (conv2): Conv2d(16, 32, kernel_size=(3, 3), stride=(1, 1), padding=(1, 1))
  (relu2): ReLU()
  (pool2): MaxPool2d(kernel_size=2, stride=2, padding=0, dilation=1, ceil_mode=False)
  (conv3): Conv2d(32, 64, kernel_size=(3, 3), stride=(1, 1), padding=(1, 1))
  (relu3): ReLU()
  (flatten): Flatten(start_dim=1, end_dim=-1)
  (fc1): Linear(in_features=3136, out_features=3, bias=True)
  (relu4): ReLU()
  (fc2): Linear(in_features=3, out_features=1, bias=True)
  (sigmoid): Sigmoid()
)","[1, 2]",conv2,0.9319999814033508
154,"PyTorchCNN(
  (conv1): Conv2d(1, 16, kernel_size=(3, 3), stride=(1, 1), padding=(1, 1))
  (relu1): ReLU()
  (pool1): MaxPool2d(kernel_size=2, stride=2, padding=0, dilation=1, ceil_mode=False)
  (conv2): Conv2d(16, 32, kernel_size=(3, 3), stride=(1, 1), padding=(1, 1))
  (relu2): ReLU()
  (pool2): MaxPool2d(kernel_size=2, stride=2, padding=0, dilation=1, ceil_mode=False)
  (conv3): Conv2d(32, 64, kernel_size=(3, 3), stride=(1, 1), padding=(1, 1))
  (relu3): ReLU()
  (flatten): Flatten(start_dim=1, end_dim=-1)
  (fc1): Linear(in_features=3136, out_features=3, bias=True)
  (relu4): ReLU()
  (fc2): Linear(in_features=3, out_features=1, bias=True)
  (sigmoid): Sigmoid()
)","[1, 2]",conv3,0.8650000095367432
155,"PyTorchCNN(
  (conv1): Conv2d(1, 16, kernel_size=(3, 3), stride=(1, 1), padding=(1, 1))
  (relu1): ReLU()
  (pool1): MaxPool2d(kernel_size=2, stride=2, padding=0, dilation=1, ceil_mode=False)
  (conv2): Conv2d(16, 32, kernel_size=(3, 3), stride=(1, 1), padding=(1, 1))
  (relu2): ReLU()
  (pool2): MaxPool2d(kernel_size=2, stride=2, padding=0, dilation=1, ceil_mode=False)
  (conv3): Conv2d(32, 64, kernel_size=(3, 3), stride=(1, 1), padding=(1, 1))
  (relu3): ReLU()
  (flatten): Flatten(start_dim=1, end_dim=-1)
  (fc1): Linear(in_features=3136, out_features=3, bias=True)
  (relu4): ReLU()
  (fc2): Linear(in_features=3, out_features=1, bias=True)
  (sigmoid): Sigmoid()
)","[1, 2]",fc1,0.6399999856948853
156,"PyTorchCNN(
  (conv1): Conv2d(1, 16, kernel_size=(3, 3), stride=(1, 1), padding=(1, 1))
  (relu1): ReLU()
  (pool1): MaxPool2d(kernel_size=2, stride=2, padding=0, dilation=1, ceil_mode=False)
  (conv2): Conv2d(16, 32, kernel_size=(3, 3), stride=(1, 1), padding=(1, 1))
  (relu2): ReLU()
  (pool2): MaxPool2d(kernel_size=2, stride=2, padding=0, dilation=1, ceil_mode=False)
  (conv3): Conv2d(32, 64, kernel_size=(3, 3), stride=(1, 1), padding=(1, 1))
  (relu3): ReLU()
  (flatten): Flatten(start_dim=1, end_dim=-1)
  (fc1): Linear(in_features=3136, out_features=3, bias=True)
  (relu4): ReLU()
  (fc2): Linear(in_features=3, out_features=1, bias=True)
  (sigmoid): Sigmoid()
)",[0],conv1,0.9150000214576721
157,"PyTorchCNN(
  (conv1): Conv2d(1, 16, kernel_size=(3, 3), stride=(1, 1), padding=(1, 1))
  (relu1): ReLU()
  (pool1): MaxPool2d(kernel_size=2, stride=2, padding=0, dilation=1, ceil_mode=False)
  (conv2): Conv2d(16, 32, kernel_size=(3, 3), stride=(1, 1), padding=(1, 1))
  (relu2): ReLU()
  (pool2): MaxPool2d(kernel_size=2, stride=2, padding=0, dilation=1, ceil_mode=False)
  (conv3): Conv2d(32, 64, kernel_size=(3, 3), stride=(1, 1), padding=(1, 1))
  (relu3): ReLU()
  (flatten): Flatten(start_dim=1, end_dim=-1)
  (fc1): Linear(in_features=3136, out_features=3, bias=True)
  (relu4): ReLU()
  (fc2): Linear(in_features=3, out_features=1, bias=True)
  (sigmoid): Sigmoid()
)",[0],conv2,0.8999999761581421
158,"PyTorchCNN(
  (conv1): Conv2d(1, 16, kernel_size=(3, 3), stride=(1, 1), padding=(1, 1))
  (relu1): ReLU()
  (pool1): MaxPool2d(kernel_size=2, stride=2, padding=0, dilation=1, ceil_mode=False)
  (conv2): Conv2d(16, 32, kernel_size=(3, 3), stride=(1, 1), padding=(1, 1))
  (relu2): ReLU()
  (pool2): MaxPool2d(kernel_size=2, stride=2, padding=0, dilation=1, ceil_mode=False)
  (conv3): Conv2d(32, 64, kernel_size=(3, 3), stride=(1, 1), padding=(1, 1))
  (relu3): ReLU()
  (flatten): Flatten(start_dim=1, end_dim=-1)
  (fc1): Linear(in_features=3136, out_features=3, bias=True)
  (relu4): ReLU()
  (fc2): Linear(in_features=3, out_features=1, bias=True)
  (sigmoid): Sigmoid()
)",[0],conv3,0.906000018119812
159,"PyTorchCNN(
  (conv1): Conv2d(1, 16, kernel_size=(3, 3), stride=(1, 1), padding=(1, 1))
  (relu1): ReLU()
  (pool1): MaxPool2d(kernel_size=2, stride=2, padding=0, dilation=1, ceil_mode=False)
  (conv2): Conv2d(16, 32, kernel_size=(3, 3), stride=(1, 1), padding=(1, 1))
  (relu2): ReLU()
  (pool2): MaxPool2d(kernel_size=2, stride=2, padding=0, dilation=1, ceil_mode=False)
  (conv3): Conv2d(32, 64, kernel_size=(3, 3), stride=(1, 1), padding=(1, 1))
  (relu3): ReLU()
  (flatten): Flatten(start_dim=1, end_dim=-1)
  (fc1): Linear(in_features=3136, out_features=3, bias=True)
  (relu4): ReLU()
  (fc2): Linear(in_features=3, out_features=1, bias=True)
  (sigmoid): Sigmoid()
)",[0],fc1,0.6579999923706055
160,"PyTorchCNN(
  (conv1): Conv2d(1, 16, kernel_size=(3, 3), stride=(1, 1), padding=(1, 1))
  (relu1): ReLU()
  (pool1): MaxPool2d(kernel_size=2, stride=2, padding=0, dilation=1, ceil_mode=False)
  (conv2): Conv2d(16, 32, kernel_size=(3, 3), stride=(1, 1), padding=(1, 1))
  (relu2): ReLU()
  (pool2): MaxPool2d(kernel_size=2, stride=2, padding=0, dilation=1, ceil_mode=False)
  (conv3): Conv2d(32, 64, kernel_size=(3, 3), stride=(1, 1), padding=(1, 1))
  (relu3): ReLU()
  (flatten): Flatten(start_dim=1, end_dim=-1)
  (fc1): Linear(in_features=3136, out_features=3, bias=True)
  (relu4): ReLU()
  (fc2): Linear(in_features=3, out_features=1, bias=True)
  (sigmoid): Sigmoid()
)",[1],conv1,0.9570000171661377
161,"PyTorchCNN(
  (conv1): Conv2d(1, 16, kernel_size=(3, 3), stride=(1, 1), padding=(1, 1))
  (relu1): ReLU()
  (pool1): MaxPool2d(kernel_size=2, stride=2, padding=0, dilation=1, ceil_mode=False)
  (conv2): Conv2d(16, 32, kernel_size=(3, 3), stride=(1, 1), padding=(1, 1))
  (relu2): ReLU()
  (pool2): MaxPool2d(kernel_size=2, stride=2, padding=0, dilation=1, ceil_mode=False)
  (conv3): Conv2d(32, 64, kernel_size=(3, 3), stride=(1, 1), padding=(1, 1))
  (relu3): ReLU()
  (flatten): Flatten(start_dim=1, end_dim=-1)
  (fc1): Linear(in_features=3136, out_features=3, bias=True)
  (relu4): ReLU()
  (fc2): Linear(in_features=3, out_features=1, bias=True)
  (sigmoid): Sigmoid()
)",[1],conv2,0.9660000205039978
162,"PyTorchCNN(
  (conv1): Conv2d(1, 16, kernel_size=(3, 3), stride=(1, 1), padding=(1, 1))
  (relu1): ReLU()
  (pool1): MaxPool2d(kernel_size=2, stride=2, padding=0, dilation=1, ceil_mode=False)
  (conv2): Conv2d(16, 32, kernel_size=(3, 3), stride=(1, 1), padding=(1, 1))
  (relu2): ReLU()
  (pool2): MaxPool2d(kernel_size=2, stride=2, padding=0, dilation=1, ceil_mode=False)
  (conv3): Conv2d(32, 64, kernel_size=(3, 3), stride=(1, 1), padding=(1, 1))
  (relu3): ReLU()
  (flatten): Flatten(start_dim=1, end_dim=-1)
  (fc1): Linear(in_features=3136, out_features=3, bias=True)
  (relu4): ReLU()
  (fc2): Linear(in_features=3, out_features=1, bias=True)
  (sigmoid): Sigmoid()
)",[1],conv3,0.9520000219345093
163,"PyTorchCNN(
  (conv1): Conv2d(1, 16, kernel_size=(3, 3), stride=(1, 1), padding=(1, 1))
  (relu1): ReLU()
  (pool1): MaxPool2d(kernel_size=2, stride=2, padding=0, dilation=1, ceil_mode=False)
  (conv2): Conv2d(16, 32, kernel_size=(3, 3), stride=(1, 1), padding=(1, 1))
  (relu2): ReLU()
  (pool2): MaxPool2d(kernel_size=2, stride=2, padding=0, dilation=1, ceil_mode=False)
  (conv3): Conv2d(32, 64, kernel_size=(3, 3), stride=(1, 1), padding=(1, 1))
  (relu3): ReLU()
  (flatten): Flatten(start_dim=1, end_dim=-1)
  (fc1): Linear(in_features=3136, out_features=3, bias=True)
  (relu4): ReLU()
  (fc2): Linear(in_features=3, out_features=1, bias=True)
  (sigmoid): Sigmoid()
)",[1],fc1,0.7440000176429749
164,"PyTorchCNN(
  (conv1): Conv2d(1, 16, kernel_size=(3, 3), stride=(1, 1), padding=(1, 1))
  (relu1): ReLU()
  (pool1): MaxPool2d(kernel_size=2, stride=2, padding=0, dilation=1, ceil_mode=False)
  (conv2): Conv2d(16, 32, kernel_size=(3, 3), stride=(1, 1), padding=(1, 1))
  (relu2): ReLU()
  (pool2): MaxPool2d(kernel_size=2, stride=2, padding=0, dilation=1, ceil_mode=False)
  (conv3): Conv2d(32, 64, kernel_size=(3, 3), stride=(1, 1), padding=(1, 1))
  (relu3): ReLU()
  (flatten): Flatten(start_dim=1, end_dim=-1)
  (fc1): Linear(in_features=3136, out_features=3, bias=True)
  (relu4): ReLU()
  (fc2): Linear(in_features=3, out_features=1, bias=True)
  (sigmoid): Sigmoid()
)",[2],conv1,0.9559999704360962
165,"PyTorchCNN(
  (conv1): Conv2d(1, 16, kernel_size=(3, 3), stride=(1, 1), padding=(1, 1))
  (relu1): ReLU()
  (pool1): MaxPool2d(kernel_size=2, stride=2, padding=0, dilation=1, ceil_mode=False)
  (conv2): Conv2d(16, 32, kernel_size=(3, 3), stride=(1, 1), padding=(1, 1))
  (relu2): ReLU()
  (pool2): MaxPool2d(kernel_size=2, stride=2, padding=0, dilation=1, ceil_mode=False)
  (conv3): Conv2d(32, 64, kernel_size=(3, 3), stride=(1, 1), padding=(1, 1))
  (relu3): ReLU()
  (flatten): Flatten(start_dim=1, end_dim=-1)
  (fc1): Linear(in_features=3136, out_features=3, bias=True)
  (relu4): ReLU()
  (fc2): Linear(in_features=3, out_features=1, bias=True)
  (sigmoid): Sigmoid()
)",[2],conv2,0.9409999847412109
166,"PyTorchCNN(
  (conv1): Conv2d(1, 16, kernel_size=(3, 3), stride=(1, 1), padding=(1, 1))
  (relu1): ReLU()
  (pool1): MaxPool2d(kernel_size=2, stride=2, padding=0, dilation=1, ceil_mode=False)
  (conv2): Conv2d(16, 32, kernel_size=(3, 3), stride=(1, 1), padding=(1, 1))
  (relu2): ReLU()
  (pool2): MaxPool2d(kernel_size=2, stride=2, padding=0, dilation=1, ceil_mode=False)
  (conv3): Conv2d(32, 64, kernel_size=(3, 3), stride=(1, 1), padding=(1, 1))
  (relu3): ReLU()
  (flatten): Flatten(start_dim=1, end_dim=-1)
  (fc1): Linear(in_features=3136, out_features=3, bias=True)
  (relu4): ReLU()
  (fc2): Linear(in_features=3, out_features=1, bias=True)
  (sigmoid): Sigmoid()
)",[2],conv3,0.9049999713897705
167,"PyTorchCNN(
  (conv1): Conv2d(1, 16, kernel_size=(3, 3), stride=(1, 1), padding=(1, 1))
  (relu1): ReLU()
  (pool1): MaxPool2d(kernel_size=2, stride=2, padding=0, dilation=1, ceil_mode=False)
  (conv2): Conv2d(16, 32, kernel_size=(3, 3), stride=(1, 1), padding=(1, 1))
  (relu2): ReLU()
  (pool2): MaxPool2d(kernel_size=2, stride=2, padding=0, dilation=1, ceil_mode=False)
  (conv3): Conv2d(32, 64, kernel_size=(3, 3), stride=(1, 1), padding=(1, 1))
  (relu3): ReLU()
  (flatten): Flatten(start_dim=1, end_dim=-1)
  (fc1): Linear(in_features=3136, out_features=3, bias=True)
  (relu4): ReLU()
  (fc2): Linear(in_features=3, out_features=1, bias=True)
  (sigmoid): Sigmoid()
)",[2],fc1,0.5559999942779541
168,"PyTorchCNN(
  (conv1): Conv2d(1, 16, kernel_size=(3, 3), stride=(1, 1), padding=(1, 1))
  (relu1): ReLU()
  (pool1): MaxPool2d(kernel_size=2, stride=2, padding=0, dilation=1, ceil_mode=False)
  (conv2): Conv2d(16, 32, kernel_size=(3, 3), stride=(1, 1), padding=(1, 1))
  (relu2): ReLU()
  (pool2): MaxPool2d(kernel_size=2, stride=2, padding=0, dilation=1, ceil_mode=False)
  (conv3): Conv2d(32, 64, kernel_size=(3, 3), stride=(1, 1), padding=(1, 1))
  (relu3): ReLU()
  (flatten): Flatten(start_dim=1, end_dim=-1)
  (fc1): Linear(in_features=3136, out_features=3, bias=True)
  (relu4): ReLU()
  (fc2): Linear(in_features=3, out_features=1, bias=True)
  (sigmoid): Sigmoid()
)","[0, 1, 2]",conv1,0.9430000185966492
169,"PyTorchCNN(
  (conv1): Conv2d(1, 16, kernel_size=(3, 3), stride=(1, 1), padding=(1, 1))
  (relu1): ReLU()
  (pool1): MaxPool2d(kernel_size=2, stride=2, padding=0, dilation=1, ceil_mode=False)
  (conv2): Conv2d(16, 32, kernel_size=(3, 3), stride=(1, 1), padding=(1, 1))
  (relu2): ReLU()
  (pool2): MaxPool2d(kernel_size=2, stride=2, padding=0, dilation=1, ceil_mode=False)
  (conv3): Conv2d(32, 64, kernel_size=(3, 3), stride=(1, 1), padding=(1, 1))
  (relu3): ReLU()
  (flatten): Flatten(start_dim=1, end_dim=-1)
  (fc1): Linear(in_features=3136, out_features=3, bias=True)
  (relu4): ReLU()
  (fc2): Linear(in_features=3, out_features=1, bias=True)
  (sigmoid): Sigmoid()
)","[0, 1, 2]",conv2,0.9369999766349792
170,"PyTorchCNN(
  (conv1): Conv2d(1, 16, kernel_size=(3, 3), stride=(1, 1), padding=(1, 1))
  (relu1): ReLU()
  (pool1): MaxPool2d(kernel_size=2, stride=2, padding=0, dilation=1, ceil_mode=False)
  (conv2): Conv2d(16, 32, kernel_size=(3, 3), stride=(1, 1), padding=(1, 1))
  (relu2): ReLU()
  (pool2): MaxPool2d(kernel_size=2, stride=2, padding=0, dilation=1, ceil_mode=False)
  (conv3): Conv2d(32, 64, kernel_size=(3, 3), stride=(1, 1), padding=(1, 1))
  (relu3): ReLU()
  (flatten): Flatten(start_dim=1, end_dim=-1)
  (fc1): Linear(in_features=3136, out_features=3, bias=True)
  (relu4): ReLU()
  (fc2): Linear(in_features=3, out_features=1, bias=True)
  (sigmoid): Sigmoid()
)","[0, 1, 2]",conv3,0.9449999928474426
171,"PyTorchCNN(
  (conv1): Conv2d(1, 16, kernel_size=(3, 3), stride=(1, 1), padding=(1, 1))
  (relu1): ReLU()
  (pool1): MaxPool2d(kernel_size=2, stride=2, padding=0, dilation=1, ceil_mode=False)
  (conv2): Conv2d(16, 32, kernel_size=(3, 3), stride=(1, 1), padding=(1, 1))
  (relu2): ReLU()
  (pool2): MaxPool2d(kernel_size=2, stride=2, padding=0, dilation=1, ceil_mode=False)
  (conv3): Conv2d(32, 64, kernel_size=(3, 3), stride=(1, 1), padding=(1, 1))
  (relu3): ReLU()
  (flatten): Flatten(start_dim=1, end_dim=-1)
  (fc1): Linear(in_features=3136, out_features=3, bias=True)
  (relu4): ReLU()
  (fc2): Linear(in_features=3, out_features=1, bias=True)
  (sigmoid): Sigmoid()
)","[0, 1, 2]",fc1,0.8870000243186951
172,"PyTorchCNN(
  (conv1): Conv2d(1, 16, kernel_size=(3, 3), stride=(1, 1), padding=(1, 1))
  (relu1): ReLU()
  (pool1): MaxPool2d(kernel_size=2, stride=2, padding=0, dilation=1, ceil_mode=False)
  (conv2): Conv2d(16, 32, kernel_size=(3, 3), stride=(1, 1), padding=(1, 1))
  (relu2): ReLU()
  (pool2): MaxPool2d(kernel_size=2, stride=2, padding=0, dilation=1, ceil_mode=False)
  (conv3): Conv2d(32, 64, kernel_size=(3, 3), stride=(1, 1), padding=(1, 1))
  (relu3): ReLU()
  (flatten): Flatten(start_dim=1, end_dim=-1)
  (fc1): Linear(in_features=3136, out_features=3, bias=True)
  (relu4): ReLU()
  (fc2): Linear(in_features=3, out_features=1, bias=True)
  (sigmoid): Sigmoid()
)","[0, 1]",conv1,0.9150000214576721
173,"PyTorchCNN(
  (conv1): Conv2d(1, 16, kernel_size=(3, 3), stride=(1, 1), padding=(1, 1))
  (relu1): ReLU()
  (pool1): MaxPool2d(kernel_size=2, stride=2, padding=0, dilation=1, ceil_mode=False)
  (conv2): Conv2d(16, 32, kernel_size=(3, 3), stride=(1, 1), padding=(1, 1))
  (relu2): ReLU()
  (pool2): MaxPool2d(kernel_size=2, stride=2, padding=0, dilation=1, ceil_mode=False)
  (conv3): Conv2d(32, 64, kernel_size=(3, 3), stride=(1, 1), padding=(1, 1))
  (relu3): ReLU()
  (flatten): Flatten(start_dim=1, end_dim=-1)
  (fc1): Linear(in_features=3136, out_features=3, bias=True)
  (relu4): ReLU()
  (fc2): Linear(in_features=3, out_features=1, bias=True)
  (sigmoid): Sigmoid()
)","[0, 1]",conv2,0.9089999794960022
174,"PyTorchCNN(
  (conv1): Conv2d(1, 16, kernel_size=(3, 3), stride=(1, 1), padding=(1, 1))
  (relu1): ReLU()
  (pool1): MaxPool2d(kernel_size=2, stride=2, padding=0, dilation=1, ceil_mode=False)
  (conv2): Conv2d(16, 32, kernel_size=(3, 3), stride=(1, 1), padding=(1, 1))
  (relu2): ReLU()
  (pool2): MaxPool2d(kernel_size=2, stride=2, padding=0, dilation=1, ceil_mode=False)
  (conv3): Conv2d(32, 64, kernel_size=(3, 3), stride=(1, 1), padding=(1, 1))
  (relu3): ReLU()
  (flatten): Flatten(start_dim=1, end_dim=-1)
  (fc1): Linear(in_features=3136, out_features=3, bias=True)
  (relu4): ReLU()
  (fc2): Linear(in_features=3, out_features=1, bias=True)
  (sigmoid): Sigmoid()
)","[0, 1]",conv3,0.8930000066757202
175,"PyTorchCNN(
  (conv1): Conv2d(1, 16, kernel_size=(3, 3), stride=(1, 1), padding=(1, 1))
  (relu1): ReLU()
  (pool1): MaxPool2d(kernel_size=2, stride=2, padding=0, dilation=1, ceil_mode=False)
  (conv2): Conv2d(16, 32, kernel_size=(3, 3), stride=(1, 1), padding=(1, 1))
  (relu2): ReLU()
  (pool2): MaxPool2d(kernel_size=2, stride=2, padding=0, dilation=1, ceil_mode=False)
  (conv3): Conv2d(32, 64, kernel_size=(3, 3), stride=(1, 1), padding=(1, 1))
  (relu3): ReLU()
  (flatten): Flatten(start_dim=1, end_dim=-1)
  (fc1): Linear(in_features=3136, out_features=3, bias=True)
  (relu4): ReLU()
  (fc2): Linear(in_features=3, out_features=1, bias=True)
  (sigmoid): Sigmoid()
)","[0, 1]",fc1,0.6859999895095825
176,"PyTorchCNN(
  (conv1): Conv2d(1, 16, kernel_size=(3, 3), stride=(1, 1), padding=(1, 1))
  (relu1): ReLU()
  (pool1): MaxPool2d(kernel_size=2, stride=2, padding=0, dilation=1, ceil_mode=False)
  (conv2): Conv2d(16, 32, kernel_size=(3, 3), stride=(1, 1), padding=(1, 1))
  (relu2): ReLU()
  (pool2): MaxPool2d(kernel_size=2, stride=2, padding=0, dilation=1, ceil_mode=False)
  (conv3): Conv2d(32, 64, kernel_size=(3, 3), stride=(1, 1), padding=(1, 1))
  (relu3): ReLU()
  (flatten): Flatten(start_dim=1, end_dim=-1)
  (fc1): Linear(in_features=3136, out_features=3, bias=True)
  (relu4): ReLU()
  (fc2): Linear(in_features=3, out_features=1, bias=True)
  (sigmoid): Sigmoid()
)","[0, 2]",conv1,0.9369999766349792
177,"PyTorchCNN(
  (conv1): Conv2d(1, 16, kernel_size=(3, 3), stride=(1, 1), padding=(1, 1))
  (relu1): ReLU()
  (pool1): MaxPool2d(kernel_size=2, stride=2, padding=0, dilation=1, ceil_mode=False)
  (conv2): Conv2d(16, 32, kernel_size=(3, 3), stride=(1, 1), padding=(1, 1))
  (relu2): ReLU()
  (pool2): MaxPool2d(kernel_size=2, stride=2, padding=0, dilation=1, ceil_mode=False)
  (conv3): Conv2d(32, 64, kernel_size=(3, 3), stride=(1, 1), padding=(1, 1))
  (relu3): ReLU()
  (flatten): Flatten(start_dim=1, end_dim=-1)
  (fc1): Linear(in_features=3136, out_features=3, bias=True)
  (relu4): ReLU()
  (fc2): Linear(in_features=3, out_features=1, bias=True)
  (sigmoid): Sigmoid()
)","[0, 2]",conv2,0.9240000247955322
178,"PyTorchCNN(
  (conv1): Conv2d(1, 16, kernel_size=(3, 3), stride=(1, 1), padding=(1, 1))
  (relu1): ReLU()
  (pool1): MaxPool2d(kernel_size=2, stride=2, padding=0, dilation=1, ceil_mode=False)
  (conv2): Conv2d(16, 32, kernel_size=(3, 3), stride=(1, 1), padding=(1, 1))
  (relu2): ReLU()
  (pool2): MaxPool2d(kernel_size=2, stride=2, padding=0, dilation=1, ceil_mode=False)
  (conv3): Conv2d(32, 64, kernel_size=(3, 3), stride=(1, 1), padding=(1, 1))
  (relu3): ReLU()
  (flatten): Flatten(start_dim=1, end_dim=-1)
  (fc1): Linear(in_features=3136, out_features=3, bias=True)
  (relu4): ReLU()
  (fc2): Linear(in_features=3, out_features=1, bias=True)
  (sigmoid): Sigmoid()
)","[0, 2]",conv3,0.902999997138977
179,"PyTorchCNN(
  (conv1): Conv2d(1, 16, kernel_size=(3, 3), stride=(1, 1), padding=(1, 1))
  (relu1): ReLU()
  (pool1): MaxPool2d(kernel_size=2, stride=2, padding=0, dilation=1, ceil_mode=False)
  (conv2): Conv2d(16, 32, kernel_size=(3, 3), stride=(1, 1), padding=(1, 1))
  (relu2): ReLU()
  (pool2): MaxPool2d(kernel_size=2, stride=2, padding=0, dilation=1, ceil_mode=False)
  (conv3): Conv2d(32, 64, kernel_size=(3, 3), stride=(1, 1), padding=(1, 1))
  (relu3): ReLU()
  (flatten): Flatten(start_dim=1, end_dim=-1)
  (fc1): Linear(in_features=3136, out_features=3, bias=True)
  (relu4): ReLU()
  (fc2): Linear(in_features=3, out_features=1, bias=True)
  (sigmoid): Sigmoid()
)","[0, 2]",fc1,0.7279999852180481
180,"PyTorchCNN(
  (conv1): Conv2d(1, 16, kernel_size=(3, 3), stride=(1, 1), padding=(1, 1))
  (relu1): ReLU()
  (pool1): MaxPool2d(kernel_size=2, stride=2, padding=0, dilation=1, ceil_mode=False)
  (conv2): Conv2d(16, 32, kernel_size=(3, 3), stride=(1, 1), padding=(1, 1))
  (relu2): ReLU()
  (pool2): MaxPool2d(kernel_size=2, stride=2, padding=0, dilation=1, ceil_mode=False)
  (conv3): Conv2d(32, 64, kernel_size=(3, 3), stride=(1, 1), padding=(1, 1))
  (relu3): ReLU()
  (flatten): Flatten(start_dim=1, end_dim=-1)
  (fc1): Linear(in_features=3136, out_features=3, bias=True)
  (relu4): ReLU()
  (fc2): Linear(in_features=3, out_features=1, bias=True)
  (sigmoid): Sigmoid()
)","[1, 2]",conv1,0.9350000023841858
181,"PyTorchCNN(
  (conv1): Conv2d(1, 16, kernel_size=(3, 3), stride=(1, 1), padding=(1, 1))
  (relu1): ReLU()
  (pool1): MaxPool2d(kernel_size=2, stride=2, padding=0, dilation=1, ceil_mode=False)
  (conv2): Conv2d(16, 32, kernel_size=(3, 3), stride=(1, 1), padding=(1, 1))
  (relu2): ReLU()
  (pool2): MaxPool2d(kernel_size=2, stride=2, padding=0, dilation=1, ceil_mode=False)
  (conv3): Conv2d(32, 64, kernel_size=(3, 3), stride=(1, 1), padding=(1, 1))
  (relu3): ReLU()
  (flatten): Flatten(start_dim=1, end_dim=-1)
  (fc1): Linear(in_features=3136, out_features=3, bias=True)
  (relu4): ReLU()
  (fc2): Linear(in_features=3, out_features=1, bias=True)
  (sigmoid): Sigmoid()
)","[1, 2]",conv2,0.8999999761581421
182,"PyTorchCNN(
  (conv1): Conv2d(1, 16, kernel_size=(3, 3), stride=(1, 1), padding=(1, 1))
  (relu1): ReLU()
  (pool1): MaxPool2d(kernel_size=2, stride=2, padding=0, dilation=1, ceil_mode=False)
  (conv2): Conv2d(16, 32, kernel_size=(3, 3), stride=(1, 1), padding=(1, 1))
  (relu2): ReLU()
  (pool2): MaxPool2d(kernel_size=2, stride=2, padding=0, dilation=1, ceil_mode=False)
  (conv3): Conv2d(32, 64, kernel_size=(3, 3), stride=(1, 1), padding=(1, 1))
  (relu3): ReLU()
  (flatten): Flatten(start_dim=1, end_dim=-1)
  (fc1): Linear(in_features=3136, out_features=3, bias=True)
  (relu4): ReLU()
  (fc2): Linear(in_features=3, out_features=1, bias=True)
  (sigmoid): Sigmoid()
)","[1, 2]",conv3,0.8500000238418579
183,"PyTorchCNN(
  (conv1): Conv2d(1, 16, kernel_size=(3, 3), stride=(1, 1), padding=(1, 1))
  (relu1): ReLU()
  (pool1): MaxPool2d(kernel_size=2, stride=2, padding=0, dilation=1, ceil_mode=False)
  (conv2): Conv2d(16, 32, kernel_size=(3, 3), stride=(1, 1), padding=(1, 1))
  (relu2): ReLU()
  (pool2): MaxPool2d(kernel_size=2, stride=2, padding=0, dilation=1, ceil_mode=False)
  (conv3): Conv2d(32, 64, kernel_size=(3, 3), stride=(1, 1), padding=(1, 1))
  (relu3): ReLU()
  (flatten): Flatten(start_dim=1, end_dim=-1)
  (fc1): Linear(in_features=3136, out_features=3, bias=True)
  (relu4): ReLU()
  (fc2): Linear(in_features=3, out_features=1, bias=True)
  (sigmoid): Sigmoid()
)","[1, 2]",fc1,0.7300000190734863
184,"PyTorchCNN(
  (conv1): Conv2d(1, 16, kernel_size=(3, 3), stride=(1, 1), padding=(1, 1))
  (relu1): ReLU()
  (pool1): MaxPool2d(kernel_size=2, stride=2, padding=0, dilation=1, ceil_mode=False)
  (conv2): Conv2d(16, 32, kernel_size=(3, 3), stride=(1, 1), padding=(1, 1))
  (relu2): ReLU()
  (pool2): MaxPool2d(kernel_size=2, stride=2, padding=0, dilation=1, ceil_mode=False)
  (conv3): Conv2d(32, 64, kernel_size=(3, 3), stride=(1, 1), padding=(1, 1))
  (relu3): ReLU()
  (flatten): Flatten(start_dim=1, end_dim=-1)
  (fc1): Linear(in_features=3136, out_features=3, bias=True)
  (relu4): ReLU()
  (fc2): Linear(in_features=3, out_features=1, bias=True)
  (sigmoid): Sigmoid()
)",[0],conv1,0.9150000214576721
185,"PyTorchCNN(
  (conv1): Conv2d(1, 16, kernel_size=(3, 3), stride=(1, 1), padding=(1, 1))
  (relu1): ReLU()
  (pool1): MaxPool2d(kernel_size=2, stride=2, padding=0, dilation=1, ceil_mode=False)
  (conv2): Conv2d(16, 32, kernel_size=(3, 3), stride=(1, 1), padding=(1, 1))
  (relu2): ReLU()
  (pool2): MaxPool2d(kernel_size=2, stride=2, padding=0, dilation=1, ceil_mode=False)
  (conv3): Conv2d(32, 64, kernel_size=(3, 3), stride=(1, 1), padding=(1, 1))
  (relu3): ReLU()
  (flatten): Flatten(start_dim=1, end_dim=-1)
  (fc1): Linear(in_features=3136, out_features=3, bias=True)
  (relu4): ReLU()
  (fc2): Linear(in_features=3, out_features=1, bias=True)
  (sigmoid): Sigmoid()
)",[0],conv2,0.9089999794960022
186,"PyTorchCNN(
  (conv1): Conv2d(1, 16, kernel_size=(3, 3), stride=(1, 1), padding=(1, 1))
  (relu1): ReLU()
  (pool1): MaxPool2d(kernel_size=2, stride=2, padding=0, dilation=1, ceil_mode=False)
  (conv2): Conv2d(16, 32, kernel_size=(3, 3), stride=(1, 1), padding=(1, 1))
  (relu2): ReLU()
  (pool2): MaxPool2d(kernel_size=2, stride=2, padding=0, dilation=1, ceil_mode=False)
  (conv3): Conv2d(32, 64, kernel_size=(3, 3), stride=(1, 1), padding=(1, 1))
  (relu3): ReLU()
  (flatten): Flatten(start_dim=1, end_dim=-1)
  (fc1): Linear(in_features=3136, out_features=3, bias=True)
  (relu4): ReLU()
  (fc2): Linear(in_features=3, out_features=1, bias=True)
  (sigmoid): Sigmoid()
)",[0],conv3,0.8920000195503235
187,"PyTorchCNN(
  (conv1): Conv2d(1, 16, kernel_size=(3, 3), stride=(1, 1), padding=(1, 1))
  (relu1): ReLU()
  (pool1): MaxPool2d(kernel_size=2, stride=2, padding=0, dilation=1, ceil_mode=False)
  (conv2): Conv2d(16, 32, kernel_size=(3, 3), stride=(1, 1), padding=(1, 1))
  (relu2): ReLU()
  (pool2): MaxPool2d(kernel_size=2, stride=2, padding=0, dilation=1, ceil_mode=False)
  (conv3): Conv2d(32, 64, kernel_size=(3, 3), stride=(1, 1), padding=(1, 1))
  (relu3): ReLU()
  (flatten): Flatten(start_dim=1, end_dim=-1)
  (fc1): Linear(in_features=3136, out_features=3, bias=True)
  (relu4): ReLU()
  (fc2): Linear(in_features=3, out_features=1, bias=True)
  (sigmoid): Sigmoid()
)",[0],fc1,0.6430000066757202
188,"PyTorchCNN(
  (conv1): Conv2d(1, 16, kernel_size=(3, 3), stride=(1, 1), padding=(1, 1))
  (relu1): ReLU()
  (pool1): MaxPool2d(kernel_size=2, stride=2, padding=0, dilation=1, ceil_mode=False)
  (conv2): Conv2d(16, 32, kernel_size=(3, 3), stride=(1, 1), padding=(1, 1))
  (relu2): ReLU()
  (pool2): MaxPool2d(kernel_size=2, stride=2, padding=0, dilation=1, ceil_mode=False)
  (conv3): Conv2d(32, 64, kernel_size=(3, 3), stride=(1, 1), padding=(1, 1))
  (relu3): ReLU()
  (flatten): Flatten(start_dim=1, end_dim=-1)
  (fc1): Linear(in_features=3136, out_features=3, bias=True)
  (relu4): ReLU()
  (fc2): Linear(in_features=3, out_features=1, bias=True)
  (sigmoid): Sigmoid()
)",[1],conv1,0.953000009059906
189,"PyTorchCNN(
  (conv1): Conv2d(1, 16, kernel_size=(3, 3), stride=(1, 1), padding=(1, 1))
  (relu1): ReLU()
  (pool1): MaxPool2d(kernel_size=2, stride=2, padding=0, dilation=1, ceil_mode=False)
  (conv2): Conv2d(16, 32, kernel_size=(3, 3), stride=(1, 1), padding=(1, 1))
  (relu2): ReLU()
  (pool2): MaxPool2d(kernel_size=2, stride=2, padding=0, dilation=1, ceil_mode=False)
  (conv3): Conv2d(32, 64, kernel_size=(3, 3), stride=(1, 1), padding=(1, 1))
  (relu3): ReLU()
  (flatten): Flatten(start_dim=1, end_dim=-1)
  (fc1): Linear(in_features=3136, out_features=3, bias=True)
  (relu4): ReLU()
  (fc2): Linear(in_features=3, out_features=1, bias=True)
  (sigmoid): Sigmoid()
)",[1],conv2,0.9580000042915344
190,"PyTorchCNN(
  (conv1): Conv2d(1, 16, kernel_size=(3, 3), stride=(1, 1), padding=(1, 1))
  (relu1): ReLU()
  (pool1): MaxPool2d(kernel_size=2, stride=2, padding=0, dilation=1, ceil_mode=False)
  (conv2): Conv2d(16, 32, kernel_size=(3, 3), stride=(1, 1), padding=(1, 1))
  (relu2): ReLU()
  (pool2): MaxPool2d(kernel_size=2, stride=2, padding=0, dilation=1, ceil_mode=False)
  (conv3): Conv2d(32, 64, kernel_size=(3, 3), stride=(1, 1), padding=(1, 1))
  (relu3): ReLU()
  (flatten): Flatten(start_dim=1, end_dim=-1)
  (fc1): Linear(in_features=3136, out_features=3, bias=True)
  (relu4): ReLU()
  (fc2): Linear(in_features=3, out_features=1, bias=True)
  (sigmoid): Sigmoid()
)",[1],conv3,0.9399999976158142
191,"PyTorchCNN(
  (conv1): Conv2d(1, 16, kernel_size=(3, 3), stride=(1, 1), padding=(1, 1))
  (relu1): ReLU()
  (pool1): MaxPool2d(kernel_size=2, stride=2, padding=0, dilation=1, ceil_mode=False)
  (conv2): Conv2d(16, 32, kernel_size=(3, 3), stride=(1, 1), padding=(1, 1))
  (relu2): ReLU()
  (pool2): MaxPool2d(kernel_size=2, stride=2, padding=0, dilation=1, ceil_mode=False)
  (conv3): Conv2d(32, 64, kernel_size=(3, 3), stride=(1, 1), padding=(1, 1))
  (relu3): ReLU()
  (flatten): Flatten(start_dim=1, end_dim=-1)
  (fc1): Linear(in_features=3136, out_features=3, bias=True)
  (relu4): ReLU()
  (fc2): Linear(in_features=3, out_features=1, bias=True)
  (sigmoid): Sigmoid()
)",[1],fc1,0.625
192,"PyTorchCNN(
  (conv1): Conv2d(1, 16, kernel_size=(3, 3), stride=(1, 1), padding=(1, 1))
  (relu1): ReLU()
  (pool1): MaxPool2d(kernel_size=2, stride=2, padding=0, dilation=1, ceil_mode=False)
  (conv2): Conv2d(16, 32, kernel_size=(3, 3), stride=(1, 1), padding=(1, 1))
  (relu2): ReLU()
  (pool2): MaxPool2d(kernel_size=2, stride=2, padding=0, dilation=1, ceil_mode=False)
  (conv3): Conv2d(32, 64, kernel_size=(3, 3), stride=(1, 1), padding=(1, 1))
  (relu3): ReLU()
  (flatten): Flatten(start_dim=1, end_dim=-1)
  (fc1): Linear(in_features=3136, out_features=3, bias=True)
  (relu4): ReLU()
  (fc2): Linear(in_features=3, out_features=1, bias=True)
  (sigmoid): Sigmoid()
)",[2],conv1,0.9449999928474426
193,"PyTorchCNN(
  (conv1): Conv2d(1, 16, kernel_size=(3, 3), stride=(1, 1), padding=(1, 1))
  (relu1): ReLU()
  (pool1): MaxPool2d(kernel_size=2, stride=2, padding=0, dilation=1, ceil_mode=False)
  (conv2): Conv2d(16, 32, kernel_size=(3, 3), stride=(1, 1), padding=(1, 1))
  (relu2): ReLU()
  (pool2): MaxPool2d(kernel_size=2, stride=2, padding=0, dilation=1, ceil_mode=False)
  (conv3): Conv2d(32, 64, kernel_size=(3, 3), stride=(1, 1), padding=(1, 1))
  (relu3): ReLU()
  (flatten): Flatten(start_dim=1, end_dim=-1)
  (fc1): Linear(in_features=3136, out_features=3, bias=True)
  (relu4): ReLU()
  (fc2): Linear(in_features=3, out_features=1, bias=True)
  (sigmoid): Sigmoid()
)",[2],conv2,0.9359999895095825
194,"PyTorchCNN(
  (conv1): Conv2d(1, 16, kernel_size=(3, 3), stride=(1, 1), padding=(1, 1))
  (relu1): ReLU()
  (pool1): MaxPool2d(kernel_size=2, stride=2, padding=0, dilation=1, ceil_mode=False)
  (conv2): Conv2d(16, 32, kernel_size=(3, 3), stride=(1, 1), padding=(1, 1))
  (relu2): ReLU()
  (pool2): MaxPool2d(kernel_size=2, stride=2, padding=0, dilation=1, ceil_mode=False)
  (conv3): Conv2d(32, 64, kernel_size=(3, 3), stride=(1, 1), padding=(1, 1))
  (relu3): ReLU()
  (flatten): Flatten(start_dim=1, end_dim=-1)
  (fc1): Linear(in_features=3136, out_features=3, bias=True)
  (relu4): ReLU()
  (fc2): Linear(in_features=3, out_features=1, bias=True)
  (sigmoid): Sigmoid()
)",[2],conv3,0.8989999890327454
195,"PyTorchCNN(
  (conv1): Conv2d(1, 16, kernel_size=(3, 3), stride=(1, 1), padding=(1, 1))
  (relu1): ReLU()
  (pool1): MaxPool2d(kernel_size=2, stride=2, padding=0, dilation=1, ceil_mode=False)
  (conv2): Conv2d(16, 32, kernel_size=(3, 3), stride=(1, 1), padding=(1, 1))
  (relu2): ReLU()
  (pool2): MaxPool2d(kernel_size=2, stride=2, padding=0, dilation=1, ceil_mode=False)
  (conv3): Conv2d(32, 64, kernel_size=(3, 3), stride=(1, 1), padding=(1, 1))
  (relu3): ReLU()
  (flatten): Flatten(start_dim=1, end_dim=-1)
  (fc1): Linear(in_features=3136, out_features=3, bias=True)
  (relu4): ReLU()
  (fc2): Linear(in_features=3, out_features=1, bias=True)
  (sigmoid): Sigmoid()
)",[2],fc1,0.7239999771118164
196,"PyTorchCNN(
  (conv1): Conv2d(1, 16, kernel_size=(3, 3), stride=(1, 1), padding=(1, 1))
  (relu1): ReLU()
  (pool1): MaxPool2d(kernel_size=2, stride=2, padding=0, dilation=1, ceil_mode=False)
  (conv2): Conv2d(16, 32, kernel_size=(3, 3), stride=(1, 1), padding=(1, 1))
  (relu2): ReLU()
  (pool2): MaxPool2d(kernel_size=2, stride=2, padding=0, dilation=1, ceil_mode=False)
  (conv3): Conv2d(32, 64, kernel_size=(3, 3), stride=(1, 1), padding=(1, 1))
  (relu3): ReLU()
  (flatten): Flatten(start_dim=1, end_dim=-1)
  (fc1): Linear(in_features=3136, out_features=3, bias=True)
  (relu4): ReLU()
  (fc2): Linear(in_features=3, out_features=1, bias=True)
  (sigmoid): Sigmoid()
)","[0, 1, 2]",conv1,0.9319999814033508
197,"PyTorchCNN(
  (conv1): Conv2d(1, 16, kernel_size=(3, 3), stride=(1, 1), padding=(1, 1))
  (relu1): ReLU()
  (pool1): MaxPool2d(kernel_size=2, stride=2, padding=0, dilation=1, ceil_mode=False)
  (conv2): Conv2d(16, 32, kernel_size=(3, 3), stride=(1, 1), padding=(1, 1))
  (relu2): ReLU()
  (pool2): MaxPool2d(kernel_size=2, stride=2, padding=0, dilation=1, ceil_mode=False)
  (conv3): Conv2d(32, 64, kernel_size=(3, 3), stride=(1, 1), padding=(1, 1))
  (relu3): ReLU()
  (flatten): Flatten(start_dim=1, end_dim=-1)
  (fc1): Linear(in_features=3136, out_features=3, bias=True)
  (relu4): ReLU()
  (fc2): Linear(in_features=3, out_features=1, bias=True)
  (sigmoid): Sigmoid()
)","[0, 1, 2]",conv2,0.9539999961853027
198,"PyTorchCNN(
  (conv1): Conv2d(1, 16, kernel_size=(3, 3), stride=(1, 1), padding=(1, 1))
  (relu1): ReLU()
  (pool1): MaxPool2d(kernel_size=2, stride=2, padding=0, dilation=1, ceil_mode=False)
  (conv2): Conv2d(16, 32, kernel_size=(3, 3), stride=(1, 1), padding=(1, 1))
  (relu2): ReLU()
  (pool2): MaxPool2d(kernel_size=2, stride=2, padding=0, dilation=1, ceil_mode=False)
  (conv3): Conv2d(32, 64, kernel_size=(3, 3), stride=(1, 1), padding=(1, 1))
  (relu3): ReLU()
  (flatten): Flatten(start_dim=1, end_dim=-1)
  (fc1): Linear(in_features=3136, out_features=3, bias=True)
  (relu4): ReLU()
  (fc2): Linear(in_features=3, out_features=1, bias=True)
  (sigmoid): Sigmoid()
)","[0, 1, 2]",conv3,0.9570000171661377
199,"PyTorchCNN(
  (conv1): Conv2d(1, 16, kernel_size=(3, 3), stride=(1, 1), padding=(1, 1))
  (relu1): ReLU()
  (pool1): MaxPool2d(kernel_size=2, stride=2, padding=0, dilation=1, ceil_mode=False)
  (conv2): Conv2d(16, 32, kernel_size=(3, 3), stride=(1, 1), padding=(1, 1))
  (relu2): ReLU()
  (pool2): MaxPool2d(kernel_size=2, stride=2, padding=0, dilation=1, ceil_mode=False)
  (conv3): Conv2d(32, 64, kernel_size=(3, 3), stride=(1, 1), padding=(1, 1))
  (relu3): ReLU()
  (flatten): Flatten(start_dim=1, end_dim=-1)
  (fc1): Linear(in_features=3136, out_features=3, bias=True)
  (relu4): ReLU()
  (fc2): Linear(in_features=3, out_features=1, bias=True)
  (sigmoid): Sigmoid()
)","[0, 1, 2]",fc1,0.9010000228881836
200,"PyTorchCNN(
  (conv1): Conv2d(1, 16, kernel_size=(3, 3), stride=(1, 1), padding=(1, 1))
  (relu1): ReLU()
  (pool1): MaxPool2d(kernel_size=2, stride=2, padding=0, dilation=1, ceil_mode=False)
  (conv2): Conv2d(16, 32, kernel_size=(3, 3), stride=(1, 1), padding=(1, 1))
  (relu2): ReLU()
  (pool2): MaxPool2d(kernel_size=2, stride=2, padding=0, dilation=1, ceil_mode=False)
  (conv3): Conv2d(32, 64, kernel_size=(3, 3), stride=(1, 1), padding=(1, 1))
  (relu3): ReLU()
  (flatten): Flatten(start_dim=1, end_dim=-1)
  (fc1): Linear(in_features=3136, out_features=3, bias=True)
  (relu4): ReLU()
  (fc2): Linear(in_features=3, out_features=1, bias=True)
  (sigmoid): Sigmoid()
)","[0, 1]",conv1,0.9150000214576721
201,"PyTorchCNN(
  (conv1): Conv2d(1, 16, kernel_size=(3, 3), stride=(1, 1), padding=(1, 1))
  (relu1): ReLU()
  (pool1): MaxPool2d(kernel_size=2, stride=2, padding=0, dilation=1, ceil_mode=False)
  (conv2): Conv2d(16, 32, kernel_size=(3, 3), stride=(1, 1), padding=(1, 1))
  (relu2): ReLU()
  (pool2): MaxPool2d(kernel_size=2, stride=2, padding=0, dilation=1, ceil_mode=False)
  (conv3): Conv2d(32, 64, kernel_size=(3, 3), stride=(1, 1), padding=(1, 1))
  (relu3): ReLU()
  (flatten): Flatten(start_dim=1, end_dim=-1)
  (fc1): Linear(in_features=3136, out_features=3, bias=True)
  (relu4): ReLU()
  (fc2): Linear(in_features=3, out_features=1, bias=True)
  (sigmoid): Sigmoid()
)","[0, 1]",conv2,0.9259999990463257
202,"PyTorchCNN(
  (conv1): Conv2d(1, 16, kernel_size=(3, 3), stride=(1, 1), padding=(1, 1))
  (relu1): ReLU()
  (pool1): MaxPool2d(kernel_size=2, stride=2, padding=0, dilation=1, ceil_mode=False)
  (conv2): Conv2d(16, 32, kernel_size=(3, 3), stride=(1, 1), padding=(1, 1))
  (relu2): ReLU()
  (pool2): MaxPool2d(kernel_size=2, stride=2, padding=0, dilation=1, ceil_mode=False)
  (conv3): Conv2d(32, 64, kernel_size=(3, 3), stride=(1, 1), padding=(1, 1))
  (relu3): ReLU()
  (flatten): Flatten(start_dim=1, end_dim=-1)
  (fc1): Linear(in_features=3136, out_features=3, bias=True)
  (relu4): ReLU()
  (fc2): Linear(in_features=3, out_features=1, bias=True)
  (sigmoid): Sigmoid()
)","[0, 1]",conv3,0.9110000133514404
203,"PyTorchCNN(
  (conv1): Conv2d(1, 16, kernel_size=(3, 3), stride=(1, 1), padding=(1, 1))
  (relu1): ReLU()
  (pool1): MaxPool2d(kernel_size=2, stride=2, padding=0, dilation=1, ceil_mode=False)
  (conv2): Conv2d(16, 32, kernel_size=(3, 3), stride=(1, 1), padding=(1, 1))
  (relu2): ReLU()
  (pool2): MaxPool2d(kernel_size=2, stride=2, padding=0, dilation=1, ceil_mode=False)
  (conv3): Conv2d(32, 64, kernel_size=(3, 3), stride=(1, 1), padding=(1, 1))
  (relu3): ReLU()
  (flatten): Flatten(start_dim=1, end_dim=-1)
  (fc1): Linear(in_features=3136, out_features=3, bias=True)
  (relu4): ReLU()
  (fc2): Linear(in_features=3, out_features=1, bias=True)
  (sigmoid): Sigmoid()
)","[0, 1]",fc1,0.7200000286102295
204,"PyTorchCNN(
  (conv1): Conv2d(1, 16, kernel_size=(3, 3), stride=(1, 1), padding=(1, 1))
  (relu1): ReLU()
  (pool1): MaxPool2d(kernel_size=2, stride=2, padding=0, dilation=1, ceil_mode=False)
  (conv2): Conv2d(16, 32, kernel_size=(3, 3), stride=(1, 1), padding=(1, 1))
  (relu2): ReLU()
  (pool2): MaxPool2d(kernel_size=2, stride=2, padding=0, dilation=1, ceil_mode=False)
  (conv3): Conv2d(32, 64, kernel_size=(3, 3), stride=(1, 1), padding=(1, 1))
  (relu3): ReLU()
  (flatten): Flatten(start_dim=1, end_dim=-1)
  (fc1): Linear(in_features=3136, out_features=3, bias=True)
  (relu4): ReLU()
  (fc2): Linear(in_features=3, out_features=1, bias=True)
  (sigmoid): Sigmoid()
)","[0, 2]",conv1,0.9390000104904175
205,"PyTorchCNN(
  (conv1): Conv2d(1, 16, kernel_size=(3, 3), stride=(1, 1), padding=(1, 1))
  (relu1): ReLU()
  (pool1): MaxPool2d(kernel_size=2, stride=2, padding=0, dilation=1, ceil_mode=False)
  (conv2): Conv2d(16, 32, kernel_size=(3, 3), stride=(1, 1), padding=(1, 1))
  (relu2): ReLU()
  (pool2): MaxPool2d(kernel_size=2, stride=2, padding=0, dilation=1, ceil_mode=False)
  (conv3): Conv2d(32, 64, kernel_size=(3, 3), stride=(1, 1), padding=(1, 1))
  (relu3): ReLU()
  (flatten): Flatten(start_dim=1, end_dim=-1)
  (fc1): Linear(in_features=3136, out_features=3, bias=True)
  (relu4): ReLU()
  (fc2): Linear(in_features=3, out_features=1, bias=True)
  (sigmoid): Sigmoid()
)","[0, 2]",conv2,0.9470000267028809
206,"PyTorchCNN(
  (conv1): Conv2d(1, 16, kernel_size=(3, 3), stride=(1, 1), padding=(1, 1))
  (relu1): ReLU()
  (pool1): MaxPool2d(kernel_size=2, stride=2, padding=0, dilation=1, ceil_mode=False)
  (conv2): Conv2d(16, 32, kernel_size=(3, 3), stride=(1, 1), padding=(1, 1))
  (relu2): ReLU()
  (pool2): MaxPool2d(kernel_size=2, stride=2, padding=0, dilation=1, ceil_mode=False)
  (conv3): Conv2d(32, 64, kernel_size=(3, 3), stride=(1, 1), padding=(1, 1))
  (relu3): ReLU()
  (flatten): Flatten(start_dim=1, end_dim=-1)
  (fc1): Linear(in_features=3136, out_features=3, bias=True)
  (relu4): ReLU()
  (fc2): Linear(in_features=3, out_features=1, bias=True)
  (sigmoid): Sigmoid()
)","[0, 2]",conv3,0.9150000214576721
207,"PyTorchCNN(
  (conv1): Conv2d(1, 16, kernel_size=(3, 3), stride=(1, 1), padding=(1, 1))
  (relu1): ReLU()
  (pool1): MaxPool2d(kernel_size=2, stride=2, padding=0, dilation=1, ceil_mode=False)
  (conv2): Conv2d(16, 32, kernel_size=(3, 3), stride=(1, 1), padding=(1, 1))
  (relu2): ReLU()
  (pool2): MaxPool2d(kernel_size=2, stride=2, padding=0, dilation=1, ceil_mode=False)
  (conv3): Conv2d(32, 64, kernel_size=(3, 3), stride=(1, 1), padding=(1, 1))
  (relu3): ReLU()
  (flatten): Flatten(start_dim=1, end_dim=-1)
  (fc1): Linear(in_features=3136, out_features=3, bias=True)
  (relu4): ReLU()
  (fc2): Linear(in_features=3, out_features=1, bias=True)
  (sigmoid): Sigmoid()
)","[0, 2]",fc1,0.7269999980926514
208,"PyTorchCNN(
  (conv1): Conv2d(1, 16, kernel_size=(3, 3), stride=(1, 1), padding=(1, 1))
  (relu1): ReLU()
  (pool1): MaxPool2d(kernel_size=2, stride=2, padding=0, dilation=1, ceil_mode=False)
  (conv2): Conv2d(16, 32, kernel_size=(3, 3), stride=(1, 1), padding=(1, 1))
  (relu2): ReLU()
  (pool2): MaxPool2d(kernel_size=2, stride=2, padding=0, dilation=1, ceil_mode=False)
  (conv3): Conv2d(32, 64, kernel_size=(3, 3), stride=(1, 1), padding=(1, 1))
  (relu3): ReLU()
  (flatten): Flatten(start_dim=1, end_dim=-1)
  (fc1): Linear(in_features=3136, out_features=3, bias=True)
  (relu4): ReLU()
  (fc2): Linear(in_features=3, out_features=1, bias=True)
  (sigmoid): Sigmoid()
)","[1, 2]",conv1,0.9179999828338623
209,"PyTorchCNN(
  (conv1): Conv2d(1, 16, kernel_size=(3, 3), stride=(1, 1), padding=(1, 1))
  (relu1): ReLU()
  (pool1): MaxPool2d(kernel_size=2, stride=2, padding=0, dilation=1, ceil_mode=False)
  (conv2): Conv2d(16, 32, kernel_size=(3, 3), stride=(1, 1), padding=(1, 1))
  (relu2): ReLU()
  (pool2): MaxPool2d(kernel_size=2, stride=2, padding=0, dilation=1, ceil_mode=False)
  (conv3): Conv2d(32, 64, kernel_size=(3, 3), stride=(1, 1), padding=(1, 1))
  (relu3): ReLU()
  (flatten): Flatten(start_dim=1, end_dim=-1)
  (fc1): Linear(in_features=3136, out_features=3, bias=True)
  (relu4): ReLU()
  (fc2): Linear(in_features=3, out_features=1, bias=True)
  (sigmoid): Sigmoid()
)","[1, 2]",conv2,0.9300000071525574
210,"PyTorchCNN(
  (conv1): Conv2d(1, 16, kernel_size=(3, 3), stride=(1, 1), padding=(1, 1))
  (relu1): ReLU()
…
  (fc2): Linear(in_features=3, out_features=1, bias=True)
  (sigmoid): Sigmoid()
)","[1, 2]",conv2,0.902999997138977
770,"PyTorchCNN(
  (conv1): Conv2d(1, 16, kernel_size=(3, 3), stride=(1, 1), padding=(1, 1))
  (relu1): ReLU()
  (pool1): MaxPool2d(kernel_size=2, stride=2, padding=0, dilation=1, ceil_mode=False)
  (conv2): Conv2d(16, 32, kernel_size=(3, 3), stride=(1, 1), padding=(1, 1))
  (relu2): ReLU()
  (pool2): MaxPool2d(kernel_size=2, stride=2, padding=0, dilation=1, ceil_mode=False)
  (conv3): Conv2d(32, 64, kernel_size=(3, 3), stride=(1, 1), padding=(1, 1))
  (relu3): ReLU()
  (flatten): Flatten(start_dim=1, end_dim=-1)
  (fc1): Linear(in_features=3136, out_features=3, bias=True)
  (relu4): ReLU()
  (fc2): Linear(in_features=3, out_features=1, bias=True)
  (sigmoid): Sigmoid()
)","[1, 2]",conv3,0.8569999933242798
771,"PyTorchCNN(
  (conv1): Conv2d(1, 16, kernel_size=(3, 3), stride=(1, 1), padding=(1, 1))
  (relu1): ReLU()
  (pool1): MaxPool2d(kernel_size=2, stride=2, padding=0, dilation=1, ceil_mode=False)
  (conv2): Conv2d(16, 32, kernel_size=(3, 3), stride=(1, 1), padding=(1, 1))
  (relu2): ReLU()
  (pool2): MaxPool2d(kernel_size=2, stride=2, padding=0, dilation=1, ceil_mode=False)
  (conv3): Conv2d(32, 64, kernel_size=(3, 3), stride=(1, 1), padding=(1, 1))
  (relu3): ReLU()
  (flatten): Flatten(start_dim=1, end_dim=-1)
  (fc1): Linear(in_features=3136, out_features=3, bias=True)
  (relu4): ReLU()
  (fc2): Linear(in_features=3, out_features=1, bias=True)
  (sigmoid): Sigmoid()
)","[1, 2]",fc1,0.7459999918937683
772,"PyTorchCNN(
  (conv1): Conv2d(1, 16, kernel_size=(3, 3), stride=(1, 1), padding=(1, 1))
  (relu1): ReLU()
  (pool1): MaxPool2d(kernel_size=2, stride=2, padding=0, dilation=1, ceil_mode=False)
  (conv2): Conv2d(16, 32, kernel_size=(3, 3), stride=(1, 1), padding=(1, 1))
  (relu2): ReLU()
  (pool2): MaxPool2d(kernel_size=2, stride=2, padding=0, dilation=1, ceil_mode=False)
  (conv3): Conv2d(32, 64, kernel_size=(3, 3), stride=(1, 1), padding=(1, 1))
  (relu3): ReLU()
  (flatten): Flatten(start_dim=1, end_dim=-1)
  (fc1): Linear(in_features=3136, out_features=3, bias=True)
  (relu4): ReLU()
  (fc2): Linear(in_features=3, out_features=1, bias=True)
  (sigmoid): Sigmoid()
)",[0],conv1,0.9139999747276306
773,"PyTorchCNN(
  (conv1): Conv2d(1, 16, kernel_size=(3, 3), stride=(1, 1), padding=(1, 1))
  (relu1): ReLU()
  (pool1): MaxPool2d(kernel_size=2, stride=2, padding=0, dilation=1, ceil_mode=False)
  (conv2): Conv2d(16, 32, kernel_size=(3, 3), stride=(1, 1), padding=(1, 1))
  (relu2): ReLU()
  (pool2): MaxPool2d(kernel_size=2, stride=2, padding=0, dilation=1, ceil_mode=False)
  (conv3): Conv2d(32, 64, kernel_size=(3, 3), stride=(1, 1), padding=(1, 1))
  (relu3): ReLU()
  (flatten): Flatten(start_dim=1, end_dim=-1)
  (fc1): Linear(in_features=3136, out_features=3, bias=True)
  (relu4): ReLU()
  (fc2): Linear(in_features=3, out_features=1, bias=True)
  (sigmoid): Sigmoid()
)",[0],conv2,0.8980000019073486
774,"PyTorchCNN(
  (conv1): Conv2d(1, 16, kernel_size=(3, 3), stride=(1, 1), padding=(1, 1))
  (relu1): ReLU()
  (pool1): MaxPool2d(kernel_size=2, stride=2, padding=0, dilation=1, ceil_mode=False)
  (conv2): Conv2d(16, 32, kernel_size=(3, 3), stride=(1, 1), padding=(1, 1))
  (relu2): ReLU()
  (pool2): MaxPool2d(kernel_size=2, stride=2, padding=0, dilation=1, ceil_mode=False)
  (conv3): Conv2d(32, 64, kernel_size=(3, 3), stride=(1, 1), padding=(1, 1))
  (relu3): ReLU()
  (flatten): Flatten(start_dim=1, end_dim=-1)
  (fc1): Linear(in_features=3136, out_features=3, bias=True)
  (relu4): ReLU()
  (fc2): Linear(in_features=3, out_features=1, bias=True)
  (sigmoid): Sigmoid()
)",[0],conv3,0.8830000162124634
775,"PyTorchCNN(
  (conv1): Conv2d(1, 16, kernel_size=(3, 3), stride=(1, 1), padding=(1, 1))
  (relu1): ReLU()
  (pool1): MaxPool2d(kernel_size=2, stride=2, padding=0, dilation=1, ceil_mode=False)
  (conv2): Conv2d(16, 32, kernel_size=(3, 3), stride=(1, 1), padding=(1, 1))
  (relu2): ReLU()
  (pool2): MaxPool2d(kernel_size=2, stride=2, padding=0, dilation=1, ceil_mode=False)
  (conv3): Conv2d(32, 64, kernel_size=(3, 3), stride=(1, 1), padding=(1, 1))
  (relu3): ReLU()
  (flatten): Flatten(start_dim=1, end_dim=-1)
  (fc1): Linear(in_features=3136, out_features=3, bias=True)
  (relu4): ReLU()
  (fc2): Linear(in_features=3, out_features=1, bias=True)
  (sigmoid): Sigmoid()
)",[0],fc1,0.6880000233650208
776,"PyTorchCNN(
  (conv1): Conv2d(1, 16, kernel_size=(3, 3), stride=(1, 1), padding=(1, 1))
  (relu1): ReLU()
  (pool1): MaxPool2d(kernel_size=2, stride=2, padding=0, dilation=1, ceil_mode=False)
  (conv2): Conv2d(16, 32, kernel_size=(3, 3), stride=(1, 1), padding=(1, 1))
  (relu2): ReLU()
  (pool2): MaxPool2d(kernel_size=2, stride=2, padding=0, dilation=1, ceil_mode=False)
  (conv3): Conv2d(32, 64, kernel_size=(3, 3), stride=(1, 1), padding=(1, 1))
  (relu3): ReLU()
  (flatten): Flatten(start_dim=1, end_dim=-1)
  (fc1): Linear(in_features=3136, out_features=3, bias=True)
  (relu4): ReLU()
  (fc2): Linear(in_features=3, out_features=1, bias=True)
  (sigmoid): Sigmoid()
)",[1],conv1,0.9570000171661377
777,"PyTorchCNN(
  (conv1): Conv2d(1, 16, kernel_size=(3, 3), stride=(1, 1), padding=(1, 1))
  (relu1): ReLU()
  (pool1): MaxPool2d(kernel_size=2, stride=2, padding=0, dilation=1, ceil_mode=False)
  (conv2): Conv2d(16, 32, kernel_size=(3, 3), stride=(1, 1), padding=(1, 1))
  (relu2): ReLU()
  (pool2): MaxPool2d(kernel_size=2, stride=2, padding=0, dilation=1, ceil_mode=False)
  (conv3): Conv2d(32, 64, kernel_size=(3, 3), stride=(1, 1), padding=(1, 1))
  (relu3): ReLU()
  (flatten): Flatten(start_dim=1, end_dim=-1)
  (fc1): Linear(in_features=3136, out_features=3, bias=True)
  (relu4): ReLU()
  (fc2): Linear(in_features=3, out_features=1, bias=True)
  (sigmoid): Sigmoid()
)",[1],conv2,0.9419999718666077
778,"PyTorchCNN(
  (conv1): Conv2d(1, 16, kernel_size=(3, 3), stride=(1, 1), padding=(1, 1))
  (relu1): ReLU()
  (pool1): MaxPool2d(kernel_size=2, stride=2, padding=0, dilation=1, ceil_mode=False)
  (conv2): Conv2d(16, 32, kernel_size=(3, 3), stride=(1, 1), padding=(1, 1))
  (relu2): ReLU()
  (pool2): MaxPool2d(kernel_size=2, stride=2, padding=0, dilation=1, ceil_mode=False)
  (conv3): Conv2d(32, 64, kernel_size=(3, 3), stride=(1, 1), padding=(1, 1))
  (relu3): ReLU()
  (flatten): Flatten(start_dim=1, end_dim=-1)
  (fc1): Linear(in_features=3136, out_features=3, bias=True)
  (relu4): ReLU()
  (fc2): Linear(in_features=3, out_features=1, bias=True)
  (sigmoid): Sigmoid()
)",[1],conv3,0.953000009059906
779,"PyTorchCNN(
  (conv1): Conv2d(1, 16, kernel_size=(3, 3), stride=(1, 1), padding=(1, 1))
  (relu1): ReLU()
  (pool1): MaxPool2d(kernel_size=2, stride=2, padding=0, dilation=1, ceil_mode=False)
  (conv2): Conv2d(16, 32, kernel_size=(3, 3), stride=(1, 1), padding=(1, 1))
  (relu2): ReLU()
  (pool2): MaxPool2d(kernel_size=2, stride=2, padding=0, dilation=1, ceil_mode=False)
  (conv3): Conv2d(32, 64, kernel_size=(3, 3), stride=(1, 1), padding=(1, 1))
  (relu3): ReLU()
  (flatten): Flatten(start_dim=1, end_dim=-1)
  (fc1): Linear(in_features=3136, out_features=3, bias=True)
  (relu4): ReLU()
  (fc2): Linear(in_features=3, out_features=1, bias=True)
  (sigmoid): Sigmoid()
)",[1],fc1,0.7720000147819519
780,"PyTorchCNN(
  (conv1): Conv2d(1, 16, kernel_size=(3, 3), stride=(1, 1), padding=(1, 1))
  (relu1): ReLU()
  (pool1): MaxPool2d(kernel_size=2, stride=2, padding=0, dilation=1, ceil_mode=False)
  (conv2): Conv2d(16, 32, kernel_size=(3, 3), stride=(1, 1), padding=(1, 1))
  (relu2): ReLU()
  (pool2): MaxPool2d(kernel_size=2, stride=2, padding=0, dilation=1, ceil_mode=False)
  (conv3): Conv2d(32, 64, kernel_size=(3, 3), stride=(1, 1), padding=(1, 1))
  (relu3): ReLU()
  (flatten): Flatten(start_dim=1, end_dim=-1)
  (fc1): Linear(in_features=3136, out_features=3, bias=True)
  (relu4): ReLU()
  (fc2): Linear(in_features=3, out_features=1, bias=True)
  (sigmoid): Sigmoid()
)",[2],conv1,0.9309999942779541
781,"PyTorchCNN(
  (conv1): Conv2d(1, 16, kernel_size=(3, 3), stride=(1, 1), padding=(1, 1))
  (relu1): ReLU()
  (pool1): MaxPool2d(kernel_size=2, stride=2, padding=0, dilation=1, ceil_mode=False)
  (conv2): Conv2d(16, 32, kernel_size=(3, 3), stride=(1, 1), padding=(1, 1))
  (relu2): ReLU()
  (pool2): MaxPool2d(kernel_size=2, stride=2, padding=0, dilation=1, ceil_mode=False)
  (conv3): Conv2d(32, 64, kernel_size=(3, 3), stride=(1, 1), padding=(1, 1))
  (relu3): ReLU()
  (flatten): Flatten(start_dim=1, end_dim=-1)
  (fc1): Linear(in_features=3136, out_features=3, bias=True)
  (relu4): ReLU()
  (fc2): Linear(in_features=3, out_features=1, bias=True)
  (sigmoid): Sigmoid()
)",[2],conv2,0.9200000166893005
782,"PyTorchCNN(
  (conv1): Conv2d(1, 16, kernel_size=(3, 3), stride=(1, 1), padding=(1, 1))
  (relu1): ReLU()
  (pool1): MaxPool2d(kernel_size=2, stride=2, padding=0, dilation=1, ceil_mode=False)
  (conv2): Conv2d(16, 32, kernel_size=(3, 3), stride=(1, 1), padding=(1, 1))
  (relu2): ReLU()
  (pool2): MaxPool2d(kernel_size=2, stride=2, padding=0, dilation=1, ceil_mode=False)
  (conv3): Conv2d(32, 64, kernel_size=(3, 3), stride=(1, 1), padding=(1, 1))
  (relu3): ReLU()
  (flatten): Flatten(start_dim=1, end_dim=-1)
  (fc1): Linear(in_features=3136, out_features=3, bias=True)
  (relu4): ReLU()
  (fc2): Linear(in_features=3, out_features=1, bias=True)
  (sigmoid): Sigmoid()
)",[2],conv3,0.8849999904632568
783,"PyTorchCNN(
  (conv1): Conv2d(1, 16, kernel_size=(3, 3), stride=(1, 1), padding=(1, 1))
  (relu1): ReLU()
  (pool1): MaxPool2d(kernel_size=2, stride=2, padding=0, dilation=1, ceil_mode=False)
  (conv2): Conv2d(16, 32, kernel_size=(3, 3), stride=(1, 1), padding=(1, 1))
  (relu2): ReLU()
  (pool2): MaxPool2d(kernel_size=2, stride=2, padding=0, dilation=1, ceil_mode=False)
  (conv3): Conv2d(32, 64, kernel_size=(3, 3), stride=(1, 1), padding=(1, 1))
  (relu3): ReLU()
  (flatten): Flatten(start_dim=1, end_dim=-1)
  (fc1): Linear(in_features=3136, out_features=3, bias=True)
  (relu4): ReLU()
  (fc2): Linear(in_features=3, out_features=1, bias=True)
  (sigmoid): Sigmoid()
)",[2],fc1,0.734000027179718
784,"PyTorchCNN(
  (conv1): Conv2d(1, 16, kernel_size=(3, 3), stride=(1, 1), padding=(1, 1))
  (relu1): ReLU()
  (pool1): MaxPool2d(kernel_size=2, stride=2, padding=0, dilation=1, ceil_mode=False)
  (conv2): Conv2d(16, 32, kernel_size=(3, 3), stride=(1, 1), padding=(1, 1))
  (relu2): ReLU()
  (pool2): MaxPool2d(kernel_size=2, stride=2, padding=0, dilation=1, ceil_mode=False)
  (conv3): Conv2d(32, 64, kernel_size=(3, 3), stride=(1, 1), padding=(1, 1))
  (relu3): ReLU()
  (flatten): Flatten(start_dim=1, end_dim=-1)
  (fc1): Linear(in_features=3136, out_features=3, bias=True)
  (relu4): ReLU()
  (fc2): Linear(in_features=3, out_features=1, bias=True)
  (sigmoid): Sigmoid()
)","[0, 1, 2]",conv1,0.9509999752044678
785,"PyTorchCNN(
  (conv1): Conv2d(1, 16, kernel_size=(3, 3), stride=(1, 1), padding=(1, 1))
  (relu1): ReLU()
  (pool1): MaxPool2d(kernel_size=2, stride=2, padding=0, dilation=1, ceil_mode=False)
  (conv2): Conv2d(16, 32, kernel_size=(3, 3), stride=(1, 1), padding=(1, 1))
  (relu2): ReLU()
  (pool2): MaxPool2d(kernel_size=2, stride=2, padding=0, dilation=1, ceil_mode=False)
  (conv3): Conv2d(32, 64, kernel_size=(3, 3), stride=(1, 1), padding=(1, 1))
  (relu3): ReLU()
  (flatten): Flatten(start_dim=1, end_dim=-1)
  (fc1): Linear(in_features=3136, out_features=3, bias=True)
  (relu4): ReLU()
  (fc2): Linear(in_features=3, out_features=1, bias=True)
  (sigmoid): Sigmoid()
)","[0, 1, 2]",conv2,0.9390000104904175
786,"PyTorchCNN(
  (conv1): Conv2d(1, 16, kernel_size=(3, 3), stride=(1, 1), padding=(1, 1))
  (relu1): ReLU()
  (pool1): MaxPool2d(kernel_size=2, stride=2, padding=0, dilation=1, ceil_mode=False)
  (conv2): Conv2d(16, 32, kernel_size=(3, 3), stride=(1, 1), padding=(1, 1))
  (relu2): ReLU()
  (pool2): MaxPool2d(kernel_size=2, stride=2, padding=0, dilation=1, ceil_mode=False)
  (conv3): Conv2d(32, 64, kernel_size=(3, 3), stride=(1, 1), padding=(1, 1))
  (relu3): ReLU()
  (flatten): Flatten(start_dim=1, end_dim=-1)
  (fc1): Linear(in_features=3136, out_features=3, bias=True)
  (relu4): ReLU()
  (fc2): Linear(in_features=3, out_features=1, bias=True)
  (sigmoid): Sigmoid()
)","[0, 1, 2]",conv3,0.9649999737739563
787,"PyTorchCNN(
  (conv1): Conv2d(1, 16, kernel_size=(3, 3), stride=(1, 1), padding=(1, 1))
  (relu1): ReLU()
  (pool1): MaxPool2d(kernel_size=2, stride=2, padding=0, dilation=1, ceil_mode=False)
  (conv2): Conv2d(16, 32, kernel_size=(3, 3), stride=(1, 1), padding=(1, 1))
  (relu2): ReLU()
  (pool2): MaxPool2d(kernel_size=2, stride=2, padding=0, dilation=1, ceil_mode=False)
  (conv3): Conv2d(32, 64, kernel_size=(3, 3), stride=(1, 1), padding=(1, 1))
  (relu3): ReLU()
  (flatten): Flatten(start_dim=1, end_dim=-1)
  (fc1): Linear(in_features=3136, out_features=3, bias=True)
  (relu4): ReLU()
  (fc2): Linear(in_features=3, out_features=1, bias=True)
  (sigmoid): Sigmoid()
)","[0, 1, 2]",fc1,0.9829999804496765
788,"PyTorchCNN(
  (conv1): Conv2d(1, 16, kernel_size=(3, 3), stride=(1, 1), padding=(1, 1))
  (relu1): ReLU()
  (pool1): MaxPool2d(kernel_size=2, stride=2, padding=0, dilation=1, ceil_mode=False)
  (conv2): Conv2d(16, 32, kernel_size=(3, 3), stride=(1, 1), padding=(1, 1))
  (relu2): ReLU()
  (pool2): MaxPool2d(kernel_size=2, stride=2, padding=0, dilation=1, ceil_mode=False)
  (conv3): Conv2d(32, 64, kernel_size=(3, 3), stride=(1, 1), padding=(1, 1))
  (relu3): ReLU()
  (flatten): Flatten(start_dim=1, end_dim=-1)
  (fc1): Linear(in_features=3136, out_features=3, bias=True)
  (relu4): ReLU()
  (fc2): Linear(in_features=3, out_features=1, bias=True)
  (sigmoid): Sigmoid()
)","[0, 1]",conv1,0.9049999713897705
789,"PyTorchCNN(
  (conv1): Conv2d(1, 16, kernel_size=(3, 3), stride=(1, 1), padding=(1, 1))
  (relu1): ReLU()
  (pool1): MaxPool2d(kernel_size=2, stride=2, padding=0, dilation=1, ceil_mode=False)
  (conv2): Conv2d(16, 32, kernel_size=(3, 3), stride=(1, 1), padding=(1, 1))
  (relu2): ReLU()
  (pool2): MaxPool2d(kernel_size=2, stride=2, padding=0, dilation=1, ceil_mode=False)
  (conv3): Conv2d(32, 64, kernel_size=(3, 3), stride=(1, 1), padding=(1, 1))
  (relu3): ReLU()
  (flatten): Flatten(start_dim=1, end_dim=-1)
  (fc1): Linear(in_features=3136, out_features=3, bias=True)
  (relu4): ReLU()
  (fc2): Linear(in_features=3, out_features=1, bias=True)
  (sigmoid): Sigmoid()
)","[0, 1]",conv2,0.906000018119812
790,"PyTorchCNN(
  (conv1): Conv2d(1, 16, kernel_size=(3, 3), stride=(1, 1), padding=(1, 1))
  (relu1): ReLU()
  (pool1): MaxPool2d(kernel_size=2, stride=2, padding=0, dilation=1, ceil_mode=False)
  (conv2): Conv2d(16, 32, kernel_size=(3, 3), stride=(1, 1), padding=(1, 1))
  (relu2): ReLU()
  (pool2): MaxPool2d(kernel_size=2, stride=2, padding=0, dilation=1, ceil_mode=False)
  (conv3): Conv2d(32, 64, kernel_size=(3, 3), stride=(1, 1), padding=(1, 1))
  (relu3): ReLU()
  (flatten): Flatten(start_dim=1, end_dim=-1)
  (fc1): Linear(in_features=3136, out_features=3, bias=True)
  (relu4): ReLU()
  (fc2): Linear(in_features=3, out_features=1, bias=True)
  (sigmoid): Sigmoid()
)","[0, 1]",conv3,0.8880000114440918
791,"PyTorchCNN(
  (conv1): Conv2d(1, 16, kernel_size=(3, 3), stride=(1, 1), padding=(1, 1))
  (relu1): ReLU()
  (pool1): MaxPool2d(kernel_size=2, stride=2, padding=0, dilation=1, ceil_mode=False)
  (conv2): Conv2d(16, 32, kernel_size=(3, 3), stride=(1, 1), padding=(1, 1))
  (relu2): ReLU()
  (pool2): MaxPool2d(kernel_size=2, stride=2, padding=0, dilation=1, ceil_mode=False)
  (conv3): Conv2d(32, 64, kernel_size=(3, 3), stride=(1, 1), padding=(1, 1))
  (relu3): ReLU()
  (flatten): Flatten(start_dim=1, end_dim=-1)
  (fc1): Linear(in_features=3136, out_features=3, bias=True)
  (relu4): ReLU()
  (fc2): Linear(in_features=3, out_features=1, bias=True)
  (sigmoid): Sigmoid()
)","[0, 1]",fc1,0.6759999990463257
792,"PyTorchCNN(
  (conv1): Conv2d(1, 16, kernel_size=(3, 3), stride=(1, 1), padding=(1, 1))
  (relu1): ReLU()
  (pool1): MaxPool2d(kernel_size=2, stride=2, padding=0, dilation=1, ceil_mode=False)
  (conv2): Conv2d(16, 32, kernel_size=(3, 3), stride=(1, 1), padding=(1, 1))
  (relu2): ReLU()
  (pool2): MaxPool2d(kernel_size=2, stride=2, padding=0, dilation=1, ceil_mode=False)
  (conv3): Conv2d(32, 64, kernel_size=(3, 3), stride=(1, 1), padding=(1, 1))
  (relu3): ReLU()
  (flatten): Flatten(start_dim=1, end_dim=-1)
  (fc1): Linear(in_features=3136, out_features=3, bias=True)
  (relu4): ReLU()
  (fc2): Linear(in_features=3, out_features=1, bias=True)
  (sigmoid): Sigmoid()
)","[0, 2]",conv1,0.9240000247955322
793,"PyTorchCNN(
  (conv1): Conv2d(1, 16, kernel_size=(3, 3), stride=(1, 1), padding=(1, 1))
  (relu1): ReLU()
  (pool1): MaxPool2d(kernel_size=2, stride=2, padding=0, dilation=1, ceil_mode=False)
  (conv2): Conv2d(16, 32, kernel_size=(3, 3), stride=(1, 1), padding=(1, 1))
  (relu2): ReLU()
  (pool2): MaxPool2d(kernel_size=2, stride=2, padding=0, dilation=1, ceil_mode=False)
  (conv3): Conv2d(32, 64, kernel_size=(3, 3), stride=(1, 1), padding=(1, 1))
  (relu3): ReLU()
  (flatten): Flatten(start_dim=1, end_dim=-1)
  (fc1): Linear(in_features=3136, out_features=3, bias=True)
  (relu4): ReLU()
  (fc2): Linear(in_features=3, out_features=1, bias=True)
  (sigmoid): Sigmoid()
)","[0, 2]",conv2,0.9309999942779541
794,"PyTorchCNN(
  (conv1): Conv2d(1, 16, kernel_size=(3, 3), stride=(1, 1), padding=(1, 1))
  (relu1): ReLU()
  (pool1): MaxPool2d(kernel_size=2, stride=2, padding=0, dilation=1, ceil_mode=False)
  (conv2): Conv2d(16, 32, kernel_size=(3, 3), stride=(1, 1), padding=(1, 1))
  (relu2): ReLU()
  (pool2): MaxPool2d(kernel_size=2, stride=2, padding=0, dilation=1, ceil_mode=False)
  (conv3): Conv2d(32, 64, kernel_size=(3, 3), stride=(1, 1), padding=(1, 1))
  (relu3): ReLU()
  (flatten): Flatten(start_dim=1, end_dim=-1)
  (fc1): Linear(in_features=3136, out_features=3, bias=True)
  (relu4): ReLU()
  (fc2): Linear(in_features=3, out_features=1, bias=True)
  (sigmoid): Sigmoid()
)","[0, 2]",conv3,0.9070000052452087
795,"PyTorchCNN(
  (conv1): Conv2d(1, 16, kernel_size=(3, 3), stride=(1, 1), padding=(1, 1))
  (relu1): ReLU()
  (pool1): MaxPool2d(kernel_size=2, stride=2, padding=0, dilation=1, ceil_mode=False)
  (conv2): Conv2d(16, 32, kernel_size=(3, 3), stride=(1, 1), padding=(1, 1))
  (relu2): ReLU()
  (pool2): MaxPool2d(kernel_size=2, stride=2, padding=0, dilation=1, ceil_mode=False)
  (conv3): Conv2d(32, 64, kernel_size=(3, 3), stride=(1, 1), padding=(1, 1))
  (relu3): ReLU()
  (flatten): Flatten(start_dim=1, end_dim=-1)
  (fc1): Linear(in_features=3136, out_features=3, bias=True)
  (relu4): ReLU()
  (fc2): Linear(in_features=3, out_features=1, bias=True)
  (sigmoid): Sigmoid()
)","[0, 2]",fc1,0.6010000109672546
796,"PyTorchCNN(
  (conv1): Conv2d(1, 16, kernel_size=(3, 3), stride=(1, 1), padding=(1, 1))
  (relu1): ReLU()
  (pool1): MaxPool2d(kernel_size=2, stride=2, padding=0, dilation=1, ceil_mode=False)
  (conv2): Conv2d(16, 32, kernel_size=(3, 3), stride=(1, 1), padding=(1, 1))
  (relu2): ReLU()
  (pool2): MaxPool2d(kernel_size=2, stride=2, padding=0, dilation=1, ceil_mode=False)
  (conv3): Conv2d(32, 64, kernel_size=(3, 3), stride=(1, 1), padding=(1, 1))
  (relu3): ReLU()
  (flatten): Flatten(start_dim=1, end_dim=-1)
  (fc1): Linear(in_features=3136, out_features=3, bias=True)
  (relu4): ReLU()
  (fc2): Linear(in_features=3, out_features=1, bias=True)
  (sigmoid): Sigmoid()
)","[1, 2]",conv1,0.9419999718666077
797,"PyTorchCNN(
  (conv1): Conv2d(1, 16, kernel_size=(3, 3), stride=(1, 1), padding=(1, 1))
  (relu1): ReLU()
  (pool1): MaxPool2d(kernel_size=2, stride=2, padding=0, dilation=1, ceil_mode=False)
  (conv2): Conv2d(16, 32, kernel_size=(3, 3), stride=(1, 1), padding=(1, 1))
  (relu2): ReLU()
  (pool2): MaxPool2d(kernel_size=2, stride=2, padding=0, dilation=1, ceil_mode=False)
  (conv3): Conv2d(32, 64, kernel_size=(3, 3), stride=(1, 1), padding=(1, 1))
  (relu3): ReLU()
  (flatten): Flatten(start_dim=1, end_dim=-1)
  (fc1): Linear(in_features=3136, out_features=3, bias=True)
  (relu4): ReLU()
  (fc2): Linear(in_features=3, out_features=1, bias=True)
  (sigmoid): Sigmoid()
)","[1, 2]",conv2,0.9279999732971191
798,"PyTorchCNN(
  (conv1): Conv2d(1, 16, kernel_size=(3, 3), stride=(1, 1), padding=(1, 1))
  (relu1): ReLU()
  (pool1): MaxPool2d(kernel_size=2, stride=2, padding=0, dilation=1, ceil_mode=False)
  (conv2): Conv2d(16, 32, kernel_size=(3, 3), stride=(1, 1), padding=(1, 1))
  (relu2): ReLU()
  (pool2): MaxPool2d(kernel_size=2, stride=2, padding=0, dilation=1, ceil_mode=False)
  (conv3): Conv2d(32, 64, kernel_size=(3, 3), stride=(1, 1), padding=(1, 1))
  (relu3): ReLU()
  (flatten): Flatten(start_dim=1, end_dim=-1)
  (fc1): Linear(in_features=3136, out_features=3, bias=True)
  (relu4): ReLU()
  (fc2): Linear(in_features=3, out_features=1, bias=True)
  (sigmoid): Sigmoid()
)","[1, 2]",conv3,0.8949999809265137
799,"PyTorchCNN(
  (conv1): Conv2d(1, 16, kernel_size=(3, 3), stride=(1, 1), padding=(1, 1))
  (relu1): ReLU()
  (pool1): MaxPool2d(kernel_size=2, stride=2, padding=0, dilation=1, ceil_mode=False)
  (conv2): Conv2d(16, 32, kernel_size=(3, 3), stride=(1, 1), padding=(1, 1))
  (relu2): ReLU()
  (pool2): MaxPool2d(kernel_size=2, stride=2, padding=0, dilation=1, ceil_mode=False)
  (conv3): Conv2d(32, 64, kernel_size=(3, 3), stride=(1, 1), padding=(1, 1))
  (relu3): ReLU()
  (flatten): Flatten(start_dim=1, end_dim=-1)
  (fc1): Linear(in_features=3136, out_features=3, bias=True)
  (relu4): ReLU()
  (fc2): Linear(in_features=3, out_features=1, bias=True)
  (sigmoid): Sigmoid()
)","[1, 2]",fc1,0.5879999995231628
800,"PyTorchCNN(
  (conv1): Conv2d(1, 16, kernel_size=(3, 3), stride=(1, 1), padding=(1, 1))
  (relu1): ReLU()
  (pool1): MaxPool2d(kernel_size=2, stride=2, padding=0, dilation=1, ceil_mode=False)
  (conv2): Conv2d(16, 32, kernel_size=(3, 3), stride=(1, 1), padding=(1, 1))
  (relu2): ReLU()
  (pool2): MaxPool2d(kernel_size=2, stride=2, padding=0, dilation=1, ceil_mode=False)
  (conv3): Conv2d(32, 64, kernel_size=(3, 3), stride=(1, 1), padding=(1, 1))
  (relu3): ReLU()
  (flatten): Flatten(start_dim=1, end_dim=-1)
  (fc1): Linear(in_features=3136, out_features=3, bias=True)
  (relu4): ReLU()
  (fc2): Linear(in_features=3, out_features=1, bias=True)
  (sigmoid): Sigmoid()
)",[0],conv1,0.9240000247955322
801,"PyTorchCNN(
  (conv1): Conv2d(1, 16, kernel_size=(3, 3), stride=(1, 1), padding=(1, 1))
  (relu1): ReLU()
  (pool1): MaxPool2d(kernel_size=2, stride=2, padding=0, dilation=1, ceil_mode=False)
  (conv2): Conv2d(16, 32, kernel_size=(3, 3), stride=(1, 1), padding=(1, 1))
  (relu2): ReLU()
  (pool2): MaxPool2d(kernel_size=2, stride=2, padding=0, dilation=1, ceil_mode=False)
  (conv3): Conv2d(32, 64, kernel_size=(3, 3), stride=(1, 1), padding=(1, 1))
  (relu3): ReLU()
  (flatten): Flatten(start_dim=1, end_dim=-1)
  (fc1): Linear(in_features=3136, out_features=3, bias=True)
  (relu4): ReLU()
  (fc2): Linear(in_features=3, out_features=1, bias=True)
  (sigmoid): Sigmoid()
)",[0],conv2,0.9229999780654907
802,"PyTorchCNN(
  (conv1): Conv2d(1, 16, kernel_size=(3, 3), stride=(1, 1), padding=(1, 1))
  (relu1): ReLU()
  (pool1): MaxPool2d(kernel_size=2, stride=2, padding=0, dilation=1, ceil_mode=False)
  (conv2): Conv2d(16, 32, kernel_size=(3, 3), stride=(1, 1), padding=(1, 1))
  (relu2): ReLU()
  (pool2): MaxPool2d(kernel_size=2, stride=2, padding=0, dilation=1, ceil_mode=False)
  (conv3): Conv2d(32, 64, kernel_size=(3, 3), stride=(1, 1), padding=(1, 1))
  (relu3): ReLU()
  (flatten): Flatten(start_dim=1, end_dim=-1)
  (fc1): Linear(in_features=3136, out_features=3, bias=True)
  (relu4): ReLU()
  (fc2): Linear(in_features=3, out_features=1, bias=True)
  (sigmoid): Sigmoid()
)",[0],conv3,0.8980000019073486
803,"PyTorchCNN(
  (conv1): Conv2d(1, 16, kernel_size=(3, 3), stride=(1, 1), padding=(1, 1))
  (relu1): ReLU()
  (pool1): MaxPool2d(kernel_size=2, stride=2, padding=0, dilation=1, ceil_mode=False)
  (conv2): Conv2d(16, 32, kernel_size=(3, 3), stride=(1, 1), padding=(1, 1))
  (relu2): ReLU()
  (pool2): MaxPool2d(kernel_size=2, stride=2, padding=0, dilation=1, ceil_mode=False)
  (conv3): Conv2d(32, 64, kernel_size=(3, 3), stride=(1, 1), padding=(1, 1))
  (relu3): ReLU()
  (flatten): Flatten(start_dim=1, end_dim=-1)
  (fc1): Linear(in_features=3136, out_features=3, bias=True)
  (relu4): ReLU()
  (fc2): Linear(in_features=3, out_features=1, bias=True)
  (sigmoid): Sigmoid()
)",[0],fc1,0.7210000157356262
804,"PyTorchCNN(
  (conv1): Conv2d(1, 16, kernel_size=(3, 3), stride=(1, 1), padding=(1, 1))
  (relu1): ReLU()
  (pool1): MaxPool2d(kernel_size=2, stride=2, padding=0, dilation=1, ceil_mode=False)
  (conv2): Conv2d(16, 32, kernel_size=(3, 3), stride=(1, 1), padding=(1, 1))
  (relu2): ReLU()
  (pool2): MaxPool2d(kernel_size=2, stride=2, padding=0, dilation=1, ceil_mode=False)
  (conv3): Conv2d(32, 64, kernel_size=(3, 3), stride=(1, 1), padding=(1, 1))
  (relu3): ReLU()
  (flatten): Flatten(start_dim=1, end_dim=-1)
  (fc1): Linear(in_features=3136, out_features=3, bias=True)
  (relu4): ReLU()
  (fc2): Linear(in_features=3, out_features=1, bias=True)
  (sigmoid): Sigmoid()
)",[1],conv1,0.9480000138282776
805,"PyTorchCNN(
  (conv1): Conv2d(1, 16, kernel_size=(3, 3), stride=(1, 1), padding=(1, 1))
  (relu1): ReLU()
  (pool1): MaxPool2d(kernel_size=2, stride=2, padding=0, dilation=1, ceil_mode=False)
  (conv2): Conv2d(16, 32, kernel_size=(3, 3), stride=(1, 1), padding=(1, 1))
  (relu2): ReLU()
  (pool2): MaxPool2d(kernel_size=2, stride=2, padding=0, dilation=1, ceil_mode=False)
  (conv3): Conv2d(32, 64, kernel_size=(3, 3), stride=(1, 1), padding=(1, 1))
  (relu3): ReLU()
  (flatten): Flatten(start_dim=1, end_dim=-1)
  (fc1): Linear(in_features=3136, out_features=3, bias=True)
  (relu4): ReLU()
  (fc2): Linear(in_features=3, out_features=1, bias=True)
  (sigmoid): Sigmoid()
)",[1],conv2,0.9729999899864197
806,"PyTorchCNN(
  (conv1): Conv2d(1, 16, kernel_size=(3, 3), stride=(1, 1), padding=(1, 1))
  (relu1): ReLU()
  (pool1): MaxPool2d(kernel_size=2, stride=2, padding=0, dilation=1, ceil_mode=False)
  (conv2): Conv2d(16, 32, kernel_size=(3, 3), stride=(1, 1), padding=(1, 1))
  (relu2): ReLU()
  (pool2): MaxPool2d(kernel_size=2, stride=2, padding=0, dilation=1, ceil_mode=False)
  (conv3): Conv2d(32, 64, kernel_size=(3, 3), stride=(1, 1), padding=(1, 1))
  (relu3): ReLU()
  (flatten): Flatten(start_dim=1, end_dim=-1)
  (fc1): Linear(in_features=3136, out_features=3, bias=True)
  (relu4): ReLU()
  (fc2): Linear(in_features=3, out_features=1, bias=True)
  (sigmoid): Sigmoid()
)",[1],conv3,0.9319999814033508
807,"PyTorchCNN(
  (conv1): Conv2d(1, 16, kernel_size=(3, 3), stride=(1, 1), padding=(1, 1))
  (relu1): ReLU()
  (pool1): MaxPool2d(kernel_size=2, stride=2, padding=0, dilation=1, ceil_mode=False)
  (conv2): Conv2d(16, 32, kernel_size=(3, 3), stride=(1, 1), padding=(1, 1))
  (relu2): ReLU()
  (pool2): MaxPool2d(kernel_size=2, stride=2, padding=0, dilation=1, ceil_mode=False)
  (conv3): Conv2d(32, 64, kernel_size=(3, 3), stride=(1, 1), padding=(1, 1))
  (relu3): ReLU()
  (flatten): Flatten(start_dim=1, end_dim=-1)
  (fc1): Linear(in_features=3136, out_features=3, bias=True)
  (relu4): ReLU()
  (fc2): Linear(in_features=3, out_features=1, bias=True)
  (sigmoid): Sigmoid()
)",[1],fc1,0.699999988079071
808,"PyTorchCNN(
  (conv1): Conv2d(1, 16, kernel_size=(3, 3), stride=(1, 1), padding=(1, 1))
  (relu1): ReLU()
  (pool1): MaxPool2d(kernel_size=2, stride=2, padding=0, dilation=1, ceil_mode=False)
  (conv2): Conv2d(16, 32, kernel_size=(3, 3), stride=(1, 1), padding=(1, 1))
  (relu2): ReLU()
  (pool2): MaxPool2d(kernel_size=2, stride=2, padding=0, dilation=1, ceil_mode=False)
  (conv3): Conv2d(32, 64, kernel_size=(3, 3), stride=(1, 1), padding=(1, 1))
  (relu3): ReLU()
  (flatten): Flatten(start_dim=1, end_dim=-1)
  (fc1): Linear(in_features=3136, out_features=3, bias=True)
  (relu4): ReLU()
  (fc2): Linear(in_features=3, out_features=1, bias=True)
  (sigmoid): Sigmoid()
)",[2],conv1,0.9449999928474426
809,"PyTorchCNN(
  (conv1): Conv2d(1, 16, kernel_size=(3, 3), stride=(1, 1), padding=(1, 1))
  (relu1): ReLU()
  (pool1): MaxPool2d(kernel_size=2, stride=2, padding=0, dilation=1, ceil_mode=False)
  (conv2): Conv2d(16, 32, kernel_size=(3, 3), stride=(1, 1), padding=(1, 1))
  (relu2): ReLU()
  (pool2): MaxPool2d(kernel_size=2, stride=2, padding=0, dilation=1, ceil_mode=False)
  (conv3): Conv2d(32, 64, kernel_size=(3, 3), stride=(1, 1), padding=(1, 1))
  (relu3): ReLU()
  (flatten): Flatten(start_dim=1, end_dim=-1)
  (fc1): Linear(in_features=3136, out_features=3, bias=True)
  (relu4): ReLU()
  (fc2): Linear(in_features=3, out_features=1, bias=True)
  (sigmoid): Sigmoid()
)",[2],conv2,0.9259999990463257
810,"PyTorchCNN(
  (conv1): Conv2d(1, 16, kernel_size=(3, 3), stride=(1, 1), padding=(1, 1))
  (relu1): ReLU()
  (pool1): MaxPool2d(kernel_size=2, stride=2, padding=0, dilation=1, ceil_mode=False)
  (conv2): Conv2d(16, 32, kernel_size=(3, 3), stride=(1, 1), padding=(1, 1))
  (relu2): ReLU()
  (pool2): MaxPool2d(kernel_size=2, stride=2, padding=0, dilation=1, ceil_mode=False)
  (conv3): Conv2d(32, 64, kernel_size=(3, 3), stride=(1, 1), padding=(1, 1))
  (relu3): ReLU()
  (flatten): Flatten(start_dim=1, end_dim=-1)
  (fc1): Linear(in_features=3136, out_features=3, bias=True)
  (relu4): ReLU()
  (fc2): Linear(in_features=3, out_features=1, bias=True)
  (sigmoid): Sigmoid()
)",[2],conv3,0.8980000019073486
811,"PyTorchCNN(
  (conv1): Conv2d(1, 16, kernel_size=(3, 3), stride=(1, 1), padding=(1, 1))
  (relu1): ReLU()
  (pool1): MaxPool2d(kernel_size=2, stride=2, padding=0, dilation=1, ceil_mode=False)
  (conv2): Conv2d(16, 32, kernel_size=(3, 3), stride=(1, 1), padding=(1, 1))
  (relu2): ReLU()
  (pool2): MaxPool2d(kernel_size=2, stride=2, padding=0, dilation=1, ceil_mode=False)
  (conv3): Conv2d(32, 64, kernel_size=(3, 3), stride=(1, 1), padding=(1, 1))
  (relu3): ReLU()
  (flatten): Flatten(start_dim=1, end_dim=-1)
  (fc1): Linear(in_features=3136, out_features=3, bias=True)
  (relu4): ReLU()
  (fc2): Linear(in_features=3, out_features=1, bias=True)
  (sigmoid): Sigmoid()
)",[2],fc1,0.6790000200271606
812,"PyTorchCNN(
  (conv1): Conv2d(1, 16, kernel_size=(3, 3), stride=(1, 1), padding=(1, 1))
  (relu1): ReLU()
  (pool1): MaxPool2d(kernel_size=2, stride=2, padding=0, dilation=1, ceil_mode=False)
  (conv2): Conv2d(16, 32, kernel_size=(3, 3), stride=(1, 1), padding=(1, 1))
  (relu2): ReLU()
  (pool2): MaxPool2d(kernel_size=2, stride=2, padding=0, dilation=1, ceil_mode=False)
  (conv3): Conv2d(32, 64, kernel_size=(3, 3), stride=(1, 1), padding=(1, 1))
  (relu3): ReLU()
  (flatten): Flatten(start_dim=1, end_dim=-1)
  (fc1): Linear(in_features=3136, out_features=3, bias=True)
  (relu4): ReLU()
  (fc2): Linear(in_features=3, out_features=1, bias=True)
  (sigmoid): Sigmoid()
)","[0, 1, 2]",conv1,0.8690000176429749
813,"PyTorchCNN(
  (conv1): Conv2d(1, 16, kernel_size=(3, 3), stride=(1, 1), padding=(1, 1))
  (relu1): ReLU()
  (pool1): MaxPool2d(kernel_size=2, stride=2, padding=0, dilation=1, ceil_mode=False)
  (conv2): Conv2d(16, 32, kernel_size=(3, 3), stride=(1, 1), padding=(1, 1))
  (relu2): ReLU()
  (pool2): MaxPool2d(kernel_size=2, stride=2, padding=0, dilation=1, ceil_mode=False)
  (conv3): Conv2d(32, 64, kernel_size=(3, 3), stride=(1, 1), padding=(1, 1))
  (relu3): ReLU()
  (flatten): Flatten(start_dim=1, end_dim=-1)
  (fc1): Linear(in_features=3136, out_features=3, bias=True)
  (relu4): ReLU()
  (fc2): Linear(in_features=3, out_features=1, bias=True)
  (sigmoid): Sigmoid()
)","[0, 1, 2]",conv2,0.9269999861717224
814,"PyTorchCNN(
  (conv1): Conv2d(1, 16, kernel_size=(3, 3), stride=(1, 1), padding=(1, 1))
  (relu1): ReLU()
  (pool1): MaxPool2d(kernel_size=2, stride=2, padding=0, dilation=1, ceil_mode=False)
  (conv2): Conv2d(16, 32, kernel_size=(3, 3), stride=(1, 1), padding=(1, 1))
  (relu2): ReLU()
  (pool2): MaxPool2d(kernel_size=2, stride=2, padding=0, dilation=1, ceil_mode=False)
  (conv3): Conv2d(32, 64, kernel_size=(3, 3), stride=(1, 1), padding=(1, 1))
  (relu3): ReLU()
  (flatten): Flatten(start_dim=1, end_dim=-1)
  (fc1): Linear(in_features=3136, out_features=3, bias=True)
  (relu4): ReLU()
  (fc2): Linear(in_features=3, out_features=1, bias=True)
  (sigmoid): Sigmoid()
)","[0, 1, 2]",conv3,0.9070000052452087
815,"PyTorchCNN(
  (conv1): Conv2d(1, 16, kernel_size=(3, 3), stride=(1, 1), padding=(1, 1))
  (relu1): ReLU()
  (pool1): MaxPool2d(kernel_size=2, stride=2, padding=0, dilation=1, ceil_mode=False)
  (conv2): Conv2d(16, 32, kernel_size=(3, 3), stride=(1, 1), padding=(1, 1))
  (relu2): ReLU()
  (pool2): MaxPool2d(kernel_size=2, stride=2, padding=0, dilation=1, ceil_mode=False)
  (conv3): Conv2d(32, 64, kernel_size=(3, 3), stride=(1, 1), padding=(1, 1))
  (relu3): ReLU()
  (flatten): Flatten(start_dim=1, end_dim=-1)
  (fc1): Linear(in_features=3136, out_features=3, bias=True)
  (relu4): ReLU()
  (fc2): Linear(in_features=3, out_features=1, bias=True)
  (sigmoid): Sigmoid()
)","[0, 1, 2]",fc1,0.5770000219345093
816,"PyTorchCNN(
  (conv1): Conv2d(1, 16, kernel_size=(3, 3), stride=(1, 1), padding=(1, 1))
  (relu1): ReLU()
  (pool1): MaxPool2d(kernel_size=2, stride=2, padding=0, dilation=1, ceil_mode=False)
  (conv2): Conv2d(16, 32, kernel_size=(3, 3), stride=(1, 1), padding=(1, 1))
  (relu2): ReLU()
  (pool2): MaxPool2d(kernel_size=2, stride=2, padding=0, dilation=1, ceil_mode=False)
  (conv3): Conv2d(32, 64, kernel_size=(3, 3), stride=(1, 1), padding=(1, 1))
  (relu3): ReLU()
  (flatten): Flatten(start_dim=1, end_dim=-1)
  (fc1): Linear(in_features=3136, out_features=3, bias=True)
  (relu4): ReLU()
  (fc2): Linear(in_features=3, out_features=1, bias=True)
  (sigmoid): Sigmoid()
)","[0, 1]",conv1,0.9110000133514404
817,"PyTorchCNN(
  (conv1): Conv2d(1, 16, kernel_size=(3, 3), stride=(1, 1), padding=(1, 1))
  (relu1): ReLU()
  (pool1): MaxPool2d(kernel_size=2, stride=2, padding=0, dilation=1, ceil_mode=False)
  (conv2): Conv2d(16, 32, kernel_size=(3, 3), stride=(1, 1), padding=(1, 1))
  (relu2): ReLU()
  (pool2): MaxPool2d(kernel_size=2, stride=2, padding=0, dilation=1, ceil_mode=False)
  (conv3): Conv2d(32, 64, kernel_size=(3, 3), stride=(1, 1), padding=(1, 1))
  (relu3): ReLU()
  (flatten): Flatten(start_dim=1, end_dim=-1)
  (fc1): Linear(in_features=3136, out_features=3, bias=True)
  (relu4): ReLU()
  (fc2): Linear(in_features=3, out_features=1, bias=True)
  (sigmoid): Sigmoid()
)","[0, 1]",conv2,0.890999972820282
818,"PyTorchCNN(
  (conv1): Conv2d(1, 16, kernel_size=(3, 3), stride=(1, 1), padding=(1, 1))
  (relu1): ReLU()
  (pool1): MaxPool2d(kernel_size=2, stride=2, padding=0, dilation=1, ceil_mode=False)
  (conv2): Conv2d(16, 32, kernel_size=(3, 3), stride=(1, 1), padding=(1, 1))
  (relu2): ReLU()
  (pool2): MaxPool2d(kernel_size=2, stride=2, padding=0, dilation=1, ceil_mode=False)
  (conv3): Conv2d(32, 64, kernel_size=(3, 3), stride=(1, 1), padding=(1, 1))
  (relu3): ReLU()
  (flatten): Flatten(start_dim=1, end_dim=-1)
  (fc1): Linear(in_features=3136, out_features=3, bias=True)
  (relu4): ReLU()
  (fc2): Linear(in_features=3, out_features=1, bias=True)
  (sigmoid): Sigmoid()
)","[0, 1]",conv3,0.9020000100135803
819,"PyTorchCNN(
  (conv1): Conv2d(1, 16, kernel_size=(3, 3), stride=(1, 1), padding=(1, 1))
  (relu1): ReLU()
  (pool1): MaxPool2d(kernel_size=2, stride=2, padding=0, dilation=1, ceil_mode=False)
  (conv2): Conv2d(16, 32, kernel_size=(3, 3), stride=(1, 1), padding=(1, 1))
  (relu2): ReLU()
  (pool2): MaxPool2d(kernel_size=2, stride=2, padding=0, dilation=1, ceil_mode=False)
  (conv3): Conv2d(32, 64, kernel_size=(3, 3), stride=(1, 1), padding=(1, 1))
  (relu3): ReLU()
  (flatten): Flatten(start_dim=1, end_dim=-1)
  (fc1): Linear(in_features=3136, out_features=3, bias=True)
  (relu4): ReLU()
  (fc2): Linear(in_features=3, out_features=1, bias=True)
  (sigmoid): Sigmoid()
)","[0, 1]",fc1,0.6629999876022339
820,"PyTorchCNN(
  (conv1): Conv2d(1, 16, kernel_size=(3, 3), stride=(1, 1), padding=(1, 1))
  (relu1): ReLU()
  (pool1): MaxPool2d(kernel_size=2, stride=2, padding=0, dilation=1, ceil_mode=False)
  (conv2): Conv2d(16, 32, kernel_size=(3, 3), stride=(1, 1), padding=(1, 1))
  (relu2): ReLU()
  (pool2): MaxPool2d(kernel_size=2, stride=2, padding=0, dilation=1, ceil_mode=False)
  (conv3): Conv2d(32, 64, kernel_size=(3, 3), stride=(1, 1), padding=(1, 1))
  (relu3): ReLU()
  (flatten): Flatten(start_dim=1, end_dim=-1)
  (fc1): Linear(in_features=3136, out_features=3, bias=True)
  (relu4): ReLU()
  (fc2): Linear(in_features=3, out_features=1, bias=True)
  (sigmoid): Sigmoid()
)","[0, 2]",conv1,0.9229999780654907
821,"PyTorchCNN(
  (conv1): Conv2d(1, 16, kernel_size=(3, 3), stride=(1, 1), padding=(1, 1))
  (relu1): ReLU()
  (pool1): MaxPool2d(kernel_size=2, stride=2, padding=0, dilation=1, ceil_mode=False)
  (conv2): Conv2d(16, 32, kernel_size=(3, 3), stride=(1, 1), padding=(1, 1))
  (relu2): ReLU()
  (pool2): MaxPool2d(kernel_size=2, stride=2, padding=0, dilation=1, ceil_mode=False)
  (conv3): Conv2d(32, 64, kernel_size=(3, 3), stride=(1, 1), padding=(1, 1))
  (relu3): ReLU()
  (flatten): Flatten(start_dim=1, end_dim=-1)
  (fc1): Linear(in_features=3136, out_features=3, bias=True)
  (relu4): ReLU()
  (fc2): Linear(in_features=3, out_features=1, bias=True)
  (sigmoid): Sigmoid()
)","[0, 2]",conv2,0.9259999990463257
822,"PyTorchCNN(
  (conv1): Conv2d(1, 16, kernel_size=(3, 3), stride=(1, 1), padding=(1, 1))
  (relu1): ReLU()
  (pool1): MaxPool2d(kernel_size=2, stride=2, padding=0, dilation=1, ceil_mode=False)
  (conv2): Conv2d(16, 32, kernel_size=(3, 3), stride=(1, 1), padding=(1, 1))
  (relu2): ReLU()
  (pool2): MaxPool2d(kernel_size=2, stride=2, padding=0, dilation=1, ceil_mode=False)
  (conv3): Conv2d(32, 64, kernel_size=(3, 3), stride=(1, 1), padding=(1, 1))
  (relu3): ReLU()
  (flatten): Flatten(start_dim=1, end_dim=-1)
  (fc1): Linear(in_features=3136, out_features=3, bias=True)
  (relu4): ReLU()
  (fc2): Linear(in_features=3, out_features=1, bias=True)
  (sigmoid): Sigmoid()
)","[0, 2]",conv3,0.9070000052452087
823,"PyTorchCNN(
  (conv1): Conv2d(1, 16, kernel_size=(3, 3), stride=(1, 1), padding=(1, 1))
  (relu1): ReLU()
  (pool1): MaxPool2d(kernel_size=2, stride=2, padding=0, dilation=1, ceil_mode=False)
  (conv2): Conv2d(16, 32, kernel_size=(3, 3), stride=(1, 1), padding=(1, 1))
  (relu2): ReLU()
  (pool2): MaxPool2d(kernel_size=2, stride=2, padding=0, dilation=1, ceil_mode=False)
  (conv3): Conv2d(32, 64, kernel_size=(3, 3), stride=(1, 1), padding=(1, 1))
  (relu3): ReLU()
  (flatten): Flatten(start_dim=1, end_dim=-1)
  (fc1): Linear(in_features=3136, out_features=3, bias=True)
  (relu4): ReLU()
  (fc2): Linear(in_features=3, out_features=1, bias=True)
  (sigmoid): Sigmoid()
)","[0, 2]",fc1,0.7289999723434448
824,"PyTorchCNN(
  (conv1): Conv2d(1, 16, kernel_size=(3, 3), stride=(1, 1), padding=(1, 1))
  (relu1): ReLU()
  (pool1): MaxPool2d(kernel_size=2, stride=2, padding=0, dilation=1, ceil_mode=False)
  (conv2): Conv2d(16, 32, kernel_size=(3, 3), stride=(1, 1), padding=(1, 1))
  (relu2): ReLU()
  (pool2): MaxPool2d(kernel_size=2, stride=2, padding=0, dilation=1, ceil_mode=False)
  (conv3): Conv2d(32, 64, kernel_size=(3, 3), stride=(1, 1), padding=(1, 1))
  (relu3): ReLU()
  (flatten): Flatten(start_dim=1, end_dim=-1)
  (fc1): Linear(in_features=3136, out_features=3, bias=True)
  (relu4): ReLU()
  (fc2): Linear(in_features=3, out_features=1, bias=True)
  (sigmoid): Sigmoid()
)","[1, 2]",conv1,0.9380000233650208
825,"PyTorchCNN(
  (conv1): Conv2d(1, 16, kernel_size=(3, 3), stride=(1, 1), padding=(1, 1))
  (relu1): ReLU()
  (pool1): MaxPool2d(kernel_size=2, stride=2, padding=0, dilation=1, ceil_mode=False)
  (conv2): Conv2d(16, 32, kernel_size=(3, 3), stride=(1, 1), padding=(1, 1))
  (relu2): ReLU()
  (pool2): MaxPool2d(kernel_size=2, stride=2, padding=0, dilation=1, ceil_mode=False)
  (conv3): Conv2d(32, 64, kernel_size=(3, 3), stride=(1, 1), padding=(1, 1))
  (relu3): ReLU()
  (flatten): Flatten(start_dim=1, end_dim=-1)
  (fc1): Linear(in_features=3136, out_features=3, bias=True)
  (relu4): ReLU()
  (fc2): Linear(in_features=3, out_features=1, bias=True)
  (sigmoid): Sigmoid()
)","[1, 2]",conv2,0.9290000200271606
826,"PyTorchCNN(
  (conv1): Conv2d(1, 16, kernel_size=(3, 3), stride=(1, 1), padding=(1, 1))
  (relu1): ReLU()
  (pool1): MaxPool2d(kernel_size=2, stride=2, padding=0, dilation=1, ceil_mode=False)
  (conv2): Conv2d(16, 32, kernel_size=(3, 3), stride=(1, 1), padding=(1, 1))
  (relu2): ReLU()
  (pool2): MaxPool2d(kernel_size=2, stride=2, padding=0, dilation=1, ceil_mode=False)
  (conv3): Conv2d(32, 64, kernel_size=(3, 3), stride=(1, 1), padding=(1, 1))
  (relu3): ReLU()
  (flatten): Flatten(start_dim=1, end_dim=-1)
  (fc1): Linear(in_features=3136, out_features=3, bias=True)
  (relu4): ReLU()
  (fc2): Linear(in_features=3, out_features=1, bias=True)
  (sigmoid): Sigmoid()
)","[1, 2]",conv3,0.8980000019073486
827,"PyTorchCNN(
  (conv1): Conv2d(1, 16, kernel_size=(3, 3), stride=(1, 1), padding=(1, 1))
  (relu1): ReLU()
  (pool1): MaxPool2d(kernel_size=2, stride=2, padding=0, dilation=1, ceil_mode=False)
  (conv2): Conv2d(16, 32, kernel_size=(3, 3), stride=(1, 1), padding=(1, 1))
  (relu2): ReLU()
  (pool2): MaxPool2d(kernel_size=2, stride=2, padding=0, dilation=1, ceil_mode=False)
  (conv3): Conv2d(32, 64, kernel_size=(3, 3), stride=(1, 1), padding=(1, 1))
  (relu3): ReLU()
  (flatten): Flatten(start_dim=1, end_dim=-1)
  (fc1): Linear(in_features=3136, out_features=3, bias=True)
  (relu4): ReLU()
  (fc2): Linear(in_features=3, out_features=1, bias=True)
  (sigmoid): Sigmoid()
)","[1, 2]",fc1,0.6859999895095825
828,"PyTorchCNN(
  (conv1): Conv2d(1, 16, kernel_size=(3, 3), stride=(1, 1), padding=(1, 1))
  (relu1): ReLU()
  (pool1): MaxPool2d(kernel_size=2, stride=2, padding=0, dilation=1, ceil_mode=False)
  (conv2): Conv2d(16, 32, kernel_size=(3, 3), stride=(1, 1), padding=(1, 1))
  (relu2): ReLU()
  (pool2): MaxPool2d(kernel_size=2, stride=2, padding=0, dilation=1, ceil_mode=False)
  (conv3): Conv2d(32, 64, kernel_size=(3, 3), stride=(1, 1), padding=(1, 1))
  (relu3): ReLU()
  (flatten): Flatten(start_dim=1, end_dim=-1)
  (fc1): Linear(in_features=3136, out_features=3, bias=True)
  (relu4): ReLU()
  (fc2): Linear(in_features=3, out_features=1, bias=True)
  (sigmoid): Sigmoid()
)",[0],conv1,0.9089999794960022
829,"PyTorchCNN(
  (conv1): Conv2d(1, 16, kernel_size=(3, 3), stride=(1, 1), padding=(1, 1))
  (relu1): ReLU()
  (pool1): MaxPool2d(kernel_size=2, stride=2, padding=0, dilation=1, ceil_mode=False)
  (conv2): Conv2d(16, 32, kernel_size=(3, 3), stride=(1, 1), padding=(1, 1))
  (relu2): ReLU()
  (pool2): MaxPool2d(kernel_size=2, stride=2, padding=0, dilation=1, ceil_mode=False)
  (conv3): Conv2d(32, 64, kernel_size=(3, 3), stride=(1, 1), padding=(1, 1))
  (relu3): ReLU()
  (flatten): Flatten(start_dim=1, end_dim=-1)
  (fc1): Linear(in_features=3136, out_features=3, bias=True)
  (relu4): ReLU()
  (fc2): Linear(in_features=3, out_features=1, bias=True)
  (sigmoid): Sigmoid()
)",[0],conv2,0.8799999952316284
830,"PyTorchCNN(
  (conv1): Conv2d(1, 16, kernel_size=(3, 3), stride=(1, 1), padding=(1, 1))
  (relu1): ReLU()
  (pool1): MaxPool2d(kernel_size=2, stride=2, padding=0, dilation=1, ceil_mode=False)
  (conv2): Conv2d(16, 32, kernel_size=(3, 3), stride=(1, 1), padding=(1, 1))
  (relu2): ReLU()
  (pool2): MaxPool2d(kernel_size=2, stride=2, padding=0, dilation=1, ceil_mode=False)
  (conv3): Conv2d(32, 64, kernel_size=(3, 3), stride=(1, 1), padding=(1, 1))
  (relu3): ReLU()
  (flatten): Flatten(start_dim=1, end_dim=-1)
  (fc1): Linear(in_features=3136, out_features=3, bias=True)
  (relu4): ReLU()
  (fc2): Linear(in_features=3, out_features=1, bias=True)
  (sigmoid): Sigmoid()
)",[0],conv3,0.8830000162124634
831,"PyTorchCNN(
  (conv1): Conv2d(1, 16, kernel_size=(3, 3), stride=(1, 1), padding=(1, 1))
  (relu1): ReLU()
  (pool1): MaxPool2d(kernel_size=2, stride=2, padding=0, dilation=1, ceil_mode=False)
  (conv2): Conv2d(16, 32, kernel_size=(3, 3), stride=(1, 1), padding=(1, 1))
  (relu2): ReLU()
  (pool2): MaxPool2d(kernel_size=2, stride=2, padding=0, dilation=1, ceil_mode=False)
  (conv3): Conv2d(32, 64, kernel_size=(3, 3), stride=(1, 1), padding=(1, 1))
  (relu3): ReLU()
  (flatten): Flatten(start_dim=1, end_dim=-1)
  (fc1): Linear(in_features=3136, out_features=3, bias=True)
  (relu4): ReLU()
  (fc2): Linear(in_features=3, out_features=1, bias=True)
  (sigmoid): Sigmoid()
)",[0],fc1,0.7080000042915344
832,"PyTorchCNN(
  (conv1): Conv2d(1, 16, kernel_size=(3, 3), stride=(1, 1), padding=(1, 1))
  (relu1): ReLU()
  (pool1): MaxPool2d(kernel_size=2, stride=2, padding=0, dilation=1, ceil_mode=False)
  (conv2): Conv2d(16, 32, kernel_size=(3, 3), stride=(1, 1), padding=(1, 1))
  (relu2): ReLU()
  (pool2): MaxPool2d(kernel_size=2, stride=2, padding=0, dilation=1, ceil_mode=False)
  (conv3): Conv2d(32, 64, kernel_size=(3, 3), stride=(1, 1), padding=(1, 1))
  (relu3): ReLU()
  (flatten): Flatten(start_dim=1, end_dim=-1)
  (fc1): Linear(in_features=3136, out_features=3, bias=True)
  (relu4): ReLU()
  (fc2): Linear(in_features=3, out_features=1, bias=True)
  (sigmoid): Sigmoid()
)",[1],conv1,0.9559999704360962
833,"PyTorchCNN(
  (conv1): Conv2d(1, 16, kernel_size=(3, 3), stride=(1, 1), padding=(1, 1))
  (relu1): ReLU()
  (pool1): MaxPool2d(kernel_size=2, stride=2, padding=0, dilation=1, ceil_mode=False)
  (conv2): Conv2d(16, 32, kernel_size=(3, 3), stride=(1, 1), padding=(1, 1))
  (relu2): ReLU()
  (pool2): MaxPool2d(kernel_size=2, stride=2, padding=0, dilation=1, ceil_mode=False)
  (conv3): Conv2d(32, 64, kernel_size=(3, 3), stride=(1, 1), padding=(1, 1))
  (relu3): ReLU()
  (flatten): Flatten(start_dim=1, end_dim=-1)
  (fc1): Linear(in_features=3136, out_features=3, bias=True)
  (relu4): ReLU()
  (fc2): Linear(in_features=3, out_features=1, bias=True)
  (sigmoid): Sigmoid()
)",[1],conv2,0.9480000138282776
834,"PyTorchCNN(
  (conv1): Conv2d(1, 16, kernel_size=(3, 3), stride=(1, 1), padding=(1, 1))
  (relu1): ReLU()
  (pool1): MaxPool2d(kernel_size=2, stride=2, padding=0, dilation=1, ceil_mode=False)
  (conv2): Conv2d(16, 32, kernel_size=(3, 3), stride=(1, 1), padding=(1, 1))
  (relu2): ReLU()
  (pool2): MaxPool2d(kernel_size=2, stride=2, padding=0, dilation=1, ceil_mode=False)
  (conv3): Conv2d(32, 64, kernel_size=(3, 3), stride=(1, 1), padding=(1, 1))
  (relu3): ReLU()
  (flatten): Flatten(start_dim=1, end_dim=-1)
  (fc1): Linear(in_features=3136, out_features=3, bias=True)
  (relu4): ReLU()
  (fc2): Linear(in_features=3, out_features=1, bias=True)
  (sigmoid): Sigmoid()
)",[1],conv3,0.9419999718666077
835,"PyTorchCNN(
  (conv1): Conv2d(1, 16, kernel_size=(3, 3), stride=(1, 1), padding=(1, 1))
  (relu1): ReLU()
  (pool1): MaxPool2d(kernel_size=2, stride=2, padding=0, dilation=1, ceil_mode=False)
  (conv2): Conv2d(16, 32, kernel_size=(3, 3), stride=(1, 1), padding=(1, 1))
  (relu2): ReLU()
  (pool2): MaxPool2d(kernel_size=2, stride=2, padding=0, dilation=1, ceil_mode=False)
  (conv3): Conv2d(32, 64, kernel_size=(3, 3), stride=(1, 1), padding=(1, 1))
  (relu3): ReLU()
  (flatten): Flatten(start_dim=1, end_dim=-1)
  (fc1): Linear(in_features=3136, out_features=3, bias=True)
  (relu4): ReLU()
  (fc2): Linear(in_features=3, out_features=1, bias=True)
  (sigmoid): Sigmoid()
)",[1],fc1,0.7670000195503235
836,"PyTorchCNN(
  (conv1): Conv2d(1, 16, kernel_size=(3, 3), stride=(1, 1), padding=(1, 1))
  (relu1): ReLU()
  (pool1): MaxPool2d(kernel_size=2, stride=2, padding=0, dilation=1, ceil_mode=False)
  (conv2): Conv2d(16, 32, kernel_size=(3, 3), stride=(1, 1), padding=(1, 1))
  (relu2): ReLU()
  (pool2): MaxPool2d(kernel_size=2, stride=2, padding=0, dilation=1, ceil_mode=False)
  (conv3): Conv2d(32, 64, kernel_size=(3, 3), stride=(1, 1), padding=(1, 1))
  (relu3): ReLU()
  (flatten): Flatten(start_dim=1, end_dim=-1)
  (fc1): Linear(in_features=3136, out_features=3, bias=True)
  (relu4): ReLU()
  (fc2): Linear(in_features=3, out_features=1, bias=True)
  (sigmoid): Sigmoid()
)",[2],conv1,0.9440000057220459
837,"PyTorchCNN(
  (conv1): Conv2d(1, 16, kernel_size=(3, 3), stride=(1, 1), padding=(1, 1))
  (relu1): ReLU()
  (pool1): MaxPool2d(kernel_size=2, stride=2, padding=0, dilation=1, ceil_mode=False)
  (conv2): Conv2d(16, 32, kernel_size=(3, 3), stride=(1, 1), padding=(1, 1))
  (relu2): ReLU()
  (pool2): MaxPool2d(kernel_size=2, stride=2, padding=0, dilation=1, ceil_mode=False)
  (conv3): Conv2d(32, 64, kernel_size=(3, 3), stride=(1, 1), padding=(1, 1))
  (relu3): ReLU()
  (flatten): Flatten(start_dim=1, end_dim=-1)
  (fc1): Linear(in_features=3136, out_features=3, bias=True)
  (relu4): ReLU()
  (fc2): Linear(in_features=3, out_features=1, bias=True)
  (sigmoid): Sigmoid()
)",[2],conv2,0.9549999833106995
838,"PyTorchCNN(
  (conv1): Conv2d(1, 16, kernel_size=(3, 3), stride=(1, 1), padding=(1, 1))
  (relu1): ReLU()
  (pool1): MaxPool2d(kernel_size=2, stride=2, padding=0, dilation=1, ceil_mode=False)
  (conv2): Conv2d(16, 32, kernel_size=(3, 3), stride=(1, 1), padding=(1, 1))
  (relu2): ReLU()
  (pool2): MaxPool2d(kernel_size=2, stride=2, padding=0, dilation=1, ceil_mode=False)
  (conv3): Conv2d(32, 64, kernel_size=(3, 3), stride=(1, 1), padding=(1, 1))
  (relu3): ReLU()
  (flatten): Flatten(start_dim=1, end_dim=-1)
  (fc1): Linear(in_features=3136, out_features=3, bias=True)
  (relu4): ReLU()
  (fc2): Linear(in_features=3, out_features=1, bias=True)
  (sigmoid): Sigmoid()
)",[2],conv3,0.9350000023841858
839,"PyTorchCNN(
  (conv1): Conv2d(1, 16, kernel_size=(3, 3), stride=(1, 1), padding=(1, 1))
  (relu1): ReLU()
  (pool1): MaxPool2d(kernel_size=2, stride=2, padding=0, dilation=1, ceil_mode=False)
  (conv2): Conv2d(16, 32, kernel_size=(3, 3), stride=(1, 1), padding=(1, 1))
  (relu2): ReLU()
  (pool2): MaxPool2d(kernel_size=2, stride=2, padding=0, dilation=1, ceil_mode=False)
  (conv3): Conv2d(32, 64, kernel_size=(3, 3), stride=(1, 1), padding=(1, 1))
  (relu3): ReLU()
  (flatten): Flatten(start_dim=1, end_dim=-1)
  (fc1): Linear(in_features=3136, out_features=3, bias=True)
  (relu4): ReLU()
  (fc2): Linear(in_features=3, out_features=1, bias=True)
  (sigmoid): Sigmoid()
)",[2],fc1,0.8199999928474426
