,model,variables,layer,accuracy
0,"PyTorchCNN(
  (conv1): Conv2d(1, 16, kernel_size=(3, 3), stride=(1, 1), padding=(1, 1))
  (relu1): ReLU()
  (pool1): MaxPool2d(kernel_size=2, stride=2, padding=0, dilation=1, ceil_mode=False)
  (conv2): Conv2d(16, 32, kernel_size=(3, 3), stride=(1, 1), padding=(1, 1))
  (relu2): ReLU()
  (pool2): MaxPool2d(kernel_size=2, stride=2, padding=0, dilation=1, ceil_mode=False)
  (conv3): Conv2d(32, 64, kernel_size=(3, 3), stride=(1, 1), padding=(1, 1))
  (relu3): ReLU()
  (flatten): Flatten(start_dim=1, end_dim=-1)
  (fc1): Linear(in_features=3136, out_features=3, bias=True)
  (relu4): ReLU()
  (fc2): Linear(in_features=3, out_features=1, bias=True)
  (sigmoid): Sigmoid()
)","[0, 1, 2]",conv1,0.9359999895095825
1,"PyTorchCNN(
  (conv1): Conv2d(1, 16, kernel_size=(3, 3), stride=(1, 1), padding=(1, 1))
  (relu1): ReLU()
  (pool1): MaxPool2d(kernel_size=2, stride=2, padding=0, dilation=1, ceil_mode=False)
  (conv2): Conv2d(16, 32, kernel_size=(3, 3), stride=(1, 1), padding=(1, 1))
  (relu2): ReLU()
  (pool2): MaxPool2d(kernel_size=2, stride=2, padding=0, dilation=1, ceil_mode=False)
  (conv3): Conv2d(32, 64, kernel_size=(3, 3), stride=(1, 1), padding=(1, 1))
  (relu3): ReLU()
  (flatten): Flatten(start_dim=1, end_dim=-1)
  (fc1): Linear(in_features=3136, out_features=3, bias=True)
  (relu4): ReLU()
  (fc2): Linear(in_features=3, out_features=1, bias=True)
  (sigmoid): Sigmoid()
)","[0, 1, 2]",conv2,0.9440000057220459
2,"PyTorchCNN(
  (conv1): Conv2d(1, 16, kernel_size=(3, 3), stride=(1, 1), padding=(1, 1))
  (relu1): ReLU()
  (pool1): MaxPool2d(kernel_size=2, stride=2, padding=0, dilation=1, ceil_mode=False)
  (conv2): Conv2d(16, 32, kernel_size=(3, 3), stride=(1, 1), padding=(1, 1))
  (relu2): ReLU()
  (pool2): MaxPool2d(kernel_size=2, stride=2, padding=0, dilation=1, ceil_mode=False)
  (conv3): Conv2d(32, 64, kernel_size=(3, 3), stride=(1, 1), padding=(1, 1))
  (relu3): ReLU()
  (flatten): Flatten(start_dim=1, end_dim=-1)
  (fc1): Linear(in_features=3136, out_features=3, bias=True)
  (relu4): ReLU()
  (fc2): Linear(in_features=3, out_features=1, bias=True)
  (sigmoid): Sigmoid()
)","[0, 1, 2]",conv3,0.9549999833106995
3,"PyTorchCNN(
  (conv1): Conv2d(1, 16, kernel_size=(3, 3), stride=(1, 1), padding=(1, 1))
  (relu1): ReLU()
  (pool1): MaxPool2d(kernel_size=2, stride=2, padding=0, dilation=1, ceil_mode=False)
  (conv2): Conv2d(16, 32, kernel_size=(3, 3), stride=(1, 1), padding=(1, 1))
  (relu2): ReLU()
  (pool2): MaxPool2d(kernel_size=2, stride=2, padding=0, dilation=1, ceil_mode=False)
  (conv3): Conv2d(32, 64, kernel_size=(3, 3), stride=(1, 1), padding=(1, 1))
  (relu3): ReLU()
  (flatten): Flatten(start_dim=1, end_dim=-1)
  (fc1): Linear(in_features=3136, out_features=3, bias=True)
  (relu4): ReLU()
  (fc2): Linear(in_features=3, out_features=1, bias=True)
  (sigmoid): Sigmoid()
)","[0, 1, 2]",fc1,0.5920000076293945
4,"PyTorchCNN(
  (conv1): Conv2d(1, 16, kernel_size=(3, 3), stride=(1, 1), padding=(1, 1))
  (relu1): ReLU()
  (pool1): MaxPool2d(kernel_size=2, stride=2, padding=0, dilation=1, ceil_mode=False)
  (conv2): Conv2d(16, 32, kernel_size=(3, 3), stride=(1, 1), padding=(1, 1))
  (relu2): ReLU()
  (pool2): MaxPool2d(kernel_size=2, stride=2, padding=0, dilation=1, ceil_mode=False)
  (conv3): Conv2d(32, 64, kernel_size=(3, 3), stride=(1, 1), padding=(1, 1))
  (relu3): ReLU()
  (flatten): Flatten(start_dim=1, end_dim=-1)
  (fc1): Linear(in_features=3136, out_features=3, bias=True)
  (relu4): ReLU()
  (fc2): Linear(in_features=3, out_features=1, bias=True)
  (sigmoid): Sigmoid()
)","[0, 1]",conv1,0.9110000133514404
5,"PyTorchCNN(
  (conv1): Conv2d(1, 16, kernel_size=(3, 3), stride=(1, 1), padding=(1, 1))
  (relu1): ReLU()
  (pool1): MaxPool2d(kernel_size=2, stride=2, padding=0, dilation=1, ceil_mode=False)
  (conv2): Conv2d(16, 32, kernel_size=(3, 3), stride=(1, 1), padding=(1, 1))
  (relu2): ReLU()
  (pool2): MaxPool2d(kernel_size=2, stride=2, padding=0, dilation=1, ceil_mode=False)
  (conv3): Conv2d(32, 64, kernel_size=(3, 3), stride=(1, 1), padding=(1, 1))
  (relu3): ReLU()
  (flatten): Flatten(start_dim=1, end_dim=-1)
  (fc1): Linear(in_features=3136, out_features=3, bias=True)
  (relu4): ReLU()
  (fc2): Linear(in_features=3, out_features=1, bias=True)
  (sigmoid): Sigmoid()
)","[0, 1]",conv2,0.9120000004768372
6,"PyTorchCNN(
  (conv1): Conv2d(1, 16, kernel_size=(3, 3), stride=(1, 1), padding=(1, 1))
  (relu1): ReLU()
  (pool1): MaxPool2d(kernel_size=2, stride=2, padding=0, dilation=1, ceil_mode=False)
  (conv2): Conv2d(16, 32, kernel_size=(3, 3), stride=(1, 1), padding=(1, 1))
  (relu2): ReLU()
  (pool2): MaxPool2d(kernel_size=2, stride=2, padding=0, dilation=1, ceil_mode=False)
  (conv3): Conv2d(32, 64, kernel_size=(3, 3), stride=(1, 1), padding=(1, 1))
  (relu3): ReLU()
  (flatten): Flatten(start_dim=1, end_dim=-1)
  (fc1): Linear(in_features=3136, out_features=3, bias=True)
  (relu4): ReLU()
  (fc2): Linear(in_features=3, out_features=1, bias=True)
  (sigmoid): Sigmoid()
)","[0, 1]",conv3,0.8970000147819519
7,"PyTorchCNN(
  (conv1): Conv2d(1, 16, kernel_size=(3, 3), stride=(1, 1), padding=(1, 1))
  (relu1): ReLU()
  (pool1): MaxPool2d(kernel_size=2, stride=2, padding=0, dilation=1, ceil_mode=False)
  (conv2): Conv2d(16, 32, kernel_size=(3, 3), stride=(1, 1), padding=(1, 1))
  (relu2): ReLU()
  (pool2): MaxPool2d(kernel_size=2, stride=2, padding=0, dilation=1, ceil_mode=False)
  (conv3): Conv2d(32, 64, kernel_size=(3, 3), stride=(1, 1), padding=(1, 1))
  (relu3): ReLU()
  (flatten): Flatten(start_dim=1, end_dim=-1)
  (fc1): Linear(in_features=3136, out_features=3, bias=True)
  (relu4): ReLU()
  (fc2): Linear(in_features=3, out_features=1, bias=True)
  (sigmoid): Sigmoid()
)","[0, 1]",fc1,0.7710000276565552
8,"PyTorchCNN(
  (conv1): Conv2d(1, 16, kernel_size=(3, 3), stride=(1, 1), padding=(1, 1))
  (relu1): ReLU()
  (pool1): MaxPool2d(kernel_size=2, stride=2, padding=0, dilation=1, ceil_mode=False)
  (conv2): Conv2d(16, 32, kernel_size=(3, 3), stride=(1, 1), padding=(1, 1))
  (relu2): ReLU()
  (pool2): MaxPool2d(kernel_size=2, stride=2, padding=0, dilation=1, ceil_mode=False)
  (conv3): Conv2d(32, 64, kernel_size=(3, 3), stride=(1, 1), padding=(1, 1))
  (relu3): ReLU()
  (flatten): Flatten(start_dim=1, end_dim=-1)
  (fc1): Linear(in_features=3136, out_features=3, bias=True)
  (relu4): ReLU()
  (fc2): Linear(in_features=3, out_features=1, bias=True)
  (sigmoid): Sigmoid()
)","[0, 2]",conv1,0.925000011920929
9,"PyTorchCNN(
  (conv1): Conv2d(1, 16, kernel_size=(3, 3), stride=(1, 1), padding=(1, 1))
  (relu1): ReLU()
  (pool1): MaxPool2d(kernel_size=2, stride=2, padding=0, dilation=1, ceil_mode=False)
  (conv2): Conv2d(16, 32, kernel_size=(3, 3), stride=(1, 1), padding=(1, 1))
  (relu2): ReLU()
  (pool2): MaxPool2d(kernel_size=2, stride=2, padding=0, dilation=1, ceil_mode=False)
  (conv3): Conv2d(32, 64, kernel_size=(3, 3), stride=(1, 1), padding=(1, 1))
  (relu3): ReLU()
  (flatten): Flatten(start_dim=1, end_dim=-1)
  (fc1): Linear(in_features=3136, out_features=3, bias=True)
  (relu4): ReLU()
  (fc2): Linear(in_features=3, out_features=1, bias=True)
  (sigmoid): Sigmoid()
)","[0, 2]",conv2,0.9330000281333923
10,"PyTorchCNN(
  (conv1): Conv2d(1, 16, kernel_size=(3, 3), stride=(1, 1), padding=(1, 1))
  (relu1): ReLU()
  (pool1): MaxPool2d(kernel_size=2, stride=2, padding=0, dilation=1, ceil_mode=False)
  (conv2): Conv2d(16, 32, kernel_size=(3, 3), stride=(1, 1), padding=(1, 1))
  (relu2): ReLU()
  (pool2): MaxPool2d(kernel_size=2, stride=2, padding=0, dilation=1, ceil_mode=False)
  (conv3): Conv2d(32, 64, kernel_size=(3, 3), stride=(1, 1), padding=(1, 1))
  (relu3): ReLU()
  (flatten): Flatten(start_dim=1, end_dim=-1)
  (fc1): Linear(in_features=3136, out_features=3, bias=True)
  (relu4): ReLU()
  (fc2): Linear(in_features=3, out_features=1, bias=True)
  (sigmoid): Sigmoid()
)","[0, 2]",conv3,0.8769999742507935
11,"PyTorchCNN(
  (conv1): Conv2d(1, 16, kernel_size=(3, 3), stride=(1, 1), padding=(1, 1))
  (relu1): ReLU()
  (pool1): MaxPool2d(kernel_size=2, stride=2, padding=0, dilation=1, ceil_mode=False)
  (conv2): Conv2d(16, 32, kernel_size=(3, 3), stride=(1, 1), padding=(1, 1))
  (relu2): ReLU()
  (pool2): MaxPool2d(kernel_size=2, stride=2, padding=0, dilation=1, ceil_mode=False)
  (conv3): Conv2d(32, 64, kernel_size=(3, 3), stride=(1, 1), padding=(1, 1))
  (relu3): ReLU()
  (flatten): Flatten(start_dim=1, end_dim=-1)
  (fc1): Linear(in_features=3136, out_features=3, bias=True)
  (relu4): ReLU()
  (fc2): Linear(in_features=3, out_features=1, bias=True)
  (sigmoid): Sigmoid()
)","[0, 2]",fc1,0.7749999761581421
12,"PyTorchCNN(
  (conv1): Conv2d(1, 16, kernel_size=(3, 3), stride=(1, 1), padding=(1, 1))
  (relu1): ReLU()
  (pool1): MaxPool2d(kernel_size=2, stride=2, padding=0, dilation=1, ceil_mode=False)
  (conv2): Conv2d(16, 32, kernel_size=(3, 3), stride=(1, 1), padding=(1, 1))
  (relu2): ReLU()
  (pool2): MaxPool2d(kernel_size=2, stride=2, padding=0, dilation=1, ceil_mode=False)
  (conv3): Conv2d(32, 64, kernel_size=(3, 3), stride=(1, 1), padding=(1, 1))
  (relu3): ReLU()
  (flatten): Flatten(start_dim=1, end_dim=-1)
  (fc1): Linear(in_features=3136, out_features=3, bias=True)
  (relu4): ReLU()
  (fc2): Linear(in_features=3, out_features=1, bias=True)
  (sigmoid): Sigmoid()
)","[1, 2]",conv1,0.902999997138977
13,"PyTorchCNN(
  (conv1): Conv2d(1, 16, kernel_size=(3, 3), stride=(1, 1), padding=(1, 1))
  (relu1): ReLU()
  (pool1): MaxPool2d(kernel_size=2, stride=2, padding=0, dilation=1, ceil_mode=False)
  (conv2): Conv2d(16, 32, kernel_size=(3, 3), stride=(1, 1), padding=(1, 1))
  (relu2): ReLU()
  (pool2): MaxPool2d(kernel_size=2, stride=2, padding=0, dilation=1, ceil_mode=False)
  (conv3): Conv2d(32, 64, kernel_size=(3, 3), stride=(1, 1), padding=(1, 1))
  (relu3): ReLU()
  (flatten): Flatten(start_dim=1, end_dim=-1)
  (fc1): Linear(in_features=3136, out_features=3, bias=True)
  (relu4): ReLU()
  (fc2): Linear(in_features=3, out_features=1, bias=True)
  (sigmoid): Sigmoid()
)","[1, 2]",conv2,0.9020000100135803
14,"PyTorchCNN(
  (conv1): Conv2d(1, 16, kernel_size=(3, 3), stride=(1, 1), padding=(1, 1))
  (relu1): ReLU()
  (pool1): MaxPool2d(kernel_size=2, stride=2, padding=0, dilation=1, ceil_mode=False)
  (conv2): Conv2d(16, 32, kernel_size=(3, 3), stride=(1, 1), padding=(1, 1))
  (relu2): ReLU()
  (pool2): MaxPool2d(kernel_size=2, stride=2, padding=0, dilation=1, ceil_mode=False)
  (conv3): Conv2d(32, 64, kernel_size=(3, 3), stride=(1, 1), padding=(1, 1))
  (relu3): ReLU()
  (flatten): Flatten(start_dim=1, end_dim=-1)
  (fc1): Linear(in_features=3136, out_features=3, bias=True)
  (relu4): ReLU()
  (fc2): Linear(in_features=3, out_features=1, bias=True)
  (sigmoid): Sigmoid()
)","[1, 2]",conv3,0.8769999742507935
15,"PyTorchCNN(
  (conv1): Conv2d(1, 16, kernel_size=(3, 3), stride=(1, 1), padding=(1, 1))
  (relu1): ReLU()
  (pool1): MaxPool2d(kernel_size=2, stride=2, padding=0, dilation=1, ceil_mode=False)
  (conv2): Conv2d(16, 32, kernel_size=(3, 3), stride=(1, 1), padding=(1, 1))
  (relu2): ReLU()
  (pool2): MaxPool2d(kernel_size=2, stride=2, padding=0, dilation=1, ceil_mode=False)
  (conv3): Conv2d(32, 64, kernel_size=(3, 3), stride=(1, 1), padding=(1, 1))
  (relu3): ReLU()
  (flatten): Flatten(start_dim=1, end_dim=-1)
  (fc1): Linear(in_features=3136, out_features=3, bias=True)
  (relu4): ReLU()
  (fc2): Linear(in_features=3, out_features=1, bias=True)
  (sigmoid): Sigmoid()
)","[1, 2]",fc1,0.7269999980926514
16,"PyTorchCNN(
  (conv1): Conv2d(1, 16, kernel_size=(3, 3), stride=(1, 1), padding=(1, 1))
  (relu1): ReLU()
  (pool1): MaxPool2d(kernel_size=2, stride=2, padding=0, dilation=1, ceil_mode=False)
  (conv2): Conv2d(16, 32, kernel_size=(3, 3), stride=(1, 1), padding=(1, 1))
  (relu2): ReLU()
  (pool2): MaxPool2d(kernel_size=2, stride=2, padding=0, dilation=1, ceil_mode=False)
  (conv3): Conv2d(32, 64, kernel_size=(3, 3), stride=(1, 1), padding=(1, 1))
  (relu3): ReLU()
  (flatten): Flatten(start_dim=1, end_dim=-1)
  (fc1): Linear(in_features=3136, out_features=3, bias=True)
  (relu4): ReLU()
  (fc2): Linear(in_features=3, out_features=1, bias=True)
  (sigmoid): Sigmoid()
)",[0],conv1,0.9210000038146973
17,"PyTorchCNN(
  (conv1): Conv2d(1, 16, kernel_size=(3, 3), stride=(1, 1), padding=(1, 1))
  (relu1): ReLU()
  (pool1): MaxPool2d(kernel_size=2, stride=2, padding=0, dilation=1, ceil_mode=False)
  (conv2): Conv2d(16, 32, kernel_size=(3, 3), stride=(1, 1), padding=(1, 1))
  (relu2): ReLU()
  (pool2): MaxPool2d(kernel_size=2, stride=2, padding=0, dilation=1, ceil_mode=False)
  (conv3): Conv2d(32, 64, kernel_size=(3, 3), stride=(1, 1), padding=(1, 1))
  (relu3): ReLU()
  (flatten): Flatten(start_dim=1, end_dim=-1)
  (fc1): Linear(in_features=3136, out_features=3, bias=True)
  (relu4): ReLU()
  (fc2): Linear(in_features=3, out_features=1, bias=True)
  (sigmoid): Sigmoid()
)",[0],conv2,0.9269999861717224
18,"PyTorchCNN(
  (conv1): Conv2d(1, 16, kernel_size=(3, 3), stride=(1, 1), padding=(1, 1))
  (relu1): ReLU()
  (pool1): MaxPool2d(kernel_size=2, stride=2, padding=0, dilation=1, ceil_mode=False)
  (conv2): Conv2d(16, 32, kernel_size=(3, 3), stride=(1, 1), padding=(1, 1))
  (relu2): ReLU()
  (pool2): MaxPool2d(kernel_size=2, stride=2, padding=0, dilation=1, ceil_mode=False)
  (conv3): Conv2d(32, 64, kernel_size=(3, 3), stride=(1, 1), padding=(1, 1))
  (relu3): ReLU()
  (flatten): Flatten(start_dim=1, end_dim=-1)
  (fc1): Linear(in_features=3136, out_features=3, bias=True)
  (relu4): ReLU()
  (fc2): Linear(in_features=3, out_features=1, bias=True)
  (sigmoid): Sigmoid()
)",[0],conv3,0.8980000019073486
19,"PyTorchCNN(
  (conv1): Conv2d(1, 16, kernel_size=(3, 3), stride=(1, 1), padding=(1, 1))
  (relu1): ReLU()
  (pool1): MaxPool2d(kernel_size=2, stride=2, padding=0, dilation=1, ceil_mode=False)
  (conv2): Conv2d(16, 32, kernel_size=(3, 3), stride=(1, 1), padding=(1, 1))
  (relu2): ReLU()
  (pool2): MaxPool2d(kernel_size=2, stride=2, padding=0, dilation=1, ceil_mode=False)
  (conv3): Conv2d(32, 64, kernel_size=(3, 3), stride=(1, 1), padding=(1, 1))
  (relu3): ReLU()
  (flatten): Flatten(start_dim=1, end_dim=-1)
  (fc1): Linear(in_features=3136, out_features=3, bias=True)
  (relu4): ReLU()
  (fc2): Linear(in_features=3, out_features=1, bias=True)
  (sigmoid): Sigmoid()
)",[0],fc1,0.7170000076293945
20,"PyTorchCNN(
  (conv1): Conv2d(1, 16, kernel_size=(3, 3), stride=(1, 1), padding=(1, 1))
  (relu1): ReLU()
  (pool1): MaxPool2d(kernel_size=2, stride=2, padding=0, dilation=1, ceil_mode=False)
  (conv2): Conv2d(16, 32, kernel_size=(3, 3), stride=(1, 1), padding=(1, 1))
  (relu2): ReLU()
  (pool2): MaxPool2d(kernel_size=2, stride=2, padding=0, dilation=1, ceil_mode=False)
  (conv3): Conv2d(32, 64, kernel_size=(3, 3), stride=(1, 1), padding=(1, 1))
  (relu3): ReLU()
  (flatten): Flatten(start_dim=1, end_dim=-1)
  (fc1): Linear(in_features=3136, out_features=3, bias=True)
  (relu4): ReLU()
  (fc2): Linear(in_features=3, out_features=1, bias=True)
  (sigmoid): Sigmoid()
)",[1],conv1,0.9570000171661377
21,"PyTorchCNN(
  (conv1): Conv2d(1, 16, kernel_size=(3, 3), stride=(1, 1), padding=(1, 1))
  (relu1): ReLU()
  (pool1): MaxPool2d(kernel_size=2, stride=2, padding=0, dilation=1, ceil_mode=False)
  (conv2): Conv2d(16, 32, kernel_size=(3, 3), stride=(1, 1), padding=(1, 1))
  (relu2): ReLU()
  (pool2): MaxPool2d(kernel_size=2, stride=2, padding=0, dilation=1, ceil_mode=False)
  (conv3): Conv2d(32, 64, kernel_size=(3, 3), stride=(1, 1), padding=(1, 1))
  (relu3): ReLU()
  (flatten): Flatten(start_dim=1, end_dim=-1)
  (fc1): Linear(in_features=3136, out_features=3, bias=True)
  (relu4): ReLU()
  (fc2): Linear(in_features=3, out_features=1, bias=True)
  (sigmoid): Sigmoid()
)",[1],conv2,0.9599999785423279
22,"PyTorchCNN(
  (conv1): Conv2d(1, 16, kernel_size=(3, 3), stride=(1, 1), padding=(1, 1))
  (relu1): ReLU()
  (pool1): MaxPool2d(kernel_size=2, stride=2, padding=0, dilation=1, ceil_mode=False)
  (conv2): Conv2d(16, 32, kernel_size=(3, 3), stride=(1, 1), padding=(1, 1))
  (relu2): ReLU()
  (pool2): MaxPool2d(kernel_size=2, stride=2, padding=0, dilation=1, ceil_mode=False)
  (conv3): Conv2d(32, 64, kernel_size=(3, 3), stride=(1, 1), padding=(1, 1))
  (relu3): ReLU()
  (flatten): Flatten(start_dim=1, end_dim=-1)
  (fc1): Linear(in_features=3136, out_features=3, bias=True)
  (relu4): ReLU()
  (fc2): Linear(in_features=3, out_features=1, bias=True)
  (sigmoid): Sigmoid()
)",[1],conv3,0.9549999833106995
23,"PyTorchCNN(
  (conv1): Conv2d(1, 16, kernel_size=(3, 3), stride=(1, 1), padding=(1, 1))
  (relu1): ReLU()
  (pool1): MaxPool2d(kernel_size=2, stride=2, padding=0, dilation=1, ceil_mode=False)
  (conv2): Conv2d(16, 32, kernel_size=(3, 3), stride=(1, 1), padding=(1, 1))
  (relu2): ReLU()
  (pool2): MaxPool2d(kernel_size=2, stride=2, padding=0, dilation=1, ceil_mode=False)
  (conv3): Conv2d(32, 64, kernel_size=(3, 3), stride=(1, 1), padding=(1, 1))
  (relu3): ReLU()
  (flatten): Flatten(start_dim=1, end_dim=-1)
  (fc1): Linear(in_features=3136, out_features=3, bias=True)
  (relu4): ReLU()
  (fc2): Linear(in_features=3, out_features=1, bias=True)
  (sigmoid): Sigmoid()
)",[1],fc1,0.7519999742507935
24,"PyTorchCNN(
  (conv1): Conv2d(1, 16, kernel_size=(3, 3), stride=(1, 1), padding=(1, 1))
  (relu1): ReLU()
  (pool1): MaxPool2d(kernel_size=2, stride=2, padding=0, dilation=1, ceil_mode=False)
  (conv2): Conv2d(16, 32, kernel_size=(3, 3), stride=(1, 1), padding=(1, 1))
  (relu2): ReLU()
  (pool2): MaxPool2d(kernel_size=2, stride=2, padding=0, dilation=1, ceil_mode=False)
  (conv3): Conv2d(32, 64, kernel_size=(3, 3), stride=(1, 1), padding=(1, 1))
  (relu3): ReLU()
  (flatten): Flatten(start_dim=1, end_dim=-1)
  (fc1): Linear(in_features=3136, out_features=3, bias=True)
  (relu4): ReLU()
  (fc2): Linear(in_features=3, out_features=1, bias=True)
  (sigmoid): Sigmoid()
)",[2],conv1,0.9259999990463257
25,"PyTorchCNN(
  (conv1): Conv2d(1, 16, kernel_size=(3, 3), stride=(1, 1), padding=(1, 1))
  (relu1): ReLU()
  (pool1): MaxPool2d(kernel_size=2, stride=2, padding=0, dilation=1, ceil_mode=False)
  (conv2): Conv2d(16, 32, kernel_size=(3, 3), stride=(1, 1), padding=(1, 1))
  (relu2): ReLU()
  (pool2): MaxPool2d(kernel_size=2, stride=2, padding=0, dilation=1, ceil_mode=False)
  (conv3): Conv2d(32, 64, kernel_size=(3, 3), stride=(1, 1), padding=(1, 1))
  (relu3): ReLU()
  (flatten): Flatten(start_dim=1, end_dim=-1)
  (fc1): Linear(in_features=3136, out_features=3, bias=True)
  (relu4): ReLU()
  (fc2): Linear(in_features=3, out_features=1, bias=True)
  (sigmoid): Sigmoid()
)",[2],conv2,0.9399999976158142
26,"PyTorchCNN(
  (conv1): Conv2d(1, 16, kernel_size=(3, 3), stride=(1, 1), padding=(1, 1))
  (relu1): ReLU()
  (pool1): MaxPool2d(kernel_size=2, stride=2, padding=0, dilation=1, ceil_mode=False)
  (conv2): Conv2d(16, 32, kernel_size=(3, 3), stride=(1, 1), padding=(1, 1))
  (relu2): ReLU()
  (pool2): MaxPool2d(kernel_size=2, stride=2, padding=0, dilation=1, ceil_mode=False)
  (conv3): Conv2d(32, 64, kernel_size=(3, 3), stride=(1, 1), padding=(1, 1))
  (relu3): ReLU()
  (flatten): Flatten(start_dim=1, end_dim=-1)
  (fc1): Linear(in_features=3136, out_features=3, bias=True)
  (relu4): ReLU()
  (fc2): Linear(in_features=3, out_features=1, bias=True)
  (sigmoid): Sigmoid()
)",[2],conv3,0.8690000176429749
27,"PyTorchCNN(
  (conv1): Conv2d(1, 16, kernel_size=(3, 3), stride=(1, 1), padding=(1, 1))
  (relu1): ReLU()
  (pool1): MaxPool2d(kernel_size=2, stride=2, padding=0, dilation=1, ceil_mode=False)
  (conv2): Conv2d(16, 32, kernel_size=(3, 3), stride=(1, 1), padding=(1, 1))
  (relu2): ReLU()
  (pool2): MaxPool2d(kernel_size=2, stride=2, padding=0, dilation=1, ceil_mode=False)
  (conv3): Conv2d(32, 64, kernel_size=(3, 3), stride=(1, 1), padding=(1, 1))
  (relu3): ReLU()
  (flatten): Flatten(start_dim=1, end_dim=-1)
  (fc1): Linear(in_features=3136, out_features=3, bias=True)
  (relu4): ReLU()
  (fc2): Linear(in_features=3, out_features=1, bias=True)
  (sigmoid): Sigmoid()
)",[2],fc1,0.718999981880188
28,"PyTorchCNN(
  (conv1): Conv2d(1, 16, kernel_size=(3, 3), stride=(1, 1), padding=(1, 1))
  (relu1): ReLU()
  (pool1): MaxPool2d(kernel_size=2, stride=2, padding=0, dilation=1, ceil_mode=False)
  (conv2): Conv2d(16, 32, kernel_size=(3, 3), stride=(1, 1), padding=(1, 1))
  (relu2): ReLU()
  (pool2): MaxPool2d(kernel_size=2, stride=2, padding=0, dilation=1, ceil_mode=False)
  (conv3): Conv2d(32, 64, kernel_size=(3, 3), stride=(1, 1), padding=(1, 1))
  (relu3): ReLU()
  (flatten): Flatten(start_dim=1, end_dim=-1)
  (fc1): Linear(in_features=3136, out_features=3, bias=True)
  (relu4): ReLU()
  (fc2): Linear(in_features=3, out_features=1, bias=True)
  (sigmoid): Sigmoid()
)","[0, 1, 2]",conv1,0.9509999752044678
29,"PyTorchCNN(
  (conv1): Conv2d(1, 16, kernel_size=(3, 3), stride=(1, 1), padding=(1, 1))
  (relu1): ReLU()
  (pool1): MaxPool2d(kernel_size=2, stride=2, padding=0, dilation=1, ceil_mode=False)
  (conv2): Conv2d(16, 32, kernel_size=(3, 3), stride=(1, 1), padding=(1, 1))
  (relu2): ReLU()
  (pool2): MaxPool2d(kernel_size=2, stride=2, padding=0, dilation=1, ceil_mode=False)
  (conv3): Conv2d(32, 64, kernel_size=(3, 3), stride=(1, 1), padding=(1, 1))
  (relu3): ReLU()
  (flatten): Flatten(start_dim=1, end_dim=-1)
  (fc1): Linear(in_features=3136, out_features=3, bias=True)
  (relu4): ReLU()
  (fc2): Linear(in_features=3, out_features=1, bias=True)
  (sigmoid): Sigmoid()
)","[0, 1, 2]",conv2,0.9449999928474426
30,"PyTorchCNN(
  (conv1): Conv2d(1, 16, kernel_size=(3, 3), stride=(1, 1), padding=(1, 1))
  (relu1): ReLU()
  (pool1): MaxPool2d(kernel_size=2, stride=2, padding=0, dilation=1, ceil_mode=False)
  (conv2): Conv2d(16, 32, kernel_size=(3, 3), stride=(1, 1), padding=(1, 1))
  (relu2): ReLU()
  (pool2): MaxPool2d(kernel_size=2, stride=2, padding=0, dilation=1, ceil_mode=False)
  (conv3): Conv2d(32, 64, kernel_size=(3, 3), stride=(1, 1), padding=(1, 1))
  (relu3): ReLU()
  (flatten): Flatten(start_dim=1, end_dim=-1)
  (fc1): Linear(in_features=3136, out_features=3, bias=True)
  (relu4): ReLU()
  (fc2): Linear(in_features=3, out_features=1, bias=True)
  (sigmoid): Sigmoid()
)","[0, 1, 2]",conv3,0.9520000219345093
31,"PyTorchCNN(
  (conv1): Conv2d(1, 16, kernel_size=(3, 3), stride=(1, 1), padding=(1, 1))
  (relu1): ReLU()
  (pool1): MaxPool2d(kernel_size=2, stride=2, padding=0, dilation=1, ceil_mode=False)
  (conv2): Conv2d(16, 32, kernel_size=(3, 3), stride=(1, 1), padding=(1, 1))
  (relu2): ReLU()
  (pool2): MaxPool2d(kernel_size=2, stride=2, padding=0, dilation=1, ceil_mode=False)
  (conv3): Conv2d(32, 64, kernel_size=(3, 3), stride=(1, 1), padding=(1, 1))
  (relu3): ReLU()
  (flatten): Flatten(start_dim=1, end_dim=-1)
  (fc1): Linear(in_features=3136, out_features=3, bias=True)
  (relu4): ReLU()
  (fc2): Linear(in_features=3, out_features=1, bias=True)
  (sigmoid): Sigmoid()
)","[0, 1, 2]",fc1,0.5289999842643738
32,"PyTorchCNN(
  (conv1): Conv2d(1, 16, kernel_size=(3, 3), stride=(1, 1), padding=(1, 1))
  (relu1): ReLU()
  (pool1): MaxPool2d(kernel_size=2, stride=2, padding=0, dilation=1, ceil_mode=False)
  (conv2): Conv2d(16, 32, kernel_size=(3, 3), stride=(1, 1), padding=(1, 1))
  (relu2): ReLU()
  (pool2): MaxPool2d(kernel_size=2, stride=2, padding=0, dilation=1, ceil_mode=False)
  (conv3): Conv2d(32, 64, kernel_size=(3, 3), stride=(1, 1), padding=(1, 1))
  (relu3): ReLU()
  (flatten): Flatten(start_dim=1, end_dim=-1)
  (fc1): Linear(in_features=3136, out_features=3, bias=True)
  (relu4): ReLU()
  (fc2): Linear(in_features=3, out_features=1, bias=True)
  (sigmoid): Sigmoid()
)","[0, 1]",conv1,0.8989999890327454
33,"PyTorchCNN(
  (conv1): Conv2d(1, 16, kernel_size=(3, 3), stride=(1, 1), padding=(1, 1))
  (relu1): ReLU()
  (pool1): MaxPool2d(kernel_size=2, stride=2, padding=0, dilation=1, ceil_mode=False)
  (conv2): Conv2d(16, 32, kernel_size=(3, 3), stride=(1, 1), padding=(1, 1))
  (relu2): ReLU()
  (pool2): MaxPool2d(kernel_size=2, stride=2, padding=0, dilation=1, ceil_mode=False)
  (conv3): Conv2d(32, 64, kernel_size=(3, 3), stride=(1, 1), padding=(1, 1))
  (relu3): ReLU()
  (flatten): Flatten(start_dim=1, end_dim=-1)
  (fc1): Linear(in_features=3136, out_features=3, bias=True)
  (relu4): ReLU()
  (fc2): Linear(in_features=3, out_features=1, bias=True)
  (sigmoid): Sigmoid()
)","[0, 1]",conv2,0.9350000023841858
34,"PyTorchCNN(
  (conv1): Conv2d(1, 16, kernel_size=(3, 3), stride=(1, 1), padding=(1, 1))
  (relu1): ReLU()
  (pool1): MaxPool2d(kernel_size=2, stride=2, padding=0, dilation=1, ceil_mode=False)
  (conv2): Conv2d(16, 32, kernel_size=(3, 3), stride=(1, 1), padding=(1, 1))
  (relu2): ReLU()
  (pool2): MaxPool2d(kernel_size=2, stride=2, padding=0, dilation=1, ceil_mode=False)
  (conv3): Conv2d(32, 64, kernel_size=(3, 3), stride=(1, 1), padding=(1, 1))
  (relu3): ReLU()
  (flatten): Flatten(start_dim=1, end_dim=-1)
  (fc1): Linear(in_features=3136, out_features=3, bias=True)
  (relu4): ReLU()
  (fc2): Linear(in_features=3, out_features=1, bias=True)
  (sigmoid): Sigmoid()
)","[0, 1]",conv3,0.9010000228881836
35,"PyTorchCNN(
  (conv1): Conv2d(1, 16, kernel_size=(3, 3), stride=(1, 1), padding=(1, 1))
  (relu1): ReLU()
  (pool1): MaxPool2d(kernel_size=2, stride=2, padding=0, dilation=1, ceil_mode=False)
  (conv2): Conv2d(16, 32, kernel_size=(3, 3), stride=(1, 1), padding=(1, 1))
  (relu2): ReLU()
  (pool2): MaxPool2d(kernel_size=2, stride=2, padding=0, dilation=1, ceil_mode=False)
  (conv3): Conv2d(32, 64, kernel_size=(3, 3), stride=(1, 1), padding=(1, 1))
  (relu3): ReLU()
  (flatten): Flatten(start_dim=1, end_dim=-1)
  (fc1): Linear(in_features=3136, out_features=3, bias=True)
  (relu4): ReLU()
  (fc2): Linear(in_features=3, out_features=1, bias=True)
  (sigmoid): Sigmoid()
)","[0, 1]",fc1,0.7450000047683716
36,"PyTorchCNN(
  (conv1): Conv2d(1, 16, kernel_size=(3, 3), stride=(1, 1), padding=(1, 1))
  (relu1): ReLU()
  (pool1): MaxPool2d(kernel_size=2, stride=2, padding=0, dilation=1, ceil_mode=False)
  (conv2): Conv2d(16, 32, kernel_size=(3, 3), stride=(1, 1), padding=(1, 1))
  (relu2): ReLU()
  (pool2): MaxPool2d(kernel_size=2, stride=2, padding=0, dilation=1, ceil_mode=False)
  (conv3): Conv2d(32, 64, kernel_size=(3, 3), stride=(1, 1), padding=(1, 1))
  (relu3): ReLU()
  (flatten): Flatten(start_dim=1, end_dim=-1)
  (fc1): Linear(in_features=3136, out_features=3, bias=True)
  (relu4): ReLU()
  (fc2): Linear(in_features=3, out_features=1, bias=True)
  (sigmoid): Sigmoid()
)","[0, 2]",conv1,0.9350000023841858
37,"PyTorchCNN(
  (conv1): Conv2d(1, 16, kernel_size=(3, 3), stride=(1, 1), padding=(1, 1))
  (relu1): ReLU()
  (pool1): MaxPool2d(kernel_size=2, stride=2, padding=0, dilation=1, ceil_mode=False)
  (conv2): Conv2d(16, 32, kernel_size=(3, 3), stride=(1, 1), padding=(1, 1))
  (relu2): ReLU()
  (pool2): MaxPool2d(kernel_size=2, stride=2, padding=0, dilation=1, ceil_mode=False)
  (conv3): Conv2d(32, 64, kernel_size=(3, 3), stride=(1, 1), padding=(1, 1))
  (relu3): ReLU()
  (flatten): Flatten(start_dim=1, end_dim=-1)
  (fc1): Linear(in_features=3136, out_features=3, bias=True)
  (relu4): ReLU()
  (fc2): Linear(in_features=3, out_features=1, bias=True)
  (sigmoid): Sigmoid()
)","[0, 2]",conv2,0.9470000267028809
38,"PyTorchCNN(
  (conv1): Conv2d(1, 16, kernel_size=(3, 3), stride=(1, 1), padding=(1, 1))
  (relu1): ReLU()
  (pool1): MaxPool2d(kernel_size=2, stride=2, padding=0, dilation=1, ceil_mode=False)
  (conv2): Conv2d(16, 32, kernel_size=(3, 3), stride=(1, 1), padding=(1, 1))
  (relu2): ReLU()
  (pool2): MaxPool2d(kernel_size=2, stride=2, padding=0, dilation=1, ceil_mode=False)
  (conv3): Conv2d(32, 64, kernel_size=(3, 3), stride=(1, 1), padding=(1, 1))
  (relu3): ReLU()
  (flatten): Flatten(start_dim=1, end_dim=-1)
  (fc1): Linear(in_features=3136, out_features=3, bias=True)
  (relu4): ReLU()
  (fc2): Linear(in_features=3, out_features=1, bias=True)
  (sigmoid): Sigmoid()
)","[0, 2]",conv3,0.9100000262260437
39,"PyTorchCNN(
  (conv1): Conv2d(1, 16, kernel_size=(3, 3), stride=(1, 1), padding=(1, 1))
  (relu1): ReLU()
  (pool1): MaxPool2d(kernel_size=2, stride=2, padding=0, dilation=1, ceil_mode=False)
  (conv2): Conv2d(16, 32, kernel_size=(3, 3), stride=(1, 1), padding=(1, 1))
  (relu2): ReLU()
  (pool2): MaxPool2d(kernel_size=2, stride=2, padding=0, dilation=1, ceil_mode=False)
  (conv3): Conv2d(32, 64, kernel_size=(3, 3), stride=(1, 1), padding=(1, 1))
  (relu3): ReLU()
  (flatten): Flatten(start_dim=1, end_dim=-1)
  (fc1): Linear(in_features=3136, out_features=3, bias=True)
  (relu4): ReLU()
  (fc2): Linear(in_features=3, out_features=1, bias=True)
  (sigmoid): Sigmoid()
)","[0, 2]",fc1,0.6069999933242798
40,"PyTorchCNN(
  (conv1): Conv2d(1, 16, kernel_size=(3, 3), stride=(1, 1), padding=(1, 1))
  (relu1): ReLU()
  (pool1): MaxPool2d(kernel_size=2, stride=2, padding=0, dilation=1, ceil_mode=False)
  (conv2): Conv2d(16, 32, kernel_size=(3, 3), stride=(1, 1), padding=(1, 1))
  (relu2): ReLU()
  (pool2): MaxPool2d(kernel_size=2, stride=2, padding=0, dilation=1, ceil_mode=False)
  (conv3): Conv2d(32, 64, kernel_size=(3, 3), stride=(1, 1), padding=(1, 1))
  (relu3): ReLU()
  (flatten): Flatten(start_dim=1, end_dim=-1)
  (fc1): Linear(in_features=3136, out_features=3, bias=True)
  (relu4): ReLU()
  (fc2): Linear(in_features=3, out_features=1, bias=True)
  (sigmoid): Sigmoid()
)","[1, 2]",conv1,0.921999990940094
41,"PyTorchCNN(
  (conv1): Conv2d(1, 16, kernel_size=(3, 3), stride=(1, 1), padding=(1, 1))
  (relu1): ReLU()
  (pool1): MaxPool2d(kernel_size=2, stride=2, padding=0, dilation=1, ceil_mode=False)
  (conv2): Conv2d(16, 32, kernel_size=(3, 3), stride=(1, 1), padding=(1, 1))
  (relu2): ReLU()
  (pool2): MaxPool2d(kernel_size=2, stride=2, padding=0, dilation=1, ceil_mode=False)
  (conv3): Conv2d(32, 64, kernel_size=(3, 3), stride=(1, 1), padding=(1, 1))
  (relu3): ReLU()
  (flatten): Flatten(start_dim=1, end_dim=-1)
  (fc1): Linear(in_features=3136, out_features=3, bias=True)
  (relu4): ReLU()
  (fc2): Linear(in_features=3, out_features=1, bias=True)
  (sigmoid): Sigmoid()
)","[1, 2]",conv2,0.9229999780654907
42,"PyTorchCNN(
  (conv1): Conv2d(1, 16, kernel_size=(3, 3), stride=(1, 1), padding=(1, 1))
  (relu1): ReLU()
  (pool1): MaxPool2d(kernel_size=2, stride=2, padding=0, dilation=1, ceil_mode=False)
  (conv2): Conv2d(16, 32, kernel_size=(3, 3), stride=(1, 1), padding=(1, 1))
  (relu2): ReLU()
  (pool2): MaxPool2d(kernel_size=2, stride=2, padding=0, dilation=1, ceil_mode=False)
  (conv3): Conv2d(32, 64, kernel_size=(3, 3), stride=(1, 1), padding=(1, 1))
  (relu3): ReLU()
  (flatten): Flatten(start_dim=1, end_dim=-1)
  (fc1): Linear(in_features=3136, out_features=3, bias=True)
  (relu4): ReLU()
  (fc2): Linear(in_features=3, out_features=1, bias=True)
  (sigmoid): Sigmoid()
)","[1, 2]",conv3,0.9110000133514404
43,"PyTorchCNN(
  (conv1): Conv2d(1, 16, kernel_size=(3, 3), stride=(1, 1), padding=(1, 1))
  (relu1): ReLU()
  (pool1): MaxPool2d(kernel_size=2, stride=2, padding=0, dilation=1, ceil_mode=False)
  (conv2): Conv2d(16, 32, kernel_size=(3, 3), stride=(1, 1), padding=(1, 1))
  (relu2): ReLU()
  (pool2): MaxPool2d(kernel_size=2, stride=2, padding=0, dilation=1, ceil_mode=False)
  (conv3): Conv2d(32, 64, kernel_size=(3, 3), stride=(1, 1), padding=(1, 1))
  (relu3): ReLU()
  (flatten): Flatten(start_dim=1, end_dim=-1)
  (fc1): Linear(in_features=3136, out_features=3, bias=True)
  (relu4): ReLU()
  (fc2): Linear(in_features=3, out_features=1, bias=True)
  (sigmoid): Sigmoid()
)","[1, 2]",fc1,0.6330000162124634
44,"PyTorchCNN(
  (conv1): Conv2d(1, 16, kernel_size=(3, 3), stride=(1, 1), padding=(1, 1))
  (relu1): ReLU()
  (pool1): MaxPool2d(kernel_size=2, stride=2, padding=0, dilation=1, ceil_mode=False)
  (conv2): Conv2d(16, 32, kernel_size=(3, 3), stride=(1, 1), padding=(1, 1))
  (relu2): ReLU()
  (pool2): MaxPool2d(kernel_size=2, stride=2, padding=0, dilation=1, ceil_mode=False)
  (conv3): Conv2d(32, 64, kernel_size=(3, 3), stride=(1, 1), padding=(1, 1))
  (relu3): ReLU()
  (flatten): Flatten(start_dim=1, end_dim=-1)
  (fc1): Linear(in_features=3136, out_features=3, bias=True)
  (relu4): ReLU()
  (fc2): Linear(in_features=3, out_features=1, bias=True)
  (sigmoid): Sigmoid()
)",[0],conv1,0.9210000038146973
45,"PyTorchCNN(
  (conv1): Conv2d(1, 16, kernel_size=(3, 3), stride=(1, 1), padding=(1, 1))
  (relu1): ReLU()
  (pool1): MaxPool2d(kernel_size=2, stride=2, padding=0, dilation=1, ceil_mode=False)
  (conv2): Conv2d(16, 32, kernel_size=(3, 3), stride=(1, 1), padding=(1, 1))
  (relu2): ReLU()
  (pool2): MaxPool2d(kernel_size=2, stride=2, padding=0, dilation=1, ceil_mode=False)
  (conv3): Conv2d(32, 64, kernel_size=(3, 3), stride=(1, 1), padding=(1, 1))
  (relu3): ReLU()
  (flatten): Flatten(start_dim=1, end_dim=-1)
  (fc1): Linear(in_features=3136, out_features=3, bias=True)
  (relu4): ReLU()
  (fc2): Linear(in_features=3, out_features=1, bias=True)
  (sigmoid): Sigmoid()
)",[0],conv2,0.9279999732971191
46,"PyTorchCNN(
  (conv1): Conv2d(1, 16, kernel_size=(3, 3), stride=(1, 1), padding=(1, 1))
  (relu1): ReLU()
  (pool1): MaxPool2d(kernel_size=2, stride=2, padding=0, dilation=1, ceil_mode=False)
  (conv2): Conv2d(16, 32, kernel_size=(3, 3), stride=(1, 1), padding=(1, 1))
  (relu2): ReLU()
  (pool2): MaxPool2d(kernel_size=2, stride=2, padding=0, dilation=1, ceil_mode=False)
  (conv3): Conv2d(32, 64, kernel_size=(3, 3), stride=(1, 1), padding=(1, 1))
  (relu3): ReLU()
  (flatten): Flatten(start_dim=1, end_dim=-1)
  (fc1): Linear(in_features=3136, out_features=3, bias=True)
  (relu4): ReLU()
  (fc2): Linear(in_features=3, out_features=1, bias=True)
  (sigmoid): Sigmoid()
)",[0],conv3,0.9179999828338623
47,"PyTorchCNN(
  (conv1): Conv2d(1, 16, kernel_size=(3, 3), stride=(1, 1), padding=(1, 1))
  (relu1): ReLU()
  (pool1): MaxPool2d(kernel_size=2, stride=2, padding=0, dilation=1, ceil_mode=False)
  (conv2): Conv2d(16, 32, kernel_size=(3, 3), stride=(1, 1), padding=(1, 1))
  (relu2): ReLU()
  (pool2): MaxPool2d(kernel_size=2, stride=2, padding=0, dilation=1, ceil_mode=False)
  (conv3): Conv2d(32, 64, kernel_size=(3, 3), stride=(1, 1), padding=(1, 1))
  (relu3): ReLU()
  (flatten): Flatten(start_dim=1, end_dim=-1)
  (fc1): Linear(in_features=3136, out_features=3, bias=True)
  (relu4): ReLU()
  (fc2): Linear(in_features=3, out_features=1, bias=True)
  (sigmoid): Sigmoid()
)",[0],fc1,0.8270000219345093
48,"PyTorchCNN(
  (conv1): Conv2d(1, 16, kernel_size=(3, 3), stride=(1, 1), padding=(1, 1))
  (relu1): ReLU()
  (pool1): MaxPool2d(kernel_size=2, stride=2, padding=0, dilation=1, ceil_mode=False)
  (conv2): Conv2d(16, 32, kernel_size=(3, 3), stride=(1, 1), padding=(1, 1))
  (relu2): ReLU()
  (pool2): MaxPool2d(kernel_size=2, stride=2, padding=0, dilation=1, ceil_mode=False)
  (conv3): Conv2d(32, 64, kernel_size=(3, 3), stride=(1, 1), padding=(1, 1))
  (relu3): ReLU()
  (flatten): Flatten(start_dim=1, end_dim=-1)
  (fc1): Linear(in_features=3136, out_features=3, bias=True)
  (relu4): ReLU()
  (fc2): Linear(in_features=3, out_features=1, bias=True)
  (sigmoid): Sigmoid()
)",[1],conv1,0.9580000042915344
49,"PyTorchCNN(
  (conv1): Conv2d(1, 16, kernel_size=(3, 3), stride=(1, 1), padding=(1, 1))
  (relu1): ReLU()
  (pool1): MaxPool2d(kernel_size=2, stride=2, padding=0, dilation=1, ceil_mode=False)
  (conv2): Conv2d(16, 32, kernel_size=(3, 3), stride=(1, 1), padding=(1, 1))
  (relu2): ReLU()
  (pool2): MaxPool2d(kernel_size=2, stride=2, padding=0, dilation=1, ceil_mode=False)
  (conv3): Conv2d(32, 64, kernel_size=(3, 3), stride=(1, 1), padding=(1, 1))
  (relu3): ReLU()
  (flatten): Flatten(start_dim=1, end_dim=-1)
  (fc1): Linear(in_features=3136, out_features=3, bias=True)
  (relu4): ReLU()
  (fc2): Linear(in_features=3, out_features=1, bias=True)
  (sigmoid): Sigmoid()
)",[1],conv2,0.9760000109672546
50,"PyTorchCNN(
  (conv1): Conv2d(1, 16, kernel_size=(3, 3), stride=(1, 1), padding=(1, 1))
  (relu1): ReLU()
  (pool1): MaxPool2d(kernel_size=2, stride=2, padding=0, dilation=1, ceil_mode=False)
  (conv2): Conv2d(16, 32, kernel_size=(3, 3), stride=(1, 1), padding=(1, 1))
  (relu2): ReLU()
  (pool2): MaxPool2d(kernel_size=2, stride=2, padding=0, dilation=1, ceil_mode=False)
  (conv3): Conv2d(32, 64, kernel_size=(3, 3), stride=(1, 1), padding=(1, 1))
  (relu3): ReLU()
  (flatten): Flatten(start_dim=1, end_dim=-1)
  (fc1): Linear(in_features=3136, out_features=3, bias=True)
  (relu4): ReLU()
  (fc2): Linear(in_features=3, out_features=1, bias=True)
  (sigmoid): Sigmoid()
)",[1],conv3,0.9470000267028809
51,"PyTorchCNN(
  (conv1): Conv2d(1, 16, kernel_size=(3, 3), stride=(1, 1), padding=(1, 1))
  (relu1): ReLU()
  (pool1): MaxPool2d(kernel_size=2, stride=2, padding=0, dilation=1, ceil_mode=False)
  (conv2): Conv2d(16, 32, kernel_size=(3, 3), stride=(1, 1), padding=(1, 1))
  (relu2): ReLU()
  (pool2): MaxPool2d(kernel_size=2, stride=2, padding=0, dilation=1, ceil_mode=False)
  (conv3): Conv2d(32, 64, kernel_size=(3, 3), stride=(1, 1), padding=(1, 1))
  (relu3): ReLU()
  (flatten): Flatten(start_dim=1, end_dim=-1)
  (fc1): Linear(in_features=3136, out_features=3, bias=True)
  (relu4): ReLU()
  (fc2): Linear(in_features=3, out_features=1, bias=True)
  (sigmoid): Sigmoid()
)",[1],fc1,0.7250000238418579
52,"PyTorchCNN(
  (conv1): Conv2d(1, 16, kernel_size=(3, 3), stride=(1, 1), padding=(1, 1))
  (relu1): ReLU()
  (pool1): MaxPool2d(kernel_size=2, stride=2, padding=0, dilation=1, ceil_mode=False)
  (conv2): Conv2d(16, 32, kernel_size=(3, 3), stride=(1, 1), padding=(1, 1))
  (relu2): ReLU()
  (pool2): MaxPool2d(kernel_size=2, stride=2, padding=0, dilation=1, ceil_mode=False)
  (conv3): Conv2d(32, 64, kernel_size=(3, 3), stride=(1, 1), padding=(1, 1))
  (relu3): ReLU()
  (flatten): Flatten(start_dim=1, end_dim=-1)
  (fc1): Linear(in_features=3136, out_features=3, bias=True)
  (relu4): ReLU()
  (fc2): Linear(in_features=3, out_features=1, bias=True)
  (sigmoid): Sigmoid()
)",[2],conv1,0.9279999732971191
53,"PyTorchCNN(
  (conv1): Conv2d(1, 16, kernel_size=(3, 3), stride=(1, 1), padding=(1, 1))
  (relu1): ReLU()
  (pool1): MaxPool2d(kernel_size=2, stride=2, padding=0, dilation=1, ceil_mode=False)
  (conv2): Conv2d(16, 32, kernel_size=(3, 3), stride=(1, 1), padding=(1, 1))
  (relu2): ReLU()
  (pool2): MaxPool2d(kernel_size=2, stride=2, padding=0, dilation=1, ceil_mode=False)
  (conv3): Conv2d(32, 64, kernel_size=(3, 3), stride=(1, 1), padding=(1, 1))
  (relu3): ReLU()
  (flatten): Flatten(start_dim=1, end_dim=-1)
  (fc1): Linear(in_features=3136, out_features=3, bias=True)
  (relu4): ReLU()
  (fc2): Linear(in_features=3, out_features=1, bias=True)
  (sigmoid): Sigmoid()
)",[2],conv2,0.9330000281333923
54,"PyTorchCNN(
  (conv1): Conv2d(1, 16, kernel_size=(3, 3), stride=(1, 1), padding=(1, 1))
  (relu1): ReLU()
  (pool1): MaxPool2d(kernel_size=2, stride=2, padding=0, dilation=1, ceil_mode=False)
  (conv2): Conv2d(16, 32, kernel_size=(3, 3), stride=(1, 1), padding=(1, 1))
  (relu2): ReLU()
  (pool2): MaxPool2d(kernel_size=2, stride=2, padding=0, dilation=1, ceil_mode=False)
  (conv3): Conv2d(32, 64, kernel_size=(3, 3), stride=(1, 1), padding=(1, 1))
  (relu3): ReLU()
  (flatten): Flatten(start_dim=1, end_dim=-1)
  (fc1): Linear(in_features=3136, out_features=3, bias=True)
  (relu4): ReLU()
  (fc2): Linear(in_features=3, out_features=1, bias=True)
  (sigmoid): Sigmoid()
)",[2],conv3,0.8870000243186951
55,"PyTorchCNN(
  (conv1): Conv2d(1, 16, kernel_size=(3, 3), stride=(1, 1), padding=(1, 1))
  (relu1): ReLU()
  (pool1): MaxPool2d(kernel_size=2, stride=2, padding=0, dilation=1, ceil_mode=False)
  (conv2): Conv2d(16, 32, kernel_size=(3, 3), stride=(1, 1), padding=(1, 1))
  (relu2): ReLU()
  (pool2): MaxPool2d(kernel_size=2, stride=2, padding=0, dilation=1, ceil_mode=False)
  (conv3): Conv2d(32, 64, kernel_size=(3, 3), stride=(1, 1), padding=(1, 1))
  (relu3): ReLU()
  (flatten): Flatten(start_dim=1, end_dim=-1)
  (fc1): Linear(in_features=3136, out_features=3, bias=True)
  (relu4): ReLU()
  (fc2): Linear(in_features=3, out_features=1, bias=True)
  (sigmoid): Sigmoid()
)",[2],fc1,0.7319999933242798
56,"PyTorchCNN(
  (conv1): Conv2d(1, 16, kernel_size=(3, 3), stride=(1, 1), padding=(1, 1))
  (relu1): ReLU()
  (pool1): MaxPool2d(kernel_size=2, stride=2, padding=0, dilation=1, ceil_mode=False)
  (conv2): Conv2d(16, 32, kernel_size=(3, 3), stride=(1, 1), padding=(1, 1))
  (relu2): ReLU()
  (pool2): MaxPool2d(kernel_size=2, stride=2, padding=0, dilation=1, ceil_mode=False)
  (conv3): Conv2d(32, 64, kernel_size=(3, 3), stride=(1, 1), padding=(1, 1))
  (relu3): ReLU()
  (flatten): Flatten(start_dim=1, end_dim=-1)
  (fc1): Linear(in_features=3136, out_features=3, bias=True)
  (relu4): ReLU()
  (fc2): Linear(in_features=3, out_features=1, bias=True)
  (sigmoid): Sigmoid()
)","[0, 1, 2]",conv1,0.9390000104904175
57,"PyTorchCNN(
  (conv1): Conv2d(1, 16, kernel_size=(3, 3), stride=(1, 1), padding=(1, 1))
  (relu1): ReLU()
  (pool1): MaxPool2d(kernel_size=2, stride=2, padding=0, dilation=1, ceil_mode=False)
  (conv2): Conv2d(16, 32, kernel_size=(3, 3), stride=(1, 1), padding=(1, 1))
  (relu2): ReLU()
  (pool2): MaxPool2d(kernel_size=2, stride=2, padding=0, dilation=1, ceil_mode=False)
  (conv3): Conv2d(32, 64, kernel_size=(3, 3), stride=(1, 1), padding=(1, 1))
  (relu3): ReLU()
  (flatten): Flatten(start_dim=1, end_dim=-1)
  (fc1): Linear(in_features=3136, out_features=3, bias=True)
  (relu4): ReLU()
  (fc2): Linear(in_features=3, out_features=1, bias=True)
  (sigmoid): Sigmoid()
)","[0, 1, 2]",conv2,0.9319999814033508
58,"PyTorchCNN(
  (conv1): Conv2d(1, 16, kernel_size=(3, 3), stride=(1, 1), padding=(1, 1))
  (relu1): ReLU()
  (pool1): MaxPool2d(kernel_size=2, stride=2, padding=0, dilation=1, ceil_mode=False)
  (conv2): Conv2d(16, 32, kernel_size=(3, 3), stride=(1, 1), padding=(1, 1))
  (relu2): ReLU()
  (pool2): MaxPool2d(kernel_size=2, stride=2, padding=0, dilation=1, ceil_mode=False)
  (conv3): Conv2d(32, 64, kernel_size=(3, 3), stride=(1, 1), padding=(1, 1))
  (relu3): ReLU()
  (flatten): Flatten(start_dim=1, end_dim=-1)
  (fc1): Linear(in_features=3136, out_features=3, bias=True)
  (relu4): ReLU()
  (fc2): Linear(in_features=3, out_features=1, bias=True)
  (sigmoid): Sigmoid()
)","[0, 1, 2]",conv3,0.9419999718666077
59,"PyTorchCNN(
  (conv1): Conv2d(1, 16, kernel_size=(3, 3), stride=(1, 1), padding=(1, 1))
  (relu1): ReLU()
  (pool1): MaxPool2d(kernel_size=2, stride=2, padding=0, dilation=1, ceil_mode=False)
  (conv2): Conv2d(16, 32, kernel_size=(3, 3), stride=(1, 1), padding=(1, 1))
  (relu2): ReLU()
  (pool2): MaxPool2d(kernel_size=2, stride=2, padding=0, dilation=1, ceil_mode=False)
  (conv3): Conv2d(32, 64, kernel_size=(3, 3), stride=(1, 1), padding=(1, 1))
  (relu3): ReLU()
  (flatten): Flatten(start_dim=1, end_dim=-1)
  (fc1): Linear(in_features=3136, out_features=3, bias=True)
  (relu4): ReLU()
  (fc2): Linear(in_features=3, out_features=1, bias=True)
  (sigmoid): Sigmoid()
)","[0, 1, 2]",fc1,0.859000027179718
60,"PyTorchCNN(
  (conv1): Conv2d(1, 16, kernel_size=(3, 3), stride=(1, 1), padding=(1, 1))
  (relu1): ReLU()
  (pool1): MaxPool2d(kernel_size=2, stride=2, padding=0, dilation=1, ceil_mode=False)
  (conv2): Conv2d(16, 32, kernel_size=(3, 3), stride=(1, 1), padding=(1, 1))
  (relu2): ReLU()
  (pool2): MaxPool2d(kernel_size=2, stride=2, padding=0, dilation=1, ceil_mode=False)
  (conv3): Conv2d(32, 64, kernel_size=(3, 3), stride=(1, 1), padding=(1, 1))
  (relu3): ReLU()
  (flatten): Flatten(start_dim=1, end_dim=-1)
  (fc1): Linear(in_features=3136, out_features=3, bias=True)
  (relu4): ReLU()
  (fc2): Linear(in_features=3, out_features=1, bias=True)
  (sigmoid): Sigmoid()
)","[0, 1]",conv1,0.9380000233650208
61,"PyTorchCNN(
  (conv1): Conv2d(1, 16, kernel_size=(3, 3), stride=(1, 1), padding=(1, 1))
  (relu1): ReLU()
  (pool1): MaxPool2d(kernel_size=2, stride=2, padding=0, dilation=1, ceil_mode=False)
  (conv2): Conv2d(16, 32, kernel_size=(3, 3), stride=(1, 1), padding=(1, 1))
  (relu2): ReLU()
  (pool2): MaxPool2d(kernel_size=2, stride=2, padding=0, dilation=1, ceil_mode=False)
  (conv3): Conv2d(32, 64, kernel_size=(3, 3), stride=(1, 1), padding=(1, 1))
  (relu3): ReLU()
  (flatten): Flatten(start_dim=1, end_dim=-1)
  (fc1): Linear(in_features=3136, out_features=3, bias=True)
  (relu4): ReLU()
  (fc2): Linear(in_features=3, out_features=1, bias=True)
  (sigmoid): Sigmoid()
)","[0, 1]",conv2,0.9369999766349792
62,"PyTorchCNN(
  (conv1): Conv2d(1, 16, kernel_size=(3, 3), stride=(1, 1), padding=(1, 1))
  (relu1): ReLU()
  (pool1): MaxPool2d(kernel_size=2, stride=2, padding=0, dilation=1, ceil_mode=False)
  (conv2): Conv2d(16, 32, kernel_size=(3, 3), stride=(1, 1), padding=(1, 1))
  (relu2): ReLU()
  (pool2): MaxPool2d(kernel_size=2, stride=2, padding=0, dilation=1, ceil_mode=False)
  (conv3): Conv2d(32, 64, kernel_size=(3, 3), stride=(1, 1), padding=(1, 1))
  (relu3): ReLU()
  (flatten): Flatten(start_dim=1, end_dim=-1)
  (fc1): Linear(in_features=3136, out_features=3, bias=True)
  (relu4): ReLU()
  (fc2): Linear(in_features=3, out_features=1, bias=True)
  (sigmoid): Sigmoid()
)","[0, 1]",conv3,0.9049999713897705
63,"PyTorchCNN(
  (conv1): Conv2d(1, 16, kernel_size=(3, 3), stride=(1, 1), padding=(1, 1))
  (relu1): ReLU()
  (pool1): MaxPool2d(kernel_size=2, stride=2, padding=0, dilation=1, ceil_mode=False)
  (conv2): Conv2d(16, 32, kernel_size=(3, 3), stride=(1, 1), padding=(1, 1))
  (relu2): ReLU()
  (pool2): MaxPool2d(kernel_size=2, stride=2, padding=0, dilation=1, ceil_mode=False)
  (conv3): Conv2d(32, 64, kernel_size=(3, 3), stride=(1, 1), padding=(1, 1))
  (relu3): ReLU()
  (flatten): Flatten(start_dim=1, end_dim=-1)
  (fc1): Linear(in_features=3136, out_features=3, bias=True)
  (relu4): ReLU()
  (fc2): Linear(in_features=3, out_features=1, bias=True)
  (sigmoid): Sigmoid()
)","[0, 1]",fc1,0.7929999828338623
64,"PyTorchCNN(
  (conv1): Conv2d(1, 16, kernel_size=(3, 3), stride=(1, 1), padding=(1, 1))
  (relu1): ReLU()
  (pool1): MaxPool2d(kernel_size=2, stride=2, padding=0, dilation=1, ceil_mode=False)
  (conv2): Conv2d(16, 32, kernel_size=(3, 3), stride=(1, 1), padding=(1, 1))
  (relu2): ReLU()
  (pool2): MaxPool2d(kernel_size=2, stride=2, padding=0, dilation=1, ceil_mode=False)
  (conv3): Conv2d(32, 64, kernel_size=(3, 3), stride=(1, 1), padding=(1, 1))
  (relu3): ReLU()
  (flatten): Flatten(start_dim=1, end_dim=-1)
  (fc1): Linear(in_features=3136, out_features=3, bias=True)
  (relu4): ReLU()
  (fc2): Linear(in_features=3, out_features=1, bias=True)
  (sigmoid): Sigmoid()
)","[0, 2]",conv1,0.9409999847412109
65,"PyTorchCNN(
  (conv1): Conv2d(1, 16, kernel_size=(3, 3), stride=(1, 1), padding=(1, 1))
  (relu1): ReLU()
  (pool1): MaxPool2d(kernel_size=2, stride=2, padding=0, dilation=1, ceil_mode=False)
  (conv2): Conv2d(16, 32, kernel_size=(3, 3), stride=(1, 1), padding=(1, 1))
  (relu2): ReLU()
  (pool2): MaxPool2d(kernel_size=2, stride=2, padding=0, dilation=1, ceil_mode=False)
  (conv3): Conv2d(32, 64, kernel_size=(3, 3), stride=(1, 1), padding=(1, 1))
  (relu3): ReLU()
  (flatten): Flatten(start_dim=1, end_dim=-1)
  (fc1): Linear(in_features=3136, out_features=3, bias=True)
  (relu4): ReLU()
  (fc2): Linear(in_features=3, out_features=1, bias=True)
  (sigmoid): Sigmoid()
)","[0, 2]",conv2,0.9340000152587891
66,"PyTorchCNN(
  (conv1): Conv2d(1, 16, kernel_size=(3, 3), stride=(1, 1), padding=(1, 1))
  (relu1): ReLU()
  (pool1): MaxPool2d(kernel_size=2, stride=2, padding=0, dilation=1, ceil_mode=False)
  (conv2): Conv2d(16, 32, kernel_size=(3, 3), stride=(1, 1), padding=(1, 1))
  (relu2): ReLU()
  (pool2): MaxPool2d(kernel_size=2, stride=2, padding=0, dilation=1, ceil_mode=False)
  (conv3): Conv2d(32, 64, kernel_size=(3, 3), stride=(1, 1), padding=(1, 1))
  (relu3): ReLU()
  (flatten): Flatten(start_dim=1, end_dim=-1)
  (fc1): Linear(in_features=3136, out_features=3, bias=True)
  (relu4): ReLU()
  (fc2): Linear(in_features=3, out_features=1, bias=True)
  (sigmoid): Sigmoid()
)","[0, 2]",conv3,0.9020000100135803
67,"PyTorchCNN(
  (conv1): Conv2d(1, 16, kernel_size=(3, 3), stride=(1, 1), padding=(1, 1))
  (relu1): ReLU()
  (pool1): MaxPool2d(kernel_size=2, stride=2, padding=0, dilation=1, ceil_mode=False)
  (conv2): Conv2d(16, 32, kernel_size=(3, 3), stride=(1, 1), padding=(1, 1))
  (relu2): ReLU()
  (pool2): MaxPool2d(kernel_size=2, stride=2, padding=0, dilation=1, ceil_mode=False)
  (conv3): Conv2d(32, 64, kernel_size=(3, 3), stride=(1, 1), padding=(1, 1))
  (relu3): ReLU()
  (flatten): Flatten(start_dim=1, end_dim=-1)
  (fc1): Linear(in_features=3136, out_features=3, bias=True)
  (relu4): ReLU()
  (fc2): Linear(in_features=3, out_features=1, bias=True)
  (sigmoid): Sigmoid()
)","[0, 2]",fc1,0.6790000200271606
68,"PyTorchCNN(
  (conv1): Conv2d(1, 16, kernel_size=(3, 3), stride=(1, 1), padding=(1, 1))
  (relu1): ReLU()
  (pool1): MaxPool2d(kernel_size=2, stride=2, padding=0, dilation=1, ceil_mode=False)
  (conv2): Conv2d(16, 32, kernel_size=(3, 3), stride=(1, 1), padding=(1, 1))
  (relu2): ReLU()
  (pool2): MaxPool2d(kernel_size=2, stride=2, padding=0, dilation=1, ceil_mode=False)
  (conv3): Conv2d(32, 64, kernel_size=(3, 3), stride=(1, 1), padding=(1, 1))
  (relu3): ReLU()
  (flatten): Flatten(start_dim=1, end_dim=-1)
  (fc1): Linear(in_features=3136, out_features=3, bias=True)
  (relu4): ReLU()
  (fc2): Linear(in_features=3, out_features=1, bias=True)
  (sigmoid): Sigmoid()
)","[1, 2]",conv1,0.9300000071525574
69,"PyTorchCNN(
  (conv1): Conv2d(1, 16, kernel_size=(3, 3), stride=(1, 1), padding=(1, 1))
  (relu1): ReLU()
  (pool1): MaxPool2d(kernel_size=2, stride=2, padding=0, dilation=1, ceil_mode=False)
  (conv2): Conv2d(16, 32, kernel_size=(3, 3), stride=(1, 1), padding=(1, 1))
  (relu2): ReLU()
  (pool2): MaxPool2d(kernel_size=2, stride=2, padding=0, dilation=1, ceil_mode=False)
  (conv3): Conv2d(32, 64, kernel_size=(3, 3), stride=(1, 1), padding=(1, 1))
  (relu3): ReLU()
  (flatten): Flatten(start_dim=1, end_dim=-1)
  (fc1): Linear(in_features=3136, out_features=3, bias=True)
  (relu4): ReLU()
  (fc2): Linear(in_features=3, out_features=1, bias=True)
  (sigmoid): Sigmoid()
)","[1, 2]",conv2,0.9210000038146973
70,"PyTorchCNN(
  (conv1): Conv2d(1, 16, kernel_size=(3, 3), stride=(1, 1), padding=(1, 1))
  (relu1): ReLU()
  (pool1): MaxPool2d(kernel_size=2, stride=2, padding=0, dilation=1, ceil_mode=False)
  (conv2): Conv2d(16, 32, kernel_size=(3, 3), stride=(1, 1), padding=(1, 1))
  (relu2): ReLU()
  (pool2): MaxPool2d(kernel_size=2, stride=2, padding=0, dilation=1, ceil_mode=False)
  (conv3): Conv2d(32, 64, kernel_size=(3, 3), stride=(1, 1), padding=(1, 1))
  (relu3): ReLU()
  (flatten): Flatten(start_dim=1, end_dim=-1)
  (fc1): Linear(in_features=3136, out_features=3, bias=True)
  (relu4): ReLU()
  (fc2): Linear(in_features=3, out_features=1, bias=True)
  (sigmoid): Sigmoid()
)","[1, 2]",conv3,0.8849999904632568
71,"PyTorchCNN(
  (conv1): Conv2d(1, 16, kernel_size=(3, 3), stride=(1, 1), padding=(1, 1))
  (relu1): ReLU()
  (pool1): MaxPool2d(kernel_size=2, stride=2, padding=0, dilation=1, ceil_mode=False)
  (conv2): Conv2d(16, 32, kernel_size=(3, 3), stride=(1, 1), padding=(1, 1))
  (relu2): ReLU()
  (pool2): MaxPool2d(kernel_size=2, stride=2, padding=0, dilation=1, ceil_mode=False)
  (conv3): Conv2d(32, 64, kernel_size=(3, 3), stride=(1, 1), padding=(1, 1))
  (relu3): ReLU()
  (flatten): Flatten(start_dim=1, end_dim=-1)
  (fc1): Linear(in_features=3136, out_features=3, bias=True)
  (relu4): ReLU()
  (fc2): Linear(in_features=3, out_features=1, bias=True)
  (sigmoid): Sigmoid()
)","[1, 2]",fc1,0.7329999804496765
72,"PyTorchCNN(
  (conv1): Conv2d(1, 16, kernel_size=(3, 3), stride=(1, 1), padding=(1, 1))
  (relu1): ReLU()
  (pool1): MaxPool2d(kernel_size=2, stride=2, padding=0, dilation=1, ceil_mode=False)
  (conv2): Conv2d(16, 32, kernel_size=(3, 3), stride=(1, 1), padding=(1, 1))
  (relu2): ReLU()
  (pool2): MaxPool2d(kernel_size=2, stride=2, padding=0, dilation=1, ceil_mode=False)
  (conv3): Conv2d(32, 64, kernel_size=(3, 3), stride=(1, 1), padding=(1, 1))
  (relu3): ReLU()
  (flatten): Flatten(start_dim=1, end_dim=-1)
  (fc1): Linear(in_features=3136, out_features=3, bias=True)
  (relu4): ReLU()
  (fc2): Linear(in_features=3, out_features=1, bias=True)
  (sigmoid): Sigmoid()
)",[0],conv1,0.9279999732971191
73,"PyTorchCNN(
  (conv1): Conv2d(1, 16, kernel_size=(3, 3), stride=(1, 1), padding=(1, 1))
  (relu1): ReLU()
  (pool1): MaxPool2d(kernel_size=2, stride=2, padding=0, dilation=1, ceil_mode=False)
  (conv2): Conv2d(16, 32, kernel_size=(3, 3), stride=(1, 1), padding=(1, 1))
  (relu2): ReLU()
  (pool2): MaxPool2d(kernel_size=2, stride=2, padding=0, dilation=1, ceil_mode=False)
  (conv3): Conv2d(32, 64, kernel_size=(3, 3), stride=(1, 1), padding=(1, 1))
  (relu3): ReLU()
  (flatten): Flatten(start_dim=1, end_dim=-1)
  (fc1): Linear(in_features=3136, out_features=3, bias=True)
  (relu4): ReLU()
  (fc2): Linear(in_features=3, out_features=1, bias=True)
  (sigmoid): Sigmoid()
)",[0],conv2,0.9070000052452087
74,"PyTorchCNN(
  (conv1): Conv2d(1, 16, kernel_size=(3, 3), stride=(1, 1), padding=(1, 1))
  (relu1): ReLU()
  (pool1): MaxPool2d(kernel_size=2, stride=2, padding=0, dilation=1, ceil_mode=False)
  (conv2): Conv2d(16, 32, kernel_size=(3, 3), stride=(1, 1), padding=(1, 1))
  (relu2): ReLU()
  (pool2): MaxPool2d(kernel_size=2, stride=2, padding=0, dilation=1, ceil_mode=False)
  (conv3): Conv2d(32, 64, kernel_size=(3, 3), stride=(1, 1), padding=(1, 1))
  (relu3): ReLU()
  (flatten): Flatten(start_dim=1, end_dim=-1)
  (fc1): Linear(in_features=3136, out_features=3, bias=True)
  (relu4): ReLU()
  (fc2): Linear(in_features=3, out_features=1, bias=True)
  (sigmoid): Sigmoid()
)",[0],conv3,0.8759999871253967
75,"PyTorchCNN(
  (conv1): Conv2d(1, 16, kernel_size=(3, 3), stride=(1, 1), padding=(1, 1))
  (relu1): ReLU()
  (pool1): MaxPool2d(kernel_size=2, stride=2, padding=0, dilation=1, ceil_mode=False)
  (conv2): Conv2d(16, 32, kernel_size=(3, 3), stride=(1, 1), padding=(1, 1))
  (relu2): ReLU()
  (pool2): MaxPool2d(kernel_size=2, stride=2, padding=0, dilation=1, ceil_mode=False)
  (conv3): Conv2d(32, 64, kernel_size=(3, 3), stride=(1, 1), padding=(1, 1))
  (relu3): ReLU()
  (flatten): Flatten(start_dim=1, end_dim=-1)
  (fc1): Linear(in_features=3136, out_features=3, bias=True)
  (relu4): ReLU()
  (fc2): Linear(in_features=3, out_features=1, bias=True)
  (sigmoid): Sigmoid()
)",[0],fc1,0.7080000042915344
76,"PyTorchCNN(
  (conv1): Conv2d(1, 16, kernel_size=(3, 3), stride=(1, 1), padding=(1, 1))
  (relu1): ReLU()
  (pool1): MaxPool2d(kernel_size=2, stride=2, padding=0, dilation=1, ceil_mode=False)
  (conv2): Conv2d(16, 32, kernel_size=(3, 3), stride=(1, 1), padding=(1, 1))
  (relu2): ReLU()
  (pool2): MaxPool2d(kernel_size=2, stride=2, padding=0, dilation=1, ceil_mode=False)
  (conv3): Conv2d(32, 64, kernel_size=(3, 3), stride=(1, 1), padding=(1, 1))
  (relu3): ReLU()
  (flatten): Flatten(start_dim=1, end_dim=-1)
  (fc1): Linear(in_features=3136, out_features=3, bias=True)
  (relu4): ReLU()
  (fc2): Linear(in_features=3, out_features=1, bias=True)
  (sigmoid): Sigmoid()
)",[1],conv1,0.9670000076293945
77,"PyTorchCNN(
  (conv1): Conv2d(1, 16, kernel_size=(3, 3), stride=(1, 1), padding=(1, 1))
  (relu1): ReLU()
  (pool1): MaxPool2d(kernel_size=2, stride=2, padding=0, dilation=1, ceil_mode=False)
  (conv2): Conv2d(16, 32, kernel_size=(3, 3), stride=(1, 1), padding=(1, 1))
  (relu2): ReLU()
  (pool2): MaxPool2d(kernel_size=2, stride=2, padding=0, dilation=1, ceil_mode=False)
  (conv3): Conv2d(32, 64, kernel_size=(3, 3), stride=(1, 1), padding=(1, 1))
  (relu3): ReLU()
  (flatten): Flatten(start_dim=1, end_dim=-1)
  (fc1): Linear(in_features=3136, out_features=3, bias=True)
  (relu4): ReLU()
  (fc2): Linear(in_features=3, out_features=1, bias=True)
  (sigmoid): Sigmoid()
)",[1],conv2,0.9539999961853027
78,"PyTorchCNN(
  (conv1): Conv2d(1, 16, kernel_size=(3, 3), stride=(1, 1), padding=(1, 1))
  (relu1): ReLU()
  (pool1): MaxPool2d(kernel_size=2, stride=2, padding=0, dilation=1, ceil_mode=False)
  (conv2): Conv2d(16, 32, kernel_size=(3, 3), stride=(1, 1), padding=(1, 1))
  (relu2): ReLU()
  (pool2): MaxPool2d(kernel_size=2, stride=2, padding=0, dilation=1, ceil_mode=False)
  (conv3): Conv2d(32, 64, kernel_size=(3, 3), stride=(1, 1), padding=(1, 1))
  (relu3): ReLU()
  (flatten): Flatten(start_dim=1, end_dim=-1)
  (fc1): Linear(in_features=3136, out_features=3, bias=True)
  (relu4): ReLU()
  (fc2): Linear(in_features=3, out_features=1, bias=True)
  (sigmoid): Sigmoid()
)",[1],conv3,0.9179999828338623
79,"PyTorchCNN(
  (conv1): Conv2d(1, 16, kernel_size=(3, 3), stride=(1, 1), padding=(1, 1))
  (relu1): ReLU()
  (pool1): MaxPool2d(kernel_size=2, stride=2, padding=0, dilation=1, ceil_mode=False)
  (conv2): Conv2d(16, 32, kernel_size=(3, 3), stride=(1, 1), padding=(1, 1))
  (relu2): ReLU()
  (pool2): MaxPool2d(kernel_size=2, stride=2, padding=0, dilation=1, ceil_mode=False)
  (conv3): Conv2d(32, 64, kernel_size=(3, 3), stride=(1, 1), padding=(1, 1))
  (relu3): ReLU()
  (flatten): Flatten(start_dim=1, end_dim=-1)
  (fc1): Linear(in_features=3136, out_features=3, bias=True)
  (relu4): ReLU()
  (fc2): Linear(in_features=3, out_features=1, bias=True)
  (sigmoid): Sigmoid()
)",[1],fc1,0.7559999823570251
80,"PyTorchCNN(
  (conv1): Conv2d(1, 16, kernel_size=(3, 3), stride=(1, 1), padding=(1, 1))
  (relu1): ReLU()
  (pool1): MaxPool2d(kernel_size=2, stride=2, padding=0, dilation=1, ceil_mode=False)
  (conv2): Conv2d(16, 32, kernel_size=(3, 3), stride=(1, 1), padding=(1, 1))
  (relu2): ReLU()
  (pool2): MaxPool2d(kernel_size=2, stride=2, padding=0, dilation=1, ceil_mode=False)
  (conv3): Conv2d(32, 64, kernel_size=(3, 3), stride=(1, 1), padding=(1, 1))
  (relu3): ReLU()
  (flatten): Flatten(start_dim=1, end_dim=-1)
  (fc1): Linear(in_features=3136, out_features=3, bias=True)
  (relu4): ReLU()
  (fc2): Linear(in_features=3, out_features=1, bias=True)
  (sigmoid): Sigmoid()
)",[2],conv1,0.9490000009536743
81,"PyTorchCNN(
  (conv1): Conv2d(1, 16, kernel_size=(3, 3), stride=(1, 1), padding=(1, 1))
  (relu1): ReLU()
  (pool1): MaxPool2d(kernel_size=2, stride=2, padding=0, dilation=1, ceil_mode=False)
  (conv2): Conv2d(16, 32, kernel_size=(3, 3), stride=(1, 1), padding=(1, 1))
  (relu2): ReLU()
  (pool2): MaxPool2d(kernel_size=2, stride=2, padding=0, dilation=1, ceil_mode=False)
  (conv3): Conv2d(32, 64, kernel_size=(3, 3), stride=(1, 1), padding=(1, 1))
  (relu3): ReLU()
  (flatten): Flatten(start_dim=1, end_dim=-1)
  (fc1): Linear(in_features=3136, out_features=3, bias=True)
  (relu4): ReLU()
  (fc2): Linear(in_features=3, out_features=1, bias=True)
  (sigmoid): Sigmoid()
)",[2],conv2,0.9599999785423279
82,"PyTorchCNN(
  (conv1): Conv2d(1, 16, kernel_size=(3, 3), stride=(1, 1), padding=(1, 1))
  (relu1): ReLU()
  (pool1): MaxPool2d(kernel_size=2, stride=2, padding=0, dilation=1, ceil_mode=False)
  (conv2): Conv2d(16, 32, kernel_size=(3, 3), stride=(1, 1), padding=(1, 1))
  (relu2): ReLU()
  (pool2): MaxPool2d(kernel_size=2, stride=2, padding=0, dilation=1, ceil_mode=False)
  (conv3): Conv2d(32, 64, kernel_size=(3, 3), stride=(1, 1), padding=(1, 1))
  (relu3): ReLU()
  (flatten): Flatten(start_dim=1, end_dim=-1)
  (fc1): Linear(in_features=3136, out_features=3, bias=True)
  (relu4): ReLU()
  (fc2): Linear(in_features=3, out_features=1, bias=True)
  (sigmoid): Sigmoid()
)",[2],conv3,0.9399999976158142
83,"PyTorchCNN(
  (conv1): Conv2d(1, 16, kernel_size=(3, 3), stride=(1, 1), padding=(1, 1))
  (relu1): ReLU()
  (pool1): MaxPool2d(kernel_size=2, stride=2, padding=0, dilation=1, ceil_mode=False)
  (conv2): Conv2d(16, 32, kernel_size=(3, 3), stride=(1, 1), padding=(1, 1))
  (relu2): ReLU()
  (pool2): MaxPool2d(kernel_size=2, stride=2, padding=0, dilation=1, ceil_mode=False)
  (conv3): Conv2d(32, 64, kernel_size=(3, 3), stride=(1, 1), padding=(1, 1))
  (relu3): ReLU()
  (flatten): Flatten(start_dim=1, end_dim=-1)
  (fc1): Linear(in_features=3136, out_features=3, bias=True)
  (relu4): ReLU()
  (fc2): Linear(in_features=3, out_features=1, bias=True)
  (sigmoid): Sigmoid()
)",[2],fc1,0.796999990940094
84,"PyTorchCNN(
  (conv1): Conv2d(1, 16, kernel_size=(3, 3), stride=(1, 1), padding=(1, 1))
  (relu1): ReLU()
  (pool1): MaxPool2d(kernel_size=2, stride=2, padding=0, dilation=1, ceil_mode=False)
  (conv2): Conv2d(16, 32, kernel_size=(3, 3), stride=(1, 1), padding=(1, 1))
  (relu2): ReLU()
  (pool2): MaxPool2d(kernel_size=2, stride=2, padding=0, dilation=1, ceil_mode=False)
  (conv3): Conv2d(32, 64, kernel_size=(3, 3), stride=(1, 1), padding=(1, 1))
  (relu3): ReLU()
  (flatten): Flatten(start_dim=1, end_dim=-1)
  (fc1): Linear(in_features=3136, out_features=3, bias=True)
  (relu4): ReLU()
  (fc2): Linear(in_features=3, out_features=1, bias=True)
  (sigmoid): Sigmoid()
)","[0, 1, 2]",conv1,0.9309999942779541
85,"PyTorchCNN(
  (conv1): Conv2d(1, 16, kernel_size=(3, 3), stride=(1, 1), padding=(1, 1))
  (relu1): ReLU()
  (pool1): MaxPool2d(kernel_size=2, stride=2, padding=0, dilation=1, ceil_mode=False)
  (conv2): Conv2d(16, 32, kernel_size=(3, 3), stride=(1, 1), padding=(1, 1))
  (relu2): ReLU()
  (pool2): MaxPool2d(kernel_size=2, stride=2, padding=0, dilation=1, ceil_mode=False)
  (conv3): Conv2d(32, 64, kernel_size=(3, 3), stride=(1, 1), padding=(1, 1))
  (relu3): ReLU()
  (flatten): Flatten(start_dim=1, end_dim=-1)
  (fc1): Linear(in_features=3136, out_features=3, bias=True)
  (relu4): ReLU()
  (fc2): Linear(in_features=3, out_features=1, bias=True)
  (sigmoid): Sigmoid()
)","[0, 1, 2]",conv2,0.925000011920929
86,"PyTorchCNN(
  (conv1): Conv2d(1, 16, kernel_size=(3, 3), stride=(1, 1), padding=(1, 1))
  (relu1): ReLU()
  (pool1): MaxPool2d(kernel_size=2, stride=2, padding=0, dilation=1, ceil_mode=False)
  (conv2): Conv2d(16, 32, kernel_size=(3, 3), stride=(1, 1), padding=(1, 1))
  (relu2): ReLU()
  (pool2): MaxPool2d(kernel_size=2, stride=2, padding=0, dilation=1, ceil_mode=False)
  (conv3): Conv2d(32, 64, kernel_size=(3, 3), stride=(1, 1), padding=(1, 1))
  (relu3): ReLU()
  (flatten): Flatten(start_dim=1, end_dim=-1)
  (fc1): Linear(in_features=3136, out_features=3, bias=True)
  (relu4): ReLU()
  (fc2): Linear(in_features=3, out_features=1, bias=True)
  (sigmoid): Sigmoid()
)","[0, 1, 2]",conv3,0.9449999928474426
87,"PyTorchCNN(
  (conv1): Conv2d(1, 16, kernel_size=(3, 3), stride=(1, 1), padding=(1, 1))
  (relu1): ReLU()
  (pool1): MaxPool2d(kernel_size=2, stride=2, padding=0, dilation=1, ceil_mode=False)
  (conv2): Conv2d(16, 32, kernel_size=(3, 3), stride=(1, 1), padding=(1, 1))
  (relu2): ReLU()
  (pool2): MaxPool2d(kernel_size=2, stride=2, padding=0, dilation=1, ceil_mode=False)
  (conv3): Conv2d(32, 64, kernel_size=(3, 3), stride=(1, 1), padding=(1, 1))
  (relu3): ReLU()
  (flatten): Flatten(start_dim=1, end_dim=-1)
  (fc1): Linear(in_features=3136, out_features=3, bias=True)
  (relu4): ReLU()
  (fc2): Linear(in_features=3, out_features=1, bias=True)
  (sigmoid): Sigmoid()
)","[0, 1, 2]",fc1,0.5099999904632568
88,"PyTorchCNN(
  (conv1): Conv2d(1, 16, kernel_size=(3, 3), stride=(1, 1), padding=(1, 1))
  (relu1): ReLU()
  (pool1): MaxPool2d(kernel_size=2, stride=2, padding=0, dilation=1, ceil_mode=False)
  (conv2): Conv2d(16, 32, kernel_size=(3, 3), stride=(1, 1), padding=(1, 1))
  (relu2): ReLU()
  (pool2): MaxPool2d(kernel_size=2, stride=2, padding=0, dilation=1, ceil_mode=False)
  (conv3): Conv2d(32, 64, kernel_size=(3, 3), stride=(1, 1), padding=(1, 1))
  (relu3): ReLU()
  (flatten): Flatten(start_dim=1, end_dim=-1)
  (fc1): Linear(in_features=3136, out_features=3, bias=True)
  (relu4): ReLU()
  (fc2): Linear(in_features=3, out_features=1, bias=True)
  (sigmoid): Sigmoid()
)","[0, 1]",conv1,0.921999990940094
89,"PyTorchCNN(
  (conv1): Conv2d(1, 16, kernel_size=(3, 3), stride=(1, 1), padding=(1, 1))
  (relu1): ReLU()
  (pool1): MaxPool2d(kernel_size=2, stride=2, padding=0, dilation=1, ceil_mode=False)
  (conv2): Conv2d(16, 32, kernel_size=(3, 3), stride=(1, 1), padding=(1, 1))
  (relu2): ReLU()
  (pool2): MaxPool2d(kernel_size=2, stride=2, padding=0, dilation=1, ceil_mode=False)
  (conv3): Conv2d(32, 64, kernel_size=(3, 3), stride=(1, 1), padding=(1, 1))
  (relu3): ReLU()
  (flatten): Flatten(start_dim=1, end_dim=-1)
  (fc1): Linear(in_features=3136, out_features=3, bias=True)
  (relu4): ReLU()
  (fc2): Linear(in_features=3, out_features=1, bias=True)
  (sigmoid): Sigmoid()
)","[0, 1]",conv2,0.8999999761581421
90,"PyTorchCNN(
  (conv1): Conv2d(1, 16, kernel_size=(3, 3), stride=(1, 1), padding=(1, 1))
  (relu1): ReLU()
  (pool1): MaxPool2d(kernel_size=2, stride=2, padding=0, dilation=1, ceil_mode=False)
  (conv2): Conv2d(16, 32, kernel_size=(3, 3), stride=(1, 1), padding=(1, 1))
  (relu2): ReLU()
  (pool2): MaxPool2d(kernel_size=2, stride=2, padding=0, dilation=1, ceil_mode=False)
  (conv3): Conv2d(32, 64, kernel_size=(3, 3), stride=(1, 1), padding=(1, 1))
  (relu3): ReLU()
  (flatten): Flatten(start_dim=1, end_dim=-1)
  (fc1): Linear(in_features=3136, out_features=3, bias=True)
  (relu4): ReLU()
  (fc2): Linear(in_features=3, out_features=1, bias=True)
  (sigmoid): Sigmoid()
)","[0, 1]",conv3,0.8870000243186951
91,"PyTorchCNN(
  (conv1): Conv2d(1, 16, kernel_size=(3, 3), stride=(1, 1), padding=(1, 1))
  (relu1): ReLU()
  (pool1): MaxPool2d(kernel_size=2, stride=2, padding=0, dilation=1, ceil_mode=False)
  (conv2): Conv2d(16, 32, kernel_size=(3, 3), stride=(1, 1), padding=(1, 1))
  (relu2): ReLU()
  (pool2): MaxPool2d(kernel_size=2, stride=2, padding=0, dilation=1, ceil_mode=False)
  (conv3): Conv2d(32, 64, kernel_size=(3, 3), stride=(1, 1), padding=(1, 1))
  (relu3): ReLU()
  (flatten): Flatten(start_dim=1, end_dim=-1)
  (fc1): Linear(in_features=3136, out_features=3, bias=True)
  (relu4): ReLU()
  (fc2): Linear(in_features=3, out_features=1, bias=True)
  (sigmoid): Sigmoid()
)","[0, 1]",fc1,0.7049999833106995
92,"PyTorchCNN(
  (conv1): Conv2d(1, 16, kernel_size=(3, 3), stride=(1, 1), padding=(1, 1))
  (relu1): ReLU()
  (pool1): MaxPool2d(kernel_size=2, stride=2, padding=0, dilation=1, ceil_mode=False)
  (conv2): Conv2d(16, 32, kernel_size=(3, 3), stride=(1, 1), padding=(1, 1))
  (relu2): ReLU()
  (pool2): MaxPool2d(kernel_size=2, stride=2, padding=0, dilation=1, ceil_mode=False)
  (conv3): Conv2d(32, 64, kernel_size=(3, 3), stride=(1, 1), padding=(1, 1))
  (relu3): ReLU()
  (flatten): Flatten(start_dim=1, end_dim=-1)
  (fc1): Linear(in_features=3136, out_features=3, bias=True)
  (relu4): ReLU()
  (fc2): Linear(in_features=3, out_features=1, bias=True)
  (sigmoid): Sigmoid()
)","[0, 2]",conv1,0.9409999847412109
93,"PyTorchCNN(
  (conv1): Conv2d(1, 16, kernel_size=(3, 3), stride=(1, 1), padding=(1, 1))
  (relu1): ReLU()
  (pool1): MaxPool2d(kernel_size=2, stride=2, padding=0, dilation=1, ceil_mode=False)
  (conv2): Conv2d(16, 32, kernel_size=(3, 3), stride=(1, 1), padding=(1, 1))
  (relu2): ReLU()
  (pool2): MaxPool2d(kernel_size=2, stride=2, padding=0, dilation=1, ceil_mode=False)
  (conv3): Conv2d(32, 64, kernel_size=(3, 3), stride=(1, 1), padding=(1, 1))
  (relu3): ReLU()
  (flatten): Flatten(start_dim=1, end_dim=-1)
  (fc1): Linear(in_features=3136, out_features=3, bias=True)
  (relu4): ReLU()
  (fc2): Linear(in_features=3, out_features=1, bias=True)
  (sigmoid): Sigmoid()
)","[0, 2]",conv2,0.9350000023841858
94,"PyTorchCNN(
  (conv1): Conv2d(1, 16, kernel_size=(3, 3), stride=(1, 1), padding=(1, 1))
  (relu1): ReLU()
  (pool1): MaxPool2d(kernel_size=2, stride=2, padding=0, dilation=1, ceil_mode=False)
  (conv2): Conv2d(16, 32, kernel_size=(3, 3), stride=(1, 1), padding=(1, 1))
  (relu2): ReLU()
  (pool2): MaxPool2d(kernel_size=2, stride=2, padding=0, dilation=1, ceil_mode=False)
  (conv3): Conv2d(32, 64, kernel_size=(3, 3), stride=(1, 1), padding=(1, 1))
  (relu3): ReLU()
  (flatten): Flatten(start_dim=1, end_dim=-1)
  (fc1): Linear(in_features=3136, out_features=3, bias=True)
  (relu4): ReLU()
  (fc2): Linear(in_features=3, out_features=1, bias=True)
  (sigmoid): Sigmoid()
)","[0, 2]",conv3,0.9120000004768372
95,"PyTorchCNN(
  (conv1): Conv2d(1, 16, kernel_size=(3, 3), stride=(1, 1), padding=(1, 1))
  (relu1): ReLU()
  (pool1): MaxPool2d(kernel_size=2, stride=2, padding=0, dilation=1, ceil_mode=False)
  (conv2): Conv2d(16, 32, kernel_size=(3, 3), stride=(1, 1), padding=(1, 1))
  (relu2): ReLU()
  (pool2): MaxPool2d(kernel_size=2, stride=2, padding=0, dilation=1, ceil_mode=False)
  (conv3): Conv2d(32, 64, kernel_size=(3, 3), stride=(1, 1), padding=(1, 1))
  (relu3): ReLU()
  (flatten): Flatten(start_dim=1, end_dim=-1)
  (fc1): Linear(in_features=3136, out_features=3, bias=True)
  (relu4): ReLU()
  (fc2): Linear(in_features=3, out_features=1, bias=True)
  (sigmoid): Sigmoid()
)","[0, 2]",fc1,0.6029999852180481
96,"PyTorchCNN(
  (conv1): Conv2d(1, 16, kernel_size=(3, 3), stride=(1, 1), padding=(1, 1))
  (relu1): ReLU()
  (pool1): MaxPool2d(kernel_size=2, stride=2, padding=0, dilation=1, ceil_mode=False)
  (conv2): Conv2d(16, 32, kernel_size=(3, 3), stride=(1, 1), padding=(1, 1))
  (relu2): ReLU()
  (pool2): MaxPool2d(kernel_size=2, stride=2, padding=0, dilation=1, ceil_mode=False)
  (conv3): Conv2d(32, 64, kernel_size=(3, 3), stride=(1, 1), padding=(1, 1))
  (relu3): ReLU()
  (flatten): Flatten(start_dim=1, end_dim=-1)
  (fc1): Linear(in_features=3136, out_features=3, bias=True)
  (relu4): ReLU()
  (fc2): Linear(in_features=3, out_features=1, bias=True)
  (sigmoid): Sigmoid()
)","[1, 2]",conv1,0.9120000004768372
97,"PyTorchCNN(
  (conv1): Conv2d(1, 16, kernel_size=(3, 3), stride=(1, 1), padding=(1, 1))
  (relu1): ReLU()
  (pool1): MaxPool2d(kernel_size=2, stride=2, padding=0, dilation=1, ceil_mode=False)
  (conv2): Conv2d(16, 32, kernel_size=(3, 3), stride=(1, 1), padding=(1, 1))
  (relu2): ReLU()
  (pool2): MaxPool2d(kernel_size=2, stride=2, padding=0, dilation=1, ceil_mode=False)
  (conv3): Conv2d(32, 64, kernel_size=(3, 3), stride=(1, 1), padding=(1, 1))
  (relu3): ReLU()
  (flatten): Flatten(start_dim=1, end_dim=-1)
  (fc1): Linear(in_features=3136, out_features=3, bias=True)
  (relu4): ReLU()
  (fc2): Linear(in_features=3, out_features=1, bias=True)
  (sigmoid): Sigmoid()
)","[1, 2]",conv2,0.9290000200271606
98,"PyTorchCNN(
  (conv1): Conv2d(1, 16, kernel_size=(3, 3), stride=(1, 1), padding=(1, 1))
  (relu1): ReLU()
  (pool1): MaxPool2d(kernel_size=2, stride=2, padding=0, dilation=1, ceil_mode=False)
  (conv2): Conv2d(16, 32, kernel_size=(3, 3), stride=(1, 1), padding=(1, 1))
  (relu2): ReLU()
  (pool2): MaxPool2d(kernel_size=2, stride=2, padding=0, dilation=1, ceil_mode=False)
  (conv3): Conv2d(32, 64, kernel_size=(3, 3), stride=(1, 1), padding=(1, 1))
  (relu3): ReLU()
  (flatten): Flatten(start_dim=1, end_dim=-1)
  (fc1): Linear(in_features=3136, out_features=3, bias=True)
  (relu4): ReLU()
  (fc2): Linear(in_features=3, out_features=1, bias=True)
  (sigmoid): Sigmoid()
)","[1, 2]",conv3,0.8579999804496765
99,"PyTorchCNN(
  (conv1): Conv2d(1, 16, kernel_size=(3, 3), stride=(1, 1), padding=(1, 1))
  (relu1): ReLU()
  (pool1): MaxPool2d(kernel_size=2, stride=2, padding=0, dilation=1, ceil_mode=False)
  (conv2): Conv2d(16, 32, kernel_size=(3, 3), stride=(1, 1), padding=(1, 1))
  (relu2): ReLU()
  (pool2): MaxPool2d(kernel_size=2, stride=2, padding=0, dilation=1, ceil_mode=False)
  (conv3): Conv2d(32, 64, kernel_size=(3, 3), stride=(1, 1), padding=(1, 1))
  (relu3): ReLU()
  (flatten): Flatten(start_dim=1, end_dim=-1)
  (fc1): Linear(in_features=3136, out_features=3, bias=True)
  (relu4): ReLU()
  (fc2): Linear(in_features=3, out_features=1, bias=True)
  (sigmoid): Sigmoid()
)","[1, 2]",fc1,0.7250000238418579
100,"PyTorchCNN(
  (conv1): Conv2d(1, 16, kernel_size=(3, 3), stride=(1, 1), padding=(1, 1))
  (relu1): ReLU()
  (pool1): MaxPool2d(kernel_size=2, stride=2, padding=0, dilation=1, ceil_mode=False)
  (conv2): Conv2d(16, 32, kernel_size=(3, 3), stride=(1, 1), padding=(1, 1))
  (relu2): ReLU()
  (pool2): MaxPool2d(kernel_size=2, stride=2, padding=0, dilation=1, ceil_mode=False)
  (conv3): Conv2d(32, 64, kernel_size=(3, 3), stride=(1, 1), padding=(1, 1))
  (relu3): ReLU()
  (flatten): Flatten(start_dim=1, end_dim=-1)
  (fc1): Linear(in_features=3136, out_features=3, bias=True)
  (relu4): ReLU()
  (fc2): Linear(in_features=3, out_features=1, bias=True)
  (sigmoid): Sigmoid()
)",[0],conv1,0.9169999957084656
101,"PyTorchCNN(
  (conv1): Conv2d(1, 16, kernel_size=(3, 3), stride=(1, 1), padding=(1, 1))
  (relu1): ReLU()
  (pool1): MaxPool2d(kernel_size=2, stride=2, padding=0, dilation=1, ceil_mode=False)
  (conv2): Conv2d(16, 32, kernel_size=(3, 3), stride=(1, 1), padding=(1, 1))
  (relu2): ReLU()
  (pool2): MaxPool2d(kernel_size=2, stride=2, padding=0, dilation=1, ceil_mode=False)
  (conv3): Conv2d(32, 64, kernel_size=(3, 3), stride=(1, 1), padding=(1, 1))
  (relu3): ReLU()
  (flatten): Flatten(start_dim=1, end_dim=-1)
  (fc1): Linear(in_features=3136, out_features=3, bias=True)
  (relu4): ReLU()
  (fc2): Linear(in_features=3, out_features=1, bias=True)
  (sigmoid): Sigmoid()
)",[0],conv2,0.9269999861717224
102,"PyTorchCNN(
  (conv1): Conv2d(1, 16, kernel_size=(3, 3), stride=(1, 1), padding=(1, 1))
  (relu1): ReLU()
  (pool1): MaxPool2d(kernel_size=2, stride=2, padding=0, dilation=1, ceil_mode=False)
  (conv2): Conv2d(16, 32, kernel_size=(3, 3), stride=(1, 1), padding=(1, 1))
  (relu2): ReLU()
  (pool2): MaxPool2d(kernel_size=2, stride=2, padding=0, dilation=1, ceil_mode=False)
  (conv3): Conv2d(32, 64, kernel_size=(3, 3), stride=(1, 1), padding=(1, 1))
  (relu3): ReLU()
  (flatten): Flatten(start_dim=1, end_dim=-1)
  (fc1): Linear(in_features=3136, out_features=3, bias=True)
  (relu4): ReLU()
  (fc2): Linear(in_features=3, out_features=1, bias=True)
  (sigmoid): Sigmoid()
)",[0],conv3,0.8960000276565552
103,"PyTorchCNN(
  (conv1): Conv2d(1, 16, kernel_size=(3, 3), stride=(1, 1), padding=(1, 1))
  (relu1): ReLU()
  (pool1): MaxPool2d(kernel_size=2, stride=2, padding=0, dilation=1, ceil_mode=False)
  (conv2): Conv2d(16, 32, kernel_size=(3, 3), stride=(1, 1), padding=(1, 1))
  (relu2): ReLU()
  (pool2): MaxPool2d(kernel_size=2, stride=2, padding=0, dilation=1, ceil_mode=False)
  (conv3): Conv2d(32, 64, kernel_size=(3, 3), stride=(1, 1), padding=(1, 1))
  (relu3): ReLU()
  (flatten): Flatten(start_dim=1, end_dim=-1)
  (fc1): Linear(in_features=3136, out_features=3, bias=True)
  (relu4): ReLU()
  (fc2): Linear(in_features=3, out_features=1, bias=True)
  (sigmoid): Sigmoid()
)",[0],fc1,0.7440000176429749
104,"PyTorchCNN(
  (conv1): Conv2d(1, 16, kernel_size=(3, 3), stride=(1, 1), padding=(1, 1))
  (relu1): ReLU()
  (pool1): MaxPool2d(kernel_size=2, stride=2, padding=0, dilation=1, ceil_mode=False)
  (conv2): Conv2d(16, 32, kernel_size=(3, 3), stride=(1, 1), padding=(1, 1))
  (relu2): ReLU()
  (pool2): MaxPool2d(kernel_size=2, stride=2, padding=0, dilation=1, ceil_mode=False)
  (conv3): Conv2d(32, 64, kernel_size=(3, 3), stride=(1, 1), padding=(1, 1))
  (relu3): ReLU()
  (flatten): Flatten(start_dim=1, end_dim=-1)
  (fc1): Linear(in_features=3136, out_features=3, bias=True)
  (relu4): ReLU()
  (fc2): Linear(in_features=3, out_features=1, bias=True)
  (sigmoid): Sigmoid()
)",[1],conv1,0.9610000252723694
105,"PyTorchCNN(
  (conv1): Conv2d(1, 16, kernel_size=(3, 3), stride=(1, 1), padding=(1, 1))
  (relu1): ReLU()
  (pool1): MaxPool2d(kernel_size=2, stride=2, padding=0, dilation=1, ceil_mode=False)
  (conv2): Conv2d(16, 32, kernel_size=(3, 3), stride=(1, 1), padding=(1, 1))
  (relu2): ReLU()
  (pool2): MaxPool2d(kernel_size=2, stride=2, padding=0, dilation=1, ceil_mode=False)
  (conv3): Conv2d(32, 64, kernel_size=(3, 3), stride=(1, 1), padding=(1, 1))
  (relu3): ReLU()
  (flatten): Flatten(start_dim=1, end_dim=-1)
  (fc1): Linear(in_features=3136, out_features=3, bias=True)
  (relu4): ReLU()
  (fc2): Linear(in_features=3, out_features=1, bias=True)
  (sigmoid): Sigmoid()
)",[1],conv2,0.9660000205039978
106,"PyTorchCNN(
  (conv1): Conv2d(1, 16, kernel_size=(3, 3), stride=(1, 1), padding=(1, 1))
  (relu1): ReLU()
  (pool1): MaxPool2d(kernel_size=2, stride=2, padding=0, dilation=1, ceil_mode=False)
  (conv2): Conv2d(16, 32, kernel_size=(3, 3), stride=(1, 1), padding=(1, 1))
  (relu2): ReLU()
  (pool2): MaxPool2d(kernel_size=2, stride=2, padding=0, dilation=1, ceil_mode=False)
  (conv3): Conv2d(32, 64, kernel_size=(3, 3), stride=(1, 1), padding=(1, 1))
  (relu3): ReLU()
  (flatten): Flatten(start_dim=1, end_dim=-1)
  (fc1): Linear(in_features=3136, out_features=3, bias=True)
  (relu4): ReLU()
  (fc2): Linear(in_features=3, out_features=1, bias=True)
  (sigmoid): Sigmoid()
)",[1],conv3,0.9399999976158142
107,"PyTorchCNN(
  (conv1): Conv2d(1, 16, kernel_size=(3, 3), stride=(1, 1), padding=(1, 1))
  (relu1): ReLU()
  (pool1): MaxPool2d(kernel_size=2, stride=2, padding=0, dilation=1, ceil_mode=False)
  (conv2): Conv2d(16, 32, kernel_size=(3, 3), stride=(1, 1), padding=(1, 1))
  (relu2): ReLU()
  (pool2): MaxPool2d(kernel_size=2, stride=2, padding=0, dilation=1, ceil_mode=False)
  (conv3): Conv2d(32, 64, kernel_size=(3, 3), stride=(1, 1), padding=(1, 1))
  (relu3): ReLU()
  (flatten): Flatten(start_dim=1, end_dim=-1)
  (fc1): Linear(in_features=3136, out_features=3, bias=True)
  (relu4): ReLU()
  (fc2): Linear(in_features=3, out_features=1, bias=True)
  (sigmoid): Sigmoid()
)",[1],fc1,0.718999981880188
108,"PyTorchCNN(
  (conv1): Conv2d(1, 16, kernel_size=(3, 3), stride=(1, 1), padding=(1, 1))
  (relu1): ReLU()
  (pool1): MaxPool2d(kernel_size=2, stride=2, padding=0, dilation=1, ceil_mode=False)
  (conv2): Conv2d(16, 32, kernel_size=(3, 3), stride=(1, 1), padding=(1, 1))
  (relu2): ReLU()
  (pool2): MaxPool2d(kernel_size=2, stride=2, padding=0, dilation=1, ceil_mode=False)
  (conv3): Conv2d(32, 64, kernel_size=(3, 3), stride=(1, 1), padding=(1, 1))
  (relu3): ReLU()
  (flatten): Flatten(start_dim=1, end_dim=-1)
  (fc1): Linear(in_features=3136, out_features=3, bias=True)
  (relu4): ReLU()
  (fc2): Linear(in_features=3, out_features=1, bias=True)
  (sigmoid): Sigmoid()
)",[2],conv1,0.9319999814033508
109,"PyTorchCNN(
  (conv1): Conv2d(1, 16, kernel_size=(3, 3), stride=(1, 1), padding=(1, 1))
  (relu1): ReLU()
  (pool1): MaxPool2d(kernel_size=2, stride=2, padding=0, dilation=1, ceil_mode=False)
  (conv2): Conv2d(16, 32, kernel_size=(3, 3), stride=(1, 1), padding=(1, 1))
  (relu2): ReLU()
  (pool2): MaxPool2d(kernel_size=2, stride=2, padding=0, dilation=1, ceil_mode=False)
  (conv3): Conv2d(32, 64, kernel_size=(3, 3), stride=(1, 1), padding=(1, 1))
  (relu3): ReLU()
  (flatten): Flatten(start_dim=1, end_dim=-1)
  (fc1): Linear(in_features=3136, out_features=3, bias=True)
  (relu4): ReLU()
  (fc2): Linear(in_features=3, out_features=1, bias=True)
  (sigmoid): Sigmoid()
)",[2],conv2,0.9340000152587891
110,"PyTorchCNN(
  (conv1): Conv2d(1, 16, kernel_size=(3, 3), stride=(1, 1), padding=(1, 1))
  (relu1): ReLU()
  (pool1): MaxPool2d(kernel_size=2, stride=2, padding=0, dilation=1, ceil_mode=False)
  (conv2): Conv2d(16, 32, kernel_size=(3, 3), stride=(1, 1), padding=(1, 1))
  (relu2): ReLU()
  (pool2): MaxPool2d(kernel_size=2, stride=2, padding=0, dilation=1, ceil_mode=False)
  (conv3): Conv2d(32, 64, kernel_size=(3, 3), stride=(1, 1), padding=(1, 1))
  (relu3): ReLU()
  (flatten): Flatten(start_dim=1, end_dim=-1)
  (fc1): Linear(in_features=3136, out_features=3, bias=True)
  (relu4): ReLU()
  (fc2): Linear(in_features=3, out_features=1, bias=True)
  (sigmoid): Sigmoid()
)",[2],conv3,0.8949999809265137
111,"PyTorchCNN(
  (conv1): Conv2d(1, 16, kernel_size=(3, 3), stride=(1, 1), padding=(1, 1))
  (relu1): ReLU()
  (pool1): MaxPool2d(kernel_size=2, stride=2, padding=0, dilation=1, ceil_mode=False)
  (conv2): Conv2d(16, 32, kernel_size=(3, 3), stride=(1, 1), padding=(1, 1))
  (relu2): ReLU()
  (pool2): MaxPool2d(kernel_size=2, stride=2, padding=0, dilation=1, ceil_mode=False)
  (conv3): Conv2d(32, 64, kernel_size=(3, 3), stride=(1, 1), padding=(1, 1))
  (relu3): ReLU()
  (flatten): Flatten(start_dim=1, end_dim=-1)
  (fc1): Linear(in_features=3136, out_features=3, bias=True)
  (relu4): ReLU()
  (fc2): Linear(in_features=3, out_features=1, bias=True)
  (sigmoid): Sigmoid()
)",[2],fc1,0.7260000109672546
112,"PyTorchCNN(
  (conv1): Conv2d(1, 16, kernel_size=(3, 3), stride=(1, 1), padding=(1, 1))
  (relu1): ReLU()
  (pool1): MaxPool2d(kernel_size=2, stride=2, padding=0, dilation=1, ceil_mode=False)
  (conv2): Conv2d(16, 32, kernel_size=(3, 3), stride=(1, 1), padding=(1, 1))
  (relu2): ReLU()
  (pool2): MaxPool2d(kernel_size=2, stride=2, padding=0, dilation=1, ceil_mode=False)
  (conv3): Conv2d(32, 64, kernel_size=(3, 3), stride=(1, 1), padding=(1, 1))
  (relu3): ReLU()
  (flatten): Flatten(start_dim=1, end_dim=-1)
  (fc1): Linear(in_features=3136, out_features=3, bias=True)
  (relu4): ReLU()
  (fc2): Linear(in_features=3, out_features=1, bias=True)
  (sigmoid): Sigmoid()
)","[0, 1, 2]",conv1,0.9150000214576721
113,"PyTorchCNN(
  (conv1): Conv2d(1, 16, kernel_size=(3, 3), stride=(1, 1), padding=(1, 1))
  (relu1): ReLU()
  (pool1): MaxPool2d(kernel_size=2, stride=2, padding=0, dilation=1, ceil_mode=False)
  (conv2): Conv2d(16, 32, kernel_size=(3, 3), stride=(1, 1), padding=(1, 1))
  (relu2): ReLU()
  (pool2): MaxPool2d(kernel_size=2, stride=2, padding=0, dilation=1, ceil_mode=False)
  (conv3): Conv2d(32, 64, kernel_size=(3, 3), stride=(1, 1), padding=(1, 1))
  (relu3): ReLU()
  (flatten): Flatten(start_dim=1, end_dim=-1)
  (fc1): Linear(in_features=3136, out_features=3, bias=True)
  (relu4): ReLU()
  (fc2): Linear(in_features=3, out_features=1, bias=True)
  (sigmoid): Sigmoid()
)","[0, 1, 2]",conv2,0.9610000252723694
114,"PyTorchCNN(
  (conv1): Conv2d(1, 16, kernel_size=(3, 3), stride=(1, 1), padding=(1, 1))
  (relu1): ReLU()
  (pool1): MaxPool2d(kernel_size=2, stride=2, padding=0, dilation=1, ceil_mode=False)
  (conv2): Conv2d(16, 32, kernel_size=(3, 3), stride=(1, 1), padding=(1, 1))
  (relu2): ReLU()
  (pool2): MaxPool2d(kernel_size=2, stride=2, padding=0, dilation=1, ceil_mode=False)
  (conv3): Conv2d(32, 64, kernel_size=(3, 3), stride=(1, 1), padding=(1, 1))
  (relu3): ReLU()
  (flatten): Flatten(start_dim=1, end_dim=-1)
  (fc1): Linear(in_features=3136, out_features=3, bias=True)
  (relu4): ReLU()
  (fc2): Linear(in_features=3, out_features=1, bias=True)
  (sigmoid): Sigmoid()
)","[0, 1, 2]",conv3,0.9570000171661377
115,"PyTorchCNN(
  (conv1): Conv2d(1, 16, kernel_size=(3, 3), stride=(1, 1), padding=(1, 1))
  (relu1): ReLU()
  (pool1): MaxPool2d(kernel_size=2, stride=2, padding=0, dilation=1, ceil_mode=False)
  (conv2): Conv2d(16, 32, kernel_size=(3, 3), stride=(1, 1), padding=(1, 1))
  (relu2): ReLU()
  (pool2): MaxPool2d(kernel_size=2, stride=2, padding=0, dilation=1, ceil_mode=False)
  (conv3): Conv2d(32, 64, kernel_size=(3, 3), stride=(1, 1), padding=(1, 1))
  (relu3): ReLU()
  (flatten): Flatten(start_dim=1, end_dim=-1)
  (fc1): Linear(in_features=3136, out_features=3, bias=True)
  (relu4): ReLU()
  (fc2): Linear(in_features=3, out_features=1, bias=True)
  (sigmoid): Sigmoid()
)","[0, 1, 2]",fc1,0.5239999890327454
116,"PyTorchCNN(
  (conv1): Conv2d(1, 16, kernel_size=(3, 3), stride=(1, 1), padding=(1, 1))
  (relu1): ReLU()
  (pool1): MaxPool2d(kernel_size=2, stride=2, padding=0, dilation=1, ceil_mode=False)
  (conv2): Conv2d(16, 32, kernel_size=(3, 3), stride=(1, 1), padding=(1, 1))
  (relu2): ReLU()
  (pool2): MaxPool2d(kernel_size=2, stride=2, padding=0, dilation=1, ceil_mode=False)
  (conv3): Conv2d(32, 64, kernel_size=(3, 3), stride=(1, 1), padding=(1, 1))
  (relu3): ReLU()
  (flatten): Flatten(start_dim=1, end_dim=-1)
  (fc1): Linear(in_features=3136, out_features=3, bias=True)
  (relu4): ReLU()
  (fc2): Linear(in_features=3, out_features=1, bias=True)
  (sigmoid): Sigmoid()
)","[0, 1]",conv1,0.9259999990463257
117,"PyTorchCNN(
  (conv1): Conv2d(1, 16, kernel_size=(3, 3), stride=(1, 1), padding=(1, 1))
  (relu1): ReLU()
  (pool1): MaxPool2d(kernel_size=2, stride=2, padding=0, dilation=1, ceil_mode=False)
  (conv2): Conv2d(16, 32, kernel_size=(3, 3), stride=(1, 1), padding=(1, 1))
  (relu2): ReLU()
  (pool2): MaxPool2d(kernel_size=2, stride=2, padding=0, dilation=1, ceil_mode=False)
  (conv3): Conv2d(32, 64, kernel_size=(3, 3), stride=(1, 1), padding=(1, 1))
  (relu3): ReLU()
  (flatten): Flatten(start_dim=1, end_dim=-1)
  (fc1): Linear(in_features=3136, out_features=3, bias=True)
  (relu4): ReLU()
  (fc2): Linear(in_features=3, out_features=1, bias=True)
  (sigmoid): Sigmoid()
)","[0, 1]",conv2,0.9120000004768372
118,"PyTorchCNN(
  (conv1): Conv2d(1, 16, kernel_size=(3, 3), stride=(1, 1), padding=(1, 1))
  (relu1): ReLU()
  (pool1): MaxPool2d(kernel_size=2, stride=2, padding=0, dilation=1, ceil_mode=False)
  (conv2): Conv2d(16, 32, kernel_size=(3, 3), stride=(1, 1), padding=(1, 1))
  (relu2): ReLU()
  (pool2): MaxPool2d(kernel_size=2, stride=2, padding=0, dilation=1, ceil_mode=False)
  (conv3): Conv2d(32, 64, kernel_size=(3, 3), stride=(1, 1), padding=(1, 1))
  (relu3): ReLU()
  (flatten): Flatten(start_dim=1, end_dim=-1)
  (fc1): Linear(in_features=3136, out_features=3, bias=True)
  (relu4): ReLU()
  (fc2): Linear(in_features=3, out_features=1, bias=True)
  (sigmoid): Sigmoid()
)","[0, 1]",conv3,0.8840000033378601
119,"PyTorchCNN(
  (conv1): Conv2d(1, 16, kernel_size=(3, 3), stride=(1, 1), padding=(1, 1))
  (relu1): ReLU()
  (pool1): MaxPool2d(kernel_size=2, stride=2, padding=0, dilation=1, ceil_mode=False)
  (conv2): Conv2d(16, 32, kernel_size=(3, 3), stride=(1, 1), padding=(1, 1))
  (relu2): ReLU()
  (pool2): MaxPool2d(kernel_size=2, stride=2, padding=0, dilation=1, ceil_mode=False)
  (conv3): Conv2d(32, 64, kernel_size=(3, 3), stride=(1, 1), padding=(1, 1))
  (relu3): ReLU()
  (flatten): Flatten(start_dim=1, end_dim=-1)
  (fc1): Linear(in_features=3136, out_features=3, bias=True)
  (relu4): ReLU()
  (fc2): Linear(in_features=3, out_features=1, bias=True)
  (sigmoid): Sigmoid()
)","[0, 1]",fc1,0.7739999890327454
120,"PyTorchCNN(
  (conv1): Conv2d(1, 16, kernel_size=(3, 3), stride=(1, 1), padding=(1, 1))
  (relu1): ReLU()
  (pool1): MaxPool2d(kernel_size=2, stride=2, padding=0, dilation=1, ceil_mode=False)
  (conv2): Conv2d(16, 32, kernel_size=(3, 3), stride=(1, 1), padding=(1, 1))
  (relu2): ReLU()
  (pool2): MaxPool2d(kernel_size=2, stride=2, padding=0, dilation=1, ceil_mode=False)
  (conv3): Conv2d(32, 64, kernel_size=(3, 3), stride=(1, 1), padding=(1, 1))
  (relu3): ReLU()
  (flatten): Flatten(start_dim=1, end_dim=-1)
  (fc1): Linear(in_features=3136, out_features=3, bias=True)
  (relu4): ReLU()
  (fc2): Linear(in_features=3, out_features=1, bias=True)
  (sigmoid): Sigmoid()
)","[0, 2]",conv1,0.9480000138282776
121,"PyTorchCNN(
  (conv1): Conv2d(1, 16, kernel_size=(3, 3), stride=(1, 1), padding=(1, 1))
  (relu1): ReLU()
  (pool1): MaxPool2d(kernel_size=2, stride=2, padding=0, dilation=1, ceil_mode=False)
  (conv2): Conv2d(16, 32, kernel_size=(3, 3), stride=(1, 1), padding=(1, 1))
  (relu2): ReLU()
  (pool2): MaxPool2d(kernel_size=2, stride=2, padding=0, dilation=1, ceil_mode=False)
  (conv3): Conv2d(32, 64, kernel_size=(3, 3), stride=(1, 1), padding=(1, 1))
  (relu3): ReLU()
  (flatten): Flatten(start_dim=1, end_dim=-1)
  (fc1): Linear(in_features=3136, out_features=3, bias=True)
  (relu4): ReLU()
  (fc2): Linear(in_features=3, out_features=1, bias=True)
  (sigmoid): Sigmoid()
)","[0, 2]",conv2,0.9449999928474426
122,"PyTorchCNN(
  (conv1): Conv2d(1, 16, kernel_size=(3, 3), stride=(1, 1), padding=(1, 1))
  (relu1): ReLU()
  (pool1): MaxPool2d(kernel_size=2, stride=2, padding=0, dilation=1, ceil_mode=False)
  (conv2): Conv2d(16, 32, kernel_size=(3, 3), stride=(1, 1), padding=(1, 1))
  (relu2): ReLU()
  (pool2): MaxPool2d(kernel_size=2, stride=2, padding=0, dilation=1, ceil_mode=False)
  (conv3): Conv2d(32, 64, kernel_size=(3, 3), stride=(1, 1), padding=(1, 1))
  (relu3): ReLU()
  (flatten): Flatten(start_dim=1, end_dim=-1)
  (fc1): Linear(in_features=3136, out_features=3, bias=True)
  (relu4): ReLU()
  (fc2): Linear(in_features=3, out_features=1, bias=True)
  (sigmoid): Sigmoid()
)","[0, 2]",conv3,0.9290000200271606
123,"PyTorchCNN(
  (conv1): Conv2d(1, 16, kernel_size=(3, 3), stride=(1, 1), padding=(1, 1))
  (relu1): ReLU()
  (pool1): MaxPool2d(kernel_size=2, stride=2, padding=0, dilation=1, ceil_mode=False)
  (conv2): Conv2d(16, 32, kernel_size=(3, 3), stride=(1, 1), padding=(1, 1))
  (relu2): ReLU()
  (pool2): MaxPool2d(kernel_size=2, stride=2, padding=0, dilation=1, ceil_mode=False)
  (conv3): Conv2d(32, 64, kernel_size=(3, 3), stride=(1, 1), padding=(1, 1))
  (relu3): ReLU()
  (flatten): Flatten(start_dim=1, end_dim=-1)
  (fc1): Linear(in_features=3136, out_features=3, bias=True)
  (relu4): ReLU()
  (fc2): Linear(in_features=3, out_features=1, bias=True)
  (sigmoid): Sigmoid()
)","[0, 2]",fc1,0.6729999780654907
124,"PyTorchCNN(
  (conv1): Conv2d(1, 16, kernel_size=(3, 3), stride=(1, 1), padding=(1, 1))
  (relu1): ReLU()
  (pool1): MaxPool2d(kernel_size=2, stride=2, padding=0, dilation=1, ceil_mode=False)
  (conv2): Conv2d(16, 32, kernel_size=(3, 3), stride=(1, 1), padding=(1, 1))
  (relu2): ReLU()
  (pool2): MaxPool2d(kernel_size=2, stride=2, padding=0, dilation=1, ceil_mode=False)
  (conv3): Conv2d(32, 64, kernel_size=(3, 3), stride=(1, 1), padding=(1, 1))
  (relu3): ReLU()
  (flatten): Flatten(start_dim=1, end_dim=-1)
  (fc1): Linear(in_features=3136, out_features=3, bias=True)
  (relu4): ReLU()
  (fc2): Linear(in_features=3, out_features=1, bias=True)
  (sigmoid): Sigmoid()
)","[1, 2]",conv1,0.921999990940094
125,"PyTorchCNN(
  (conv1): Conv2d(1, 16, kernel_size=(3, 3), stride=(1, 1), padding=(1, 1))
  (relu1): ReLU()
  (pool1): MaxPool2d(kernel_size=2, stride=2, padding=0, dilation=1, ceil_mode=False)
  (conv2): Conv2d(16, 32, kernel_size=(3, 3), stride=(1, 1), padding=(1, 1))
  (relu2): ReLU()
  (pool2): MaxPool2d(kernel_size=2, stride=2, padding=0, dilation=1, ceil_mode=False)
  (conv3): Conv2d(32, 64, kernel_size=(3, 3), stride=(1, 1), padding=(1, 1))
  (relu3): ReLU()
  (flatten): Flatten(start_dim=1, end_dim=-1)
  (fc1): Linear(in_features=3136, out_features=3, bias=True)
  (relu4): ReLU()
  (fc2): Linear(in_features=3, out_features=1, bias=True)
  (sigmoid): Sigmoid()
)","[1, 2]",conv2,0.9070000052452087
126,"PyTorchCNN(
  (conv1): Conv2d(1, 16, kernel_size=(3, 3), stride=(1, 1), padding=(1, 1))
  (relu1): ReLU()
  (pool1): MaxPool2d(kernel_size=2, stride=2, padding=0, dilation=1, ceil_mode=False)
  (conv2): Conv2d(16, 32, kernel_size=(3, 3), stride=(1, 1), padding=(1, 1))
  (relu2): ReLU()
  (pool2): MaxPool2d(kernel_size=2, stride=2, padding=0, dilation=1, ceil_mode=False)
  (conv3): Conv2d(32, 64, kernel_size=(3, 3), stride=(1, 1), padding=(1, 1))
  (relu3): ReLU()
  (flatten): Flatten(start_dim=1, end_dim=-1)
  (fc1): Linear(in_features=3136, out_features=3, bias=True)
  (relu4): ReLU()
  (fc2): Linear(in_features=3, out_features=1, bias=True)
  (sigmoid): Sigmoid()
)","[1, 2]",conv3,0.9129999876022339
127,"PyTorchCNN(
  (conv1): Conv2d(1, 16, kernel_size=(3, 3), stride=(1, 1), padding=(1, 1))
  (relu1): ReLU()
  (pool1): MaxPool2d(kernel_size=2, stride=2, padding=0, dilation=1, ceil_mode=False)
  (conv2): Conv2d(16, 32, kernel_size=(3, 3), stride=(1, 1), padding=(1, 1))
  (relu2): ReLU()
  (pool2): MaxPool2d(kernel_size=2, stride=2, padding=0, dilation=1, ceil_mode=False)
  (conv3): Conv2d(32, 64, kernel_size=(3, 3), stride=(1, 1), padding=(1, 1))
  (relu3): ReLU()
  (flatten): Flatten(start_dim=1, end_dim=-1)
  (fc1): Linear(in_features=3136, out_features=3, bias=True)
  (relu4): ReLU()
  (fc2): Linear(in_features=3, out_features=1, bias=True)
  (sigmoid): Sigmoid()
)","[1, 2]",fc1,0.8040000200271606
128,"PyTorchCNN(
  (conv1): Conv2d(1, 16, kernel_size=(3, 3), stride=(1, 1), padding=(1, 1))
  (relu1): ReLU()
  (pool1): MaxPool2d(kernel_size=2, stride=2, padding=0, dilation=1, ceil_mode=False)
  (conv2): Conv2d(16, 32, kernel_size=(3, 3), stride=(1, 1), padding=(1, 1))
  (relu2): ReLU()
  (pool2): MaxPool2d(kernel_size=2, stride=2, padding=0, dilation=1, ceil_mode=False)
  (conv3): Conv2d(32, 64, kernel_size=(3, 3), stride=(1, 1), padding=(1, 1))
  (relu3): ReLU()
  (flatten): Flatten(start_dim=1, end_dim=-1)
  (fc1): Linear(in_features=3136, out_features=3, bias=True)
  (relu4): ReLU()
  (fc2): Linear(in_features=3, out_features=1, bias=True)
  (sigmoid): Sigmoid()
)",[0],conv1,0.9309999942779541
129,"PyTorchCNN(
  (conv1): Conv2d(1, 16, kernel_size=(3, 3), stride=(1, 1), padding=(1, 1))
  (relu1): ReLU()
  (pool1): MaxPool2d(kernel_size=2, stride=2, padding=0, dilation=1, ceil_mode=False)
  (conv2): Conv2d(16, 32, kernel_size=(3, 3), stride=(1, 1), padding=(1, 1))
  (relu2): ReLU()
  (pool2): MaxPool2d(kernel_size=2, stride=2, padding=0, dilation=1, ceil_mode=False)
  (conv3): Conv2d(32, 64, kernel_size=(3, 3), stride=(1, 1), padding=(1, 1))
  (relu3): ReLU()
  (flatten): Flatten(start_dim=1, end_dim=-1)
  (fc1): Linear(in_features=3136, out_features=3, bias=True)
  (relu4): ReLU()
  (fc2): Linear(in_features=3, out_features=1, bias=True)
  (sigmoid): Sigmoid()
)",[0],conv2,0.9399999976158142
130,"PyTorchCNN(
  (conv1): Conv2d(1, 16, kernel_size=(3, 3), stride=(1, 1), padding=(1, 1))
  (relu1): ReLU()
  (pool1): MaxPool2d(kernel_size=2, stride=2, padding=0, dilation=1, ceil_mode=False)
  (conv2): Conv2d(16, 32, kernel_size=(3, 3), stride=(1, 1), padding=(1, 1))
  (relu2): ReLU()
  (pool2): MaxPool2d(kernel_size=2, stride=2, padding=0, dilation=1, ceil_mode=False)
  (conv3): Conv2d(32, 64, kernel_size=(3, 3), stride=(1, 1), padding=(1, 1))
  (relu3): ReLU()
  (flatten): Flatten(start_dim=1, end_dim=-1)
  (fc1): Linear(in_features=3136, out_features=3, bias=True)
  (relu4): ReLU()
  (fc2): Linear(in_features=3, out_features=1, bias=True)
  (sigmoid): Sigmoid()
)",[0],conv3,0.9129999876022339
131,"PyTorchCNN(
  (conv1): Conv2d(1, 16, kernel_size=(3, 3), stride=(1, 1), padding=(1, 1))
  (relu1): ReLU()
  (pool1): MaxPool2d(kernel_size=2, stride=2, padding=0, dilation=1, ceil_mode=False)
  (conv2): Conv2d(16, 32, kernel_size=(3, 3), stride=(1, 1), padding=(1, 1))
  (relu2): ReLU()
  (pool2): MaxPool2d(kernel_size=2, stride=2, padding=0, dilation=1, ceil_mode=False)
  (conv3): Conv2d(32, 64, kernel_size=(3, 3), stride=(1, 1), padding=(1, 1))
  (relu3): ReLU()
  (flatten): Flatten(start_dim=1, end_dim=-1)
  (fc1): Linear(in_features=3136, out_features=3, bias=True)
  (relu4): ReLU()
  (fc2): Linear(in_features=3, out_features=1, bias=True)
  (sigmoid): Sigmoid()
)",[0],fc1,0.8410000205039978
132,"PyTorchCNN(
  (conv1): Conv2d(1, 16, kernel_size=(3, 3), stride=(1, 1), padding=(1, 1))
  (relu1): ReLU()
  (pool1): MaxPool2d(kernel_size=2, stride=2, padding=0, dilation=1, ceil_mode=False)
  (conv2): Conv2d(16, 32, kernel_size=(3, 3), stride=(1, 1), padding=(1, 1))
  (relu2): ReLU()
  (pool2): MaxPool2d(kernel_size=2, stride=2, padding=0, dilation=1, ceil_mode=False)
  (conv3): Conv2d(32, 64, kernel_size=(3, 3), stride=(1, 1), padding=(1, 1))
  (relu3): ReLU()
  (flatten): Flatten(start_dim=1, end_dim=-1)
  (fc1): Linear(in_features=3136, out_features=3, bias=True)
  (relu4): ReLU()
  (fc2): Linear(in_features=3, out_features=1, bias=True)
  (sigmoid): Sigmoid()
)",[1],conv1,0.9679999947547913
133,"PyTorchCNN(
  (conv1): Conv2d(1, 16, kernel_size=(3, 3), stride=(1, 1), padding=(1, 1))
  (relu1): ReLU()
  (pool1): MaxPool2d(kernel_size=2, stride=2, padding=0, dilation=1, ceil_mode=False)
  (conv2): Conv2d(16, 32, kernel_size=(3, 3), stride=(1, 1), padding=(1, 1))
  (relu2): ReLU()
  (pool2): MaxPool2d(kernel_size=2, stride=2, padding=0, dilation=1, ceil_mode=False)
  (conv3): Conv2d(32, 64, kernel_size=(3, 3), stride=(1, 1), padding=(1, 1))
  (relu3): ReLU()
  (flatten): Flatten(start_dim=1, end_dim=-1)
  (fc1): Linear(in_features=3136, out_features=3, bias=True)
  (relu4): ReLU()
  (fc2): Linear(in_features=3, out_features=1, bias=True)
  (sigmoid): Sigmoid()
)",[1],conv2,0.9580000042915344
134,"PyTorchCNN(
  (conv1): Conv2d(1, 16, kernel_size=(3, 3), stride=(1, 1), padding=(1, 1))
  (relu1): ReLU()
  (pool1): MaxPool2d(kernel_size=2, stride=2, padding=0, dilation=1, ceil_mode=False)
  (conv2): Conv2d(16, 32, kernel_size=(3, 3), stride=(1, 1), padding=(1, 1))
  (relu2): ReLU()
  (pool2): MaxPool2d(kernel_size=2, stride=2, padding=0, dilation=1, ceil_mode=False)
  (conv3): Conv2d(32, 64, kernel_size=(3, 3), stride=(1, 1), padding=(1, 1))
  (relu3): ReLU()
  (flatten): Flatten(start_dim=1, end_dim=-1)
  (fc1): Linear(in_features=3136, out_features=3, bias=True)
  (relu4): ReLU()
  (fc2): Linear(in_features=3, out_features=1, bias=True)
  (sigmoid): Sigmoid()
)",[1],conv3,0.9409999847412109
135,"PyTorchCNN(
  (conv1): Conv2d(1, 16, kernel_size=(3, 3), stride=(1, 1), padding=(1, 1))
  (relu1): ReLU()
  (pool1): MaxPool2d(kernel_size=2, stride=2, padding=0, dilation=1, ceil_mode=False)
  (conv2): Conv2d(16, 32, kernel_size=(3, 3), stride=(1, 1), padding=(1, 1))
  (relu2): ReLU()
  (pool2): MaxPool2d(kernel_size=2, stride=2, padding=0, dilation=1, ceil_mode=False)
  (conv3): Conv2d(32, 64, kernel_size=(3, 3), stride=(1, 1), padding=(1, 1))
  (relu3): ReLU()
  (flatten): Flatten(start_dim=1, end_dim=-1)
  (fc1): Linear(in_features=3136, out_features=3, bias=True)
  (relu4): ReLU()
  (fc2): Linear(in_features=3, out_features=1, bias=True)
  (sigmoid): Sigmoid()
)",[1],fc1,0.7039999961853027
136,"PyTorchCNN(
  (conv1): Conv2d(1, 16, kernel_size=(3, 3), stride=(1, 1), padding=(1, 1))
  (relu1): ReLU()
  (pool1): MaxPool2d(kernel_size=2, stride=2, padding=0, dilation=1, ceil_mode=False)
  (conv2): Conv2d(16, 32, kernel_size=(3, 3), stride=(1, 1), padding=(1, 1))
  (relu2): ReLU()
  (pool2): MaxPool2d(kernel_size=2, stride=2, padding=0, dilation=1, ceil_mode=False)
  (conv3): Conv2d(32, 64, kernel_size=(3, 3), stride=(1, 1), padding=(1, 1))
  (relu3): ReLU()
  (flatten): Flatten(start_dim=1, end_dim=-1)
  (fc1): Linear(in_features=3136, out_features=3, bias=True)
  (relu4): ReLU()
  (fc2): Linear(in_features=3, out_features=1, bias=True)
  (sigmoid): Sigmoid()
)",[2],conv1,0.925000011920929
137,"PyTorchCNN(
  (conv1): Conv2d(1, 16, kernel_size=(3, 3), stride=(1, 1), padding=(1, 1))
  (relu1): ReLU()
  (pool1): MaxPool2d(kernel_size=2, stride=2, padding=0, dilation=1, ceil_mode=False)
  (conv2): Conv2d(16, 32, kernel_size=(3, 3), stride=(1, 1), padding=(1, 1))
  (relu2): ReLU()
  (pool2): MaxPool2d(kernel_size=2, stride=2, padding=0, dilation=1, ceil_mode=False)
  (conv3): Conv2d(32, 64, kernel_size=(3, 3), stride=(1, 1), padding=(1, 1))
  (relu3): ReLU()
  (flatten): Flatten(start_dim=1, end_dim=-1)
  (fc1): Linear(in_features=3136, out_features=3, bias=True)
  (relu4): ReLU()
  (fc2): Linear(in_features=3, out_features=1, bias=True)
  (sigmoid): Sigmoid()
)",[2],conv2,0.9350000023841858
138,"PyTorchCNN(
  (conv1): Conv2d(1, 16, kernel_size=(3, 3), stride=(1, 1), padding=(1, 1))
  (relu1): ReLU()
  (pool1): MaxPool2d(kernel_size=2, stride=2, padding=0, dilation=1, ceil_mode=False)
  (conv2): Conv2d(16, 32, kernel_size=(3, 3), stride=(1, 1), padding=(1, 1))
  (relu2): ReLU()
  (pool2): MaxPool2d(kernel_size=2, stride=2, padding=0, dilation=1, ceil_mode=False)
  (conv3): Conv2d(32, 64, kernel_size=(3, 3), stride=(1, 1), padding=(1, 1))
  (relu3): ReLU()
  (flatten): Flatten(start_dim=1, end_dim=-1)
  (fc1): Linear(in_features=3136, out_features=3, bias=True)
  (relu4): ReLU()
  (fc2): Linear(in_features=3, out_features=1, bias=True)
  (sigmoid): Sigmoid()
)",[2],conv3,0.902999997138977
139,"PyTorchCNN(
  (conv1): Conv2d(1, 16, kernel_size=(3, 3), stride=(1, 1), padding=(1, 1))
  (relu1): ReLU()
  (pool1): MaxPool2d(kernel_size=2, stride=2, padding=0, dilation=1, ceil_mode=False)
  (conv2): Conv2d(16, 32, kernel_size=(3, 3), stride=(1, 1), padding=(1, 1))
  (relu2): ReLU()
  (pool2): MaxPool2d(kernel_size=2, stride=2, padding=0, dilation=1, ceil_mode=False)
  (conv3): Conv2d(32, 64, kernel_size=(3, 3), stride=(1, 1), padding=(1, 1))
  (relu3): ReLU()
  (flatten): Flatten(start_dim=1, end_dim=-1)
  (fc1): Linear(in_features=3136, out_features=3, bias=True)
  (relu4): ReLU()
  (fc2): Linear(in_features=3, out_features=1, bias=True)
  (sigmoid): Sigmoid()
)",[2],fc1,0.6880000233650208
140,"PyTorchCNN(
  (conv1): Conv2d(1, 16, kernel_size=(3, 3), stride=(1, 1), padding=(1, 1))
  (relu1): ReLU()
  (pool1): MaxPool2d(kernel_size=2, stride=2, padding=0, dilation=1, ceil_mode=False)
  (conv2): Conv2d(16, 32, kernel_size=(3, 3), stride=(1, 1), padding=(1, 1))
  (relu2): ReLU()
  (pool2): MaxPool2d(kernel_size=2, stride=2, padding=0, dilation=1, ceil_mode=False)
  (conv3): Conv2d(32, 64, kernel_size=(3, 3), stride=(1, 1), padding=(1, 1))
  (relu3): ReLU()
  (flatten): Flatten(start_dim=1, end_dim=-1)
  (fc1): Linear(in_features=3136, out_features=3, bias=True)
  (relu4): ReLU()
  (fc2): Linear(in_features=3, out_features=1, bias=True)
  (sigmoid): Sigmoid()
)","[0, 1, 2]",conv1,0.9359999895095825
141,"PyTorchCNN(
  (conv1): Conv2d(1, 16, kernel_size=(3, 3), stride=(1, 1), padding=(1, 1))
  (relu1): ReLU()
  (pool1): MaxPool2d(kernel_size=2, stride=2, padding=0, dilation=1, ceil_mode=False)
  (conv2): Conv2d(16, 32, kernel_size=(3, 3), stride=(1, 1), padding=(1, 1))
  (relu2): ReLU()
  (pool2): MaxPool2d(kernel_size=2, stride=2, padding=0, dilation=1, ceil_mode=False)
  (conv3): Conv2d(32, 64, kernel_size=(3, 3), stride=(1, 1), padding=(1, 1))
  (relu3): ReLU()
  (flatten): Flatten(start_dim=1, end_dim=-1)
  (fc1): Linear(in_features=3136, out_features=3, bias=True)
  (relu4): ReLU()
  (fc2): Linear(in_features=3, out_features=1, bias=True)
  (sigmoid): Sigmoid()
)","[0, 1, 2]",conv2,0.902999997138977
142,"PyTorchCNN(
  (conv1): Conv2d(1, 16, kernel_size=(3, 3), stride=(1, 1), padding=(1, 1))
  (relu1): ReLU()
  (pool1): MaxPool2d(kernel_size=2, stride=2, padding=0, dilation=1, ceil_mode=False)
  (conv2): Conv2d(16, 32, kernel_size=(3, 3), stride=(1, 1), padding=(1, 1))
  (relu2): ReLU()
  (pool2): MaxPool2d(kernel_size=2, stride=2, padding=0, dilation=1, ceil_mode=False)
  (conv3): Conv2d(32, 64, kernel_size=(3, 3), stride=(1, 1), padding=(1, 1))
  (relu3): ReLU()
  (flatten): Flatten(start_dim=1, end_dim=-1)
  (fc1): Linear(in_features=3136, out_features=3, bias=True)
  (relu4): ReLU()
  (fc2): Linear(in_features=3, out_features=1, bias=True)
  (sigmoid): Sigmoid()
)","[0, 1, 2]",conv3,0.9319999814033508
143,"PyTorchCNN(
  (conv1): Conv2d(1, 16, kernel_size=(3, 3), stride=(1, 1), padding=(1, 1))
  (relu1): ReLU()
  (pool1): MaxPool2d(kernel_size=2, stride=2, padding=0, dilation=1, ceil_mode=False)
  (conv2): Conv2d(16, 32, kernel_size=(3, 3), stride=(1, 1), padding=(1, 1))
  (relu2): ReLU()
  (pool2): MaxPool2d(kernel_size=2, stride=2, padding=0, dilation=1, ceil_mode=False)
  (conv3): Conv2d(32, 64, kernel_size=(3, 3), stride=(1, 1), padding=(1, 1))
  (relu3): ReLU()
  (flatten): Flatten(start_dim=1, end_dim=-1)
  (fc1): Linear(in_features=3136, out_features=3, bias=True)
  (relu4): ReLU()
  (fc2): Linear(in_features=3, out_features=1, bias=True)
  (sigmoid): Sigmoid()
)","[0, 1, 2]",fc1,0.5529999732971191
144,"PyTorchCNN(
  (conv1): Conv2d(1, 16, kernel_size=(3, 3), stride=(1, 1), padding=(1, 1))
  (relu1): ReLU()
  (pool1): MaxPool2d(kernel_size=2, stride=2, padding=0, dilation=1, ceil_mode=False)
  (conv2): Conv2d(16, 32, kernel_size=(3, 3), stride=(1, 1), padding=(1, 1))
  (relu2): ReLU()
  (pool2): MaxPool2d(kernel_size=2, stride=2, padding=0, dilation=1, ceil_mode=False)
  (conv3): Conv2d(32, 64, kernel_size=(3, 3), stride=(1, 1), padding=(1, 1))
  (relu3): ReLU()
  (flatten): Flatten(start_dim=1, end_dim=-1)
  (fc1): Linear(in_features=3136, out_features=3, bias=True)
  (relu4): ReLU()
  (fc2): Linear(in_features=3, out_features=1, bias=True)
  (sigmoid): Sigmoid()
)","[0, 1]",conv1,0.9070000052452087
145,"PyTorchCNN(
  (conv1): Conv2d(1, 16, kernel_size=(3, 3), stride=(1, 1), padding=(1, 1))
  (relu1): ReLU()
  (pool1): MaxPool2d(kernel_size=2, stride=2, padding=0, dilation=1, ceil_mode=False)
  (conv2): Conv2d(16, 32, kernel_size=(3, 3), stride=(1, 1), padding=(1, 1))
  (relu2): ReLU()
  (pool2): MaxPool2d(kernel_size=2, stride=2, padding=0, dilation=1, ceil_mode=False)
  (conv3): Conv2d(32, 64, kernel_size=(3, 3), stride=(1, 1), padding=(1, 1))
  (relu3): ReLU()
  (flatten): Flatten(start_dim=1, end_dim=-1)
  (fc1): Linear(in_features=3136, out_features=3, bias=True)
  (relu4): ReLU()
  (fc2): Linear(in_features=3, out_features=1, bias=True)
  (sigmoid): Sigmoid()
)","[0, 1]",conv2,0.925000011920929
146,"PyTorchCNN(
  (conv1): Conv2d(1, 16, kernel_size=(3, 3), stride=(1, 1), padding=(1, 1))
  (relu1): ReLU()
  (pool1): MaxPool2d(kernel_size=2, stride=2, padding=0, dilation=1, ceil_mode=False)
  (conv2): Conv2d(16, 32, kernel_size=(3, 3), stride=(1, 1), padding=(1, 1))
  (relu2): ReLU()
  (pool2): MaxPool2d(kernel_size=2, stride=2, padding=0, dilation=1, ceil_mode=False)
  (conv3): Conv2d(32, 64, kernel_size=(3, 3), stride=(1, 1), padding=(1, 1))
  (relu3): ReLU()
  (flatten): Flatten(start_dim=1, end_dim=-1)
  (fc1): Linear(in_features=3136, out_features=3, bias=True)
  (relu4): ReLU()
  (fc2): Linear(in_features=3, out_features=1, bias=True)
  (sigmoid): Sigmoid()
)","[0, 1]",conv3,0.9010000228881836
147,"PyTorchCNN(
  (conv1): Conv2d(1, 16, kernel_size=(3, 3), stride=(1, 1), padding=(1, 1))
  (relu1): ReLU()
  (pool1): MaxPool2d(kernel_size=2, stride=2, padding=0, dilation=1, ceil_mode=False)
  (conv2): Conv2d(16, 32, kernel_size=(3, 3), stride=(1, 1), padding=(1, 1))
  (relu2): ReLU()
  (pool2): MaxPool2d(kernel_size=2, stride=2, padding=0, dilation=1, ceil_mode=False)
  (conv3): Conv2d(32, 64, kernel_size=(3, 3), stride=(1, 1), padding=(1, 1))
  (relu3): ReLU()
  (flatten): Flatten(start_dim=1, end_dim=-1)
  (fc1): Linear(in_features=3136, out_features=3, bias=True)
  (relu4): ReLU()
  (fc2): Linear(in_features=3, out_features=1, bias=True)
  (sigmoid): Sigmoid()
)","[0, 1]",fc1,0.7770000100135803
148,"PyTorchCNN(
  (conv1): Conv2d(1, 16, kernel_size=(3, 3), stride=(1, 1), padding=(1, 1))
  (relu1): ReLU()
  (pool1): MaxPool2d(kernel_size=2, stride=2, padding=0, dilation=1, ceil_mode=False)
  (conv2): Conv2d(16, 32, kernel_size=(3, 3), stride=(1, 1), padding=(1, 1))
  (relu2): ReLU()
  (pool2): MaxPool2d(kernel_size=2, stride=2, padding=0, dilation=1, ceil_mode=False)
  (conv3): Conv2d(32, 64, kernel_size=(3, 3), stride=(1, 1), padding=(1, 1))
  (relu3): ReLU()
  (flatten): Flatten(start_dim=1, end_dim=-1)
  (fc1): Linear(in_features=3136, out_features=3, bias=True)
  (relu4): ReLU()
  (fc2): Linear(in_features=3, out_features=1, bias=True)
  (sigmoid): Sigmoid()
)","[0, 2]",conv1,0.9290000200271606
149,"PyTorchCNN(
  (conv1): Conv2d(1, 16, kernel_size=(3, 3), stride=(1, 1), padding=(1, 1))
  (relu1): ReLU()
  (pool1): MaxPool2d(kernel_size=2, stride=2, padding=0, dilation=1, ceil_mode=False)
  (conv2): Conv2d(16, 32, kernel_size=(3, 3), stride=(1, 1), padding=(1, 1))
  (relu2): ReLU()
  (pool2): MaxPool2d(kernel_size=2, stride=2, padding=0, dilation=1, ceil_mode=False)
  (conv3): Conv2d(32, 64, kernel_size=(3, 3), stride=(1, 1), padding=(1, 1))
  (relu3): ReLU()
  (flatten): Flatten(start_dim=1, end_dim=-1)
  (fc1): Linear(in_features=3136, out_features=3, bias=True)
  (relu4): ReLU()
  (fc2): Linear(in_features=3, out_features=1, bias=True)
  (sigmoid): Sigmoid()
)","[0, 2]",conv2,0.9169999957084656
150,"PyTorchCNN(
  (conv1): Conv2d(1, 16, kernel_size=(3, 3), stride=(1, 1), padding=(1, 1))
  (relu1): ReLU()
  (pool1): MaxPool2d(kernel_size=2, stride=2, padding=0, dilation=1, ceil_mode=False)
  (conv2): Conv2d(16, 32, kernel_size=(3, 3), stride=(1, 1), padding=(1, 1))
  (relu2): ReLU()
  (pool2): MaxPool2d(kernel_size=2, stride=2, padding=0, dilation=1, ceil_mode=False)
  (conv3): Conv2d(32, 64, kernel_size=(3, 3), stride=(1, 1), padding=(1, 1))
  (relu3): ReLU()
  (flatten): Flatten(start_dim=1, end_dim=-1)
  (fc1): Linear(in_features=3136, out_features=3, bias=True)
  (relu4): ReLU()
  (fc2): Linear(in_features=3, out_features=1, bias=True)
  (sigmoid): Sigmoid()
)","[0, 2]",conv3,0.9079999923706055
151,"PyTorchCNN(
  (conv1): Conv2d(1, 16, kernel_size=(3, 3), stride=(1, 1), padding=(1, 1))
  (relu1): ReLU()
  (pool1): MaxPool2d(kernel_size=2, stride=2, padding=0, dilation=1, ceil_mode=False)
  (conv2): Conv2d(16, 32, kernel_size=(3, 3), stride=(1, 1), padding=(1, 1))
  (relu2): ReLU()
  (pool2): MaxPool2d(kernel_size=2, stride=2, padding=0, dilation=1, ceil_mode=False)
  (conv3): Conv2d(32, 64, kernel_size=(3, 3), stride=(1, 1), padding=(1, 1))
  (relu3): ReLU()
  (flatten): Flatten(start_dim=1, end_dim=-1)
  (fc1): Linear(in_features=3136, out_features=3, bias=True)
  (relu4): ReLU()
  (fc2): Linear(in_features=3, out_features=1, bias=True)
  (sigmoid): Sigmoid()
)","[0, 2]",fc1,0.7200000286102295
152,"PyTorchCNN(
  (conv1): Conv2d(1, 16, kernel_size=(3, 3), stride=(1, 1), padding=(1, 1))
  (relu1): ReLU()
  (pool1): MaxPool2d(kernel_size=2, stride=2, padding=0, dilation=1, ceil_mode=False)
  (conv2): Conv2d(16, 32, kernel_size=(3, 3), stride=(1, 1), padding=(1, 1))
  (relu2): ReLU()
  (pool2): MaxPool2d(kernel_size=2, stride=2, padding=0, dilation=1, ceil_mode=False)
  (conv3): Conv2d(32, 64, kernel_size=(3, 3), stride=(1, 1), padding=(1, 1))
  (relu3): ReLU()
  (flatten): Flatten(start_dim=1, end_dim=-1)
  (fc1): Linear(in_features=3136, out_features=3, bias=True)
  (relu4): ReLU()
  (fc2): Linear(in_features=3, out_features=1, bias=True)
  (sigmoid): Sigmoid()
)","[1, 2]",conv1,0.9350000023841858
153,"PyTorchCNN(
  (conv1): Conv2d(1, 16, kernel_size=(3, 3), stride=(1, 1), padding=(1, 1))
  (relu1): ReLU()
  (pool1): MaxPool2d(kernel_size=2, stride=2, padding=0, dilation=1, ceil_mode=False)
  (conv2): Conv2d(16, 32, kernel_size=(3, 3), stride=(1, 1), padding=(1, 1))
  (relu2): ReLU()
  (pool2): MaxPool2d(kernel_size=2, stride=2, padding=0, dilation=1, ceil_mode=False)
  (conv3): Conv2d(32, 64, kernel_size=(3, 3), stride=(1, 1), padding=(1, 1))
  (relu3): ReLU()
  (flatten): Flatten(start_dim=1, end_dim=-1)
  (fc1): Linear(in_features=3136, out_features=3, bias=True)
  (relu4): ReLU()
  (fc2): Linear(in_features=3, out_features=1, bias=True)
  (sigmoid): Sigmoid()
)","[1, 2]",conv2,0.9340000152587891
154,"PyTorchCNN(
  (conv1): Conv2d(1, 16, kernel_size=(3, 3), stride=(1, 1), padding=(1, 1))
  (relu1): ReLU()
  (pool1): MaxPool2d(kernel_size=2, stride=2, padding=0, dilation=1, ceil_mode=False)
  (conv2): Conv2d(16, 32, kernel_size=(3, 3), stride=(1, 1), padding=(1, 1))
  (relu2): ReLU()
  (pool2): MaxPool2d(kernel_size=2, stride=2, padding=0, dilation=1, ceil_mode=False)
  (conv3): Conv2d(32, 64, kernel_size=(3, 3), stride=(1, 1), padding=(1, 1))
  (relu3): ReLU()
  (flatten): Flatten(start_dim=1, end_dim=-1)
  (fc1): Linear(in_features=3136, out_features=3, bias=True)
  (relu4): ReLU()
  (fc2): Linear(in_features=3, out_features=1, bias=True)
  (sigmoid): Sigmoid()
)","[1, 2]",conv3,0.8610000014305115
155,"PyTorchCNN(
  (conv1): Conv2d(1, 16, kernel_size=(3, 3), stride=(1, 1), padding=(1, 1))
  (relu1): ReLU()
  (pool1): MaxPool2d(kernel_size=2, stride=2, padding=0, dilation=1, ceil_mode=False)
  (conv2): Conv2d(16, 32, kernel_size=(3, 3), stride=(1, 1), padding=(1, 1))
  (relu2): ReLU()
  (pool2): MaxPool2d(kernel_size=2, stride=2, padding=0, dilation=1, ceil_mode=False)
  (conv3): Conv2d(32, 64, kernel_size=(3, 3), stride=(1, 1), padding=(1, 1))
  (relu3): ReLU()
  (flatten): Flatten(start_dim=1, end_dim=-1)
  (fc1): Linear(in_features=3136, out_features=3, bias=True)
  (relu4): ReLU()
  (fc2): Linear(in_features=3, out_features=1, bias=True)
  (sigmoid): Sigmoid()
)","[1, 2]",fc1,0.6980000138282776
156,"PyTorchCNN(
  (conv1): Conv2d(1, 16, kernel_size=(3, 3), stride=(1, 1), padding=(1, 1))
  (relu1): ReLU()
  (pool1): MaxPool2d(kernel_size=2, stride=2, padding=0, dilation=1, ceil_mode=False)
  (conv2): Conv2d(16, 32, kernel_size=(3, 3), stride=(1, 1), padding=(1, 1))
  (relu2): ReLU()
  (pool2): MaxPool2d(kernel_size=2, stride=2, padding=0, dilation=1, ceil_mode=False)
  (conv3): Conv2d(32, 64, kernel_size=(3, 3), stride=(1, 1), padding=(1, 1))
  (relu3): ReLU()
  (flatten): Flatten(start_dim=1, end_dim=-1)
  (fc1): Linear(in_features=3136, out_features=3, bias=True)
  (relu4): ReLU()
  (fc2): Linear(in_features=3, out_features=1, bias=True)
  (sigmoid): Sigmoid()
)",[0],conv1,0.9259999990463257
157,"PyTorchCNN(
  (conv1): Conv2d(1, 16, kernel_size=(3, 3), stride=(1, 1), padding=(1, 1))
  (relu1): ReLU()
  (pool1): MaxPool2d(kernel_size=2, stride=2, padding=0, dilation=1, ceil_mode=False)
  (conv2): Conv2d(16, 32, kernel_size=(3, 3), stride=(1, 1), padding=(1, 1))
  (relu2): ReLU()
  (pool2): MaxPool2d(kernel_size=2, stride=2, padding=0, dilation=1, ceil_mode=False)
  (conv3): Conv2d(32, 64, kernel_size=(3, 3), stride=(1, 1), padding=(1, 1))
  (relu3): ReLU()
  (flatten): Flatten(start_dim=1, end_dim=-1)
  (fc1): Linear(in_features=3136, out_features=3, bias=True)
  (relu4): ReLU()
  (fc2): Linear(in_features=3, out_features=1, bias=True)
  (sigmoid): Sigmoid()
)",[0],conv2,0.8949999809265137
158,"PyTorchCNN(
  (conv1): Conv2d(1, 16, kernel_size=(3, 3), stride=(1, 1), padding=(1, 1))
  (relu1): ReLU()
  (pool1): MaxPool2d(kernel_size=2, stride=2, padding=0, dilation=1, ceil_mode=False)
  (conv2): Conv2d(16, 32, kernel_size=(3, 3), stride=(1, 1), padding=(1, 1))
  (relu2): ReLU()
  (pool2): MaxPool2d(kernel_size=2, stride=2, padding=0, dilation=1, ceil_mode=False)
  (conv3): Conv2d(32, 64, kernel_size=(3, 3), stride=(1, 1), padding=(1, 1))
  (relu3): ReLU()
  (flatten): Flatten(start_dim=1, end_dim=-1)
  (fc1): Linear(in_features=3136, out_features=3, bias=True)
  (relu4): ReLU()
  (fc2): Linear(in_features=3, out_features=1, bias=True)
  (sigmoid): Sigmoid()
)",[0],conv3,0.9049999713897705
159,"PyTorchCNN(
  (conv1): Conv2d(1, 16, kernel_size=(3, 3), stride=(1, 1), padding=(1, 1))
  (relu1): ReLU()
  (pool1): MaxPool2d(kernel_size=2, stride=2, padding=0, dilation=1, ceil_mode=False)
  (conv2): Conv2d(16, 32, kernel_size=(3, 3), stride=(1, 1), padding=(1, 1))
  (relu2): ReLU()
  (pool2): MaxPool2d(kernel_size=2, stride=2, padding=0, dilation=1, ceil_mode=False)
  (conv3): Conv2d(32, 64, kernel_size=(3, 3), stride=(1, 1), padding=(1, 1))
  (relu3): ReLU()
  (flatten): Flatten(start_dim=1, end_dim=-1)
  (fc1): Linear(in_features=3136, out_features=3, bias=True)
  (relu4): ReLU()
  (fc2): Linear(in_features=3, out_features=1, bias=True)
  (sigmoid): Sigmoid()
)",[0],fc1,0.6700000166893005
160,"PyTorchCNN(
  (conv1): Conv2d(1, 16, kernel_size=(3, 3), stride=(1, 1), padding=(1, 1))
  (relu1): ReLU()
  (pool1): MaxPool2d(kernel_size=2, stride=2, padding=0, dilation=1, ceil_mode=False)
  (conv2): Conv2d(16, 32, kernel_size=(3, 3), stride=(1, 1), padding=(1, 1))
  (relu2): ReLU()
  (pool2): MaxPool2d(kernel_size=2, stride=2, padding=0, dilation=1, ceil_mode=False)
  (conv3): Conv2d(32, 64, kernel_size=(3, 3), stride=(1, 1), padding=(1, 1))
  (relu3): ReLU()
  (flatten): Flatten(start_dim=1, end_dim=-1)
  (fc1): Linear(in_features=3136, out_features=3, bias=True)
  (relu4): ReLU()
  (fc2): Linear(in_features=3, out_features=1, bias=True)
  (sigmoid): Sigmoid()
)",[1],conv1,0.9570000171661377
161,"PyTorchCNN(
  (conv1): Conv2d(1, 16, kernel_size=(3, 3), stride=(1, 1), padding=(1, 1))
  (relu1): ReLU()
  (pool1): MaxPool2d(kernel_size=2, stride=2, padding=0, dilation=1, ceil_mode=False)
  (conv2): Conv2d(16, 32, kernel_size=(3, 3), stride=(1, 1), padding=(1, 1))
  (relu2): ReLU()
  (pool2): MaxPool2d(kernel_size=2, stride=2, padding=0, dilation=1, ceil_mode=False)
  (conv3): Conv2d(32, 64, kernel_size=(3, 3), stride=(1, 1), padding=(1, 1))
  (relu3): ReLU()
  (flatten): Flatten(start_dim=1, end_dim=-1)
  (fc1): Linear(in_features=3136, out_features=3, bias=True)
  (relu4): ReLU()
  (fc2): Linear(in_features=3, out_features=1, bias=True)
  (sigmoid): Sigmoid()
)",[1],conv2,0.9620000123977661
162,"PyTorchCNN(
  (conv1): Conv2d(1, 16, kernel_size=(3, 3), stride=(1, 1), padding=(1, 1))
  (relu1): ReLU()
  (pool1): MaxPool2d(kernel_size=2, stride=2, padding=0, dilation=1, ceil_mode=False)
  (conv2): Conv2d(16, 32, kernel_size=(3, 3), stride=(1, 1), padding=(1, 1))
  (relu2): ReLU()
  (pool2): MaxPool2d(kernel_size=2, stride=2, padding=0, dilation=1, ceil_mode=False)
  (conv3): Conv2d(32, 64, kernel_size=(3, 3), stride=(1, 1), padding=(1, 1))
  (relu3): ReLU()
  (flatten): Flatten(start_dim=1, end_dim=-1)
  (fc1): Linear(in_features=3136, out_features=3, bias=True)
  (relu4): ReLU()
  (fc2): Linear(in_features=3, out_features=1, bias=True)
  (sigmoid): Sigmoid()
)",[1],conv3,0.9390000104904175
163,"PyTorchCNN(
  (conv1): Conv2d(1, 16, kernel_size=(3, 3), stride=(1, 1), padding=(1, 1))
  (relu1): ReLU()
  (pool1): MaxPool2d(kernel_size=2, stride=2, padding=0, dilation=1, ceil_mode=False)
  (conv2): Conv2d(16, 32, kernel_size=(3, 3), stride=(1, 1), padding=(1, 1))
  (relu2): ReLU()
  (pool2): MaxPool2d(kernel_size=2, stride=2, padding=0, dilation=1, ceil_mode=False)
  (conv3): Conv2d(32, 64, kernel_size=(3, 3), stride=(1, 1), padding=(1, 1))
  (relu3): ReLU()
  (flatten): Flatten(start_dim=1, end_dim=-1)
  (fc1): Linear(in_features=3136, out_features=3, bias=True)
  (relu4): ReLU()
  (fc2): Linear(in_features=3, out_features=1, bias=True)
  (sigmoid): Sigmoid()
)",[1],fc1,0.7799999713897705
164,"PyTorchCNN(
  (conv1): Conv2d(1, 16, kernel_size=(3, 3), stride=(1, 1), padding=(1, 1))
  (relu1): ReLU()
  (pool1): MaxPool2d(kernel_size=2, stride=2, padding=0, dilation=1, ceil_mode=False)
  (conv2): Conv2d(16, 32, kernel_size=(3, 3), stride=(1, 1), padding=(1, 1))
  (relu2): ReLU()
  (pool2): MaxPool2d(kernel_size=2, stride=2, padding=0, dilation=1, ceil_mode=False)
  (conv3): Conv2d(32, 64, kernel_size=(3, 3), stride=(1, 1), padding=(1, 1))
  (relu3): ReLU()
  (flatten): Flatten(start_dim=1, end_dim=-1)
  (fc1): Linear(in_features=3136, out_features=3, bias=True)
  (relu4): ReLU()
  (fc2): Linear(in_features=3, out_features=1, bias=True)
  (sigmoid): Sigmoid()
)",[2],conv1,0.949999988079071
165,"PyTorchCNN(
  (conv1): Conv2d(1, 16, kernel_size=(3, 3), stride=(1, 1), padding=(1, 1))
  (relu1): ReLU()
  (pool1): MaxPool2d(kernel_size=2, stride=2, padding=0, dilation=1, ceil_mode=False)
  (conv2): Conv2d(16, 32, kernel_size=(3, 3), stride=(1, 1), padding=(1, 1))
  (relu2): ReLU()
  (pool2): MaxPool2d(kernel_size=2, stride=2, padding=0, dilation=1, ceil_mode=False)
  (conv3): Conv2d(32, 64, kernel_size=(3, 3), stride=(1, 1), padding=(1, 1))
  (relu3): ReLU()
  (flatten): Flatten(start_dim=1, end_dim=-1)
  (fc1): Linear(in_features=3136, out_features=3, bias=True)
  (relu4): ReLU()
  (fc2): Linear(in_features=3, out_features=1, bias=True)
  (sigmoid): Sigmoid()
)",[2],conv2,0.9440000057220459
166,"PyTorchCNN(
  (conv1): Conv2d(1, 16, kernel_size=(3, 3), stride=(1, 1), padding=(1, 1))
  (relu1): ReLU()
  (pool1): MaxPool2d(kernel_size=2, stride=2, padding=0, dilation=1, ceil_mode=False)
  (conv2): Conv2d(16, 32, kernel_size=(3, 3), stride=(1, 1), padding=(1, 1))
  (relu2): ReLU()
  (pool2): MaxPool2d(kernel_size=2, stride=2, padding=0, dilation=1, ceil_mode=False)
  (conv3): Conv2d(32, 64, kernel_size=(3, 3), stride=(1, 1), padding=(1, 1))
  (relu3): ReLU()
  (flatten): Flatten(start_dim=1, end_dim=-1)
  (fc1): Linear(in_features=3136, out_features=3, bias=True)
  (relu4): ReLU()
  (fc2): Linear(in_features=3, out_features=1, bias=True)
  (sigmoid): Sigmoid()
)",[2],conv3,0.9139999747276306
167,"PyTorchCNN(
  (conv1): Conv2d(1, 16, kernel_size=(3, 3), stride=(1, 1), padding=(1, 1))
  (relu1): ReLU()
  (pool1): MaxPool2d(kernel_size=2, stride=2, padding=0, dilation=1, ceil_mode=False)
  (conv2): Conv2d(16, 32, kernel_size=(3, 3), stride=(1, 1), padding=(1, 1))
  (relu2): ReLU()
  (pool2): MaxPool2d(kernel_size=2, stride=2, padding=0, dilation=1, ceil_mode=False)
  (conv3): Conv2d(32, 64, kernel_size=(3, 3), stride=(1, 1), padding=(1, 1))
  (relu3): ReLU()
  (flatten): Flatten(start_dim=1, end_dim=-1)
  (fc1): Linear(in_features=3136, out_features=3, bias=True)
  (relu4): ReLU()
  (fc2): Linear(in_features=3, out_features=1, bias=True)
  (sigmoid): Sigmoid()
)",[2],fc1,0.8069999814033508
168,"PyTorchCNN(
  (conv1): Conv2d(1, 16, kernel_size=(3, 3), stride=(1, 1), padding=(1, 1))
  (relu1): ReLU()
  (pool1): MaxPool2d(kernel_size=2, stride=2, padding=0, dilation=1, ceil_mode=False)
  (conv2): Conv2d(16, 32, kernel_size=(3, 3), stride=(1, 1), padding=(1, 1))
  (relu2): ReLU()
  (pool2): MaxPool2d(kernel_size=2, stride=2, padding=0, dilation=1, ceil_mode=False)
  (conv3): Conv2d(32, 64, kernel_size=(3, 3), stride=(1, 1), padding=(1, 1))
  (relu3): ReLU()
  (flatten): Flatten(start_dim=1, end_dim=-1)
  (fc1): Linear(in_features=3136, out_features=3, bias=True)
  (relu4): ReLU()
  (fc2): Linear(in_features=3, out_features=1, bias=True)
  (sigmoid): Sigmoid()
)","[0, 1, 2]",conv1,0.9290000200271606
169,"PyTorchCNN(
  (conv1): Conv2d(1, 16, kernel_size=(3, 3), stride=(1, 1), padding=(1, 1))
  (relu1): ReLU()
  (pool1): MaxPool2d(kernel_size=2, stride=2, padding=0, dilation=1, ceil_mode=False)
  (conv2): Conv2d(16, 32, kernel_size=(3, 3), stride=(1, 1), padding=(1, 1))
  (relu2): ReLU()
  (pool2): MaxPool2d(kernel_size=2, stride=2, padding=0, dilation=1, ceil_mode=False)
  (conv3): Conv2d(32, 64, kernel_size=(3, 3), stride=(1, 1), padding=(1, 1))
  (relu3): ReLU()
  (flatten): Flatten(start_dim=1, end_dim=-1)
  (fc1): Linear(in_features=3136, out_features=3, bias=True)
  (relu4): ReLU()
  (fc2): Linear(in_features=3, out_features=1, bias=True)
  (sigmoid): Sigmoid()
)","[0, 1, 2]",conv2,0.9399999976158142
170,"PyTorchCNN(
  (conv1): Conv2d(1, 16, kernel_size=(3, 3), stride=(1, 1), padding=(1, 1))
  (relu1): ReLU()
  (pool1): MaxPool2d(kernel_size=2, stride=2, padding=0, dilation=1, ceil_mode=False)
  (conv2): Conv2d(16, 32, kernel_size=(3, 3), stride=(1, 1), padding=(1, 1))
  (relu2): ReLU()
  (pool2): MaxPool2d(kernel_size=2, stride=2, padding=0, dilation=1, ceil_mode=False)
  (conv3): Conv2d(32, 64, kernel_size=(3, 3), stride=(1, 1), padding=(1, 1))
  (relu3): ReLU()
  (flatten): Flatten(start_dim=1, end_dim=-1)
  (fc1): Linear(in_features=3136, out_features=3, bias=True)
  (relu4): ReLU()
  (fc2): Linear(in_features=3, out_features=1, bias=True)
  (sigmoid): Sigmoid()
)","[0, 1, 2]",conv3,0.9390000104904175
171,"PyTorchCNN(
  (conv1): Conv2d(1, 16, kernel_size=(3, 3), stride=(1, 1), padding=(1, 1))
  (relu1): ReLU()
  (pool1): MaxPool2d(kernel_size=2, stride=2, padding=0, dilation=1, ceil_mode=False)
  (conv2): Conv2d(16, 32, kernel_size=(3, 3), stride=(1, 1), padding=(1, 1))
  (relu2): ReLU()
  (pool2): MaxPool2d(kernel_size=2, stride=2, padding=0, dilation=1, ceil_mode=False)
  (conv3): Conv2d(32, 64, kernel_size=(3, 3), stride=(1, 1), padding=(1, 1))
  (relu3): ReLU()
  (flatten): Flatten(start_dim=1, end_dim=-1)
  (fc1): Linear(in_features=3136, out_features=3, bias=True)
  (relu4): ReLU()
  (fc2): Linear(in_features=3, out_features=1, bias=True)
  (sigmoid): Sigmoid()
)","[0, 1, 2]",fc1,0.8629999756813049
172,"PyTorchCNN(
  (conv1): Conv2d(1, 16, kernel_size=(3, 3), stride=(1, 1), padding=(1, 1))
  (relu1): ReLU()
  (pool1): MaxPool2d(kernel_size=2, stride=2, padding=0, dilation=1, ceil_mode=False)
  (conv2): Conv2d(16, 32, kernel_size=(3, 3), stride=(1, 1), padding=(1, 1))
  (relu2): ReLU()
  (pool2): MaxPool2d(kernel_size=2, stride=2, padding=0, dilation=1, ceil_mode=False)
  (conv3): Conv2d(32, 64, kernel_size=(3, 3), stride=(1, 1), padding=(1, 1))
  (relu3): ReLU()
  (flatten): Flatten(start_dim=1, end_dim=-1)
  (fc1): Linear(in_features=3136, out_features=3, bias=True)
  (relu4): ReLU()
  (fc2): Linear(in_features=3, out_features=1, bias=True)
  (sigmoid): Sigmoid()
)","[0, 1]",conv1,0.902999997138977
173,"PyTorchCNN(
  (conv1): Conv2d(1, 16, kernel_size=(3, 3), stride=(1, 1), padding=(1, 1))
  (relu1): ReLU()
  (pool1): MaxPool2d(kernel_size=2, stride=2, padding=0, dilation=1, ceil_mode=False)
  (conv2): Conv2d(16, 32, kernel_size=(3, 3), stride=(1, 1), padding=(1, 1))
  (relu2): ReLU()
  (pool2): MaxPool2d(kernel_size=2, stride=2, padding=0, dilation=1, ceil_mode=False)
  (conv3): Conv2d(32, 64, kernel_size=(3, 3), stride=(1, 1), padding=(1, 1))
  (relu3): ReLU()
  (flatten): Flatten(start_dim=1, end_dim=-1)
  (fc1): Linear(in_features=3136, out_features=3, bias=True)
  (relu4): ReLU()
  (fc2): Linear(in_features=3, out_features=1, bias=True)
  (sigmoid): Sigmoid()
)","[0, 1]",conv2,0.9160000085830688
174,"PyTorchCNN(
  (conv1): Conv2d(1, 16, kernel_size=(3, 3), stride=(1, 1), padding=(1, 1))
  (relu1): ReLU()
  (pool1): MaxPool2d(kernel_size=2, stride=2, padding=0, dilation=1, ceil_mode=False)
  (conv2): Conv2d(16, 32, kernel_size=(3, 3), stride=(1, 1), padding=(1, 1))
  (relu2): ReLU()
  (pool2): MaxPool2d(kernel_size=2, stride=2, padding=0, dilation=1, ceil_mode=False)
  (conv3): Conv2d(32, 64, kernel_size=(3, 3), stride=(1, 1), padding=(1, 1))
  (relu3): ReLU()
  (flatten): Flatten(start_dim=1, end_dim=-1)
  (fc1): Linear(in_features=3136, out_features=3, bias=True)
  (relu4): ReLU()
  (fc2): Linear(in_features=3, out_features=1, bias=True)
  (sigmoid): Sigmoid()
)","[0, 1]",conv3,0.8939999938011169
175,"PyTorchCNN(
  (conv1): Conv2d(1, 16, kernel_size=(3, 3), stride=(1, 1), padding=(1, 1))
  (relu1): ReLU()
  (pool1): MaxPool2d(kernel_size=2, stride=2, padding=0, dilation=1, ceil_mode=False)
  (conv2): Conv2d(16, 32, kernel_size=(3, 3), stride=(1, 1), padding=(1, 1))
  (relu2): ReLU()
  (pool2): MaxPool2d(kernel_size=2, stride=2, padding=0, dilation=1, ceil_mode=False)
  (conv3): Conv2d(32, 64, kernel_size=(3, 3), stride=(1, 1), padding=(1, 1))
  (relu3): ReLU()
  (flatten): Flatten(start_dim=1, end_dim=-1)
  (fc1): Linear(in_features=3136, out_features=3, bias=True)
  (relu4): ReLU()
  (fc2): Linear(in_features=3, out_features=1, bias=True)
  (sigmoid): Sigmoid()
)","[0, 1]",fc1,0.7099999785423279
176,"PyTorchCNN(
  (conv1): Conv2d(1, 16, kernel_size=(3, 3), stride=(1, 1), padding=(1, 1))
  (relu1): ReLU()
  (pool1): MaxPool2d(kernel_size=2, stride=2, padding=0, dilation=1, ceil_mode=False)
  (conv2): Conv2d(16, 32, kernel_size=(3, 3), stride=(1, 1), padding=(1, 1))
  (relu2): ReLU()
  (pool2): MaxPool2d(kernel_size=2, stride=2, padding=0, dilation=1, ceil_mode=False)
  (conv3): Conv2d(32, 64, kernel_size=(3, 3), stride=(1, 1), padding=(1, 1))
  (relu3): ReLU()
  (flatten): Flatten(start_dim=1, end_dim=-1)
  (fc1): Linear(in_features=3136, out_features=3, bias=True)
  (relu4): ReLU()
  (fc2): Linear(in_features=3, out_features=1, bias=True)
  (sigmoid): Sigmoid()
)","[0, 2]",conv1,0.9350000023841858
177,"PyTorchCNN(
  (conv1): Conv2d(1, 16, kernel_size=(3, 3), stride=(1, 1), padding=(1, 1))
  (relu1): ReLU()
  (pool1): MaxPool2d(kernel_size=2, stride=2, padding=0, dilation=1, ceil_mode=False)
  (conv2): Conv2d(16, 32, kernel_size=(3, 3), stride=(1, 1), padding=(1, 1))
  (relu2): ReLU()
  (pool2): MaxPool2d(kernel_size=2, stride=2, padding=0, dilation=1, ceil_mode=False)
  (conv3): Conv2d(32, 64, kernel_size=(3, 3), stride=(1, 1), padding=(1, 1))
  (relu3): ReLU()
  (flatten): Flatten(start_dim=1, end_dim=-1)
  (fc1): Linear(in_features=3136, out_features=3, bias=True)
  (relu4): ReLU()
  (fc2): Linear(in_features=3, out_features=1, bias=True)
  (sigmoid): Sigmoid()
)","[0, 2]",conv2,0.9200000166893005
178,"PyTorchCNN(
  (conv1): Conv2d(1, 16, kernel_size=(3, 3), stride=(1, 1), padding=(1, 1))
  (relu1): ReLU()
  (pool1): MaxPool2d(kernel_size=2, stride=2, padding=0, dilation=1, ceil_mode=False)
  (conv2): Conv2d(16, 32, kernel_size=(3, 3), stride=(1, 1), padding=(1, 1))
  (relu2): ReLU()
  (pool2): MaxPool2d(kernel_size=2, stride=2, padding=0, dilation=1, ceil_mode=False)
  (conv3): Conv2d(32, 64, kernel_size=(3, 3), stride=(1, 1), padding=(1, 1))
  (relu3): ReLU()
  (flatten): Flatten(start_dim=1, end_dim=-1)
  (fc1): Linear(in_features=3136, out_features=3, bias=True)
  (relu4): ReLU()
  (fc2): Linear(in_features=3, out_features=1, bias=True)
  (sigmoid): Sigmoid()
)","[0, 2]",conv3,0.8999999761581421
179,"PyTorchCNN(
  (conv1): Conv2d(1, 16, kernel_size=(3, 3), stride=(1, 1), padding=(1, 1))
  (relu1): ReLU()
  (pool1): MaxPool2d(kernel_size=2, stride=2, padding=0, dilation=1, ceil_mode=False)
  (conv2): Conv2d(16, 32, kernel_size=(3, 3), stride=(1, 1), padding=(1, 1))
  (relu2): ReLU()
  (pool2): MaxPool2d(kernel_size=2, stride=2, padding=0, dilation=1, ceil_mode=False)
  (conv3): Conv2d(32, 64, kernel_size=(3, 3), stride=(1, 1), padding=(1, 1))
  (relu3): ReLU()
  (flatten): Flatten(start_dim=1, end_dim=-1)
  (fc1): Linear(in_features=3136, out_features=3, bias=True)
  (relu4): ReLU()
  (fc2): Linear(in_features=3, out_features=1, bias=True)
  (sigmoid): Sigmoid()
)","[0, 2]",fc1,0.753000020980835
180,"PyTorchCNN(
  (conv1): Conv2d(1, 16, kernel_size=(3, 3), stride=(1, 1), padding=(1, 1))
  (relu1): ReLU()
  (pool1): MaxPool2d(kernel_size=2, stride=2, padding=0, dilation=1, ceil_mode=False)
  (conv2): Conv2d(16, 32, kernel_size=(3, 3), stride=(1, 1), padding=(1, 1))
  (relu2): ReLU()
  (pool2): MaxPool2d(kernel_size=2, stride=2, padding=0, dilation=1, ceil_mode=False)
  (conv3): Conv2d(32, 64, kernel_size=(3, 3), stride=(1, 1), padding=(1, 1))
  (relu3): ReLU()
  (flatten): Flatten(start_dim=1, end_dim=-1)
  (fc1): Linear(in_features=3136, out_features=3, bias=True)
  (relu4): ReLU()
  (fc2): Linear(in_features=3, out_features=1, bias=True)
  (sigmoid): Sigmoid()
)","[1, 2]",conv1,0.9340000152587891
181,"PyTorchCNN(
  (conv1): Conv2d(1, 16, kernel_size=(3, 3), stride=(1, 1), padding=(1, 1))
  (relu1): ReLU()
  (pool1): MaxPool2d(kernel_size=2, stride=2, padding=0, dilation=1, ceil_mode=False)
  (conv2): Conv2d(16, 32, kernel_size=(3, 3), stride=(1, 1), padding=(1, 1))
  (relu2): ReLU()
  (pool2): MaxPool2d(kernel_size=2, stride=2, padding=0, dilation=1, ceil_mode=False)
  (conv3): Conv2d(32, 64, kernel_size=(3, 3), stride=(1, 1), padding=(1, 1))
  (relu3): ReLU()
  (flatten): Flatten(start_dim=1, end_dim=-1)
  (fc1): Linear(in_features=3136, out_features=3, bias=True)
  (relu4): ReLU()
  (fc2): Linear(in_features=3, out_features=1, bias=True)
  (sigmoid): Sigmoid()
)","[1, 2]",conv2,0.8949999809265137
182,"PyTorchCNN(
  (conv1): Conv2d(1, 16, kernel_size=(3, 3), stride=(1, 1), padding=(1, 1))
  (relu1): ReLU()
  (pool1): MaxPool2d(kernel_size=2, stride=2, padding=0, dilation=1, ceil_mode=False)
  (conv2): Conv2d(16, 32, kernel_size=(3, 3), stride=(1, 1), padding=(1, 1))
  (relu2): ReLU()
  (pool2): MaxPool2d(kernel_size=2, stride=2, padding=0, dilation=1, ceil_mode=False)
  (conv3): Conv2d(32, 64, kernel_size=(3, 3), stride=(1, 1), padding=(1, 1))
  (relu3): ReLU()
  (flatten): Flatten(start_dim=1, end_dim=-1)
  (fc1): Linear(in_features=3136, out_features=3, bias=True)
  (relu4): ReLU()
  (fc2): Linear(in_features=3, out_features=1, bias=True)
  (sigmoid): Sigmoid()
)","[1, 2]",conv3,0.8569999933242798
183,"PyTorchCNN(
  (conv1): Conv2d(1, 16, kernel_size=(3, 3), stride=(1, 1), padding=(1, 1))
  (relu1): ReLU()
  (pool1): MaxPool2d(kernel_size=2, stride=2, padding=0, dilation=1, ceil_mode=False)
  (conv2): Conv2d(16, 32, kernel_size=(3, 3), stride=(1, 1), padding=(1, 1))
  (relu2): ReLU()
  (pool2): MaxPool2d(kernel_size=2, stride=2, padding=0, dilation=1, ceil_mode=False)
  (conv3): Conv2d(32, 64, kernel_size=(3, 3), stride=(1, 1), padding=(1, 1))
  (relu3): ReLU()
  (flatten): Flatten(start_dim=1, end_dim=-1)
  (fc1): Linear(in_features=3136, out_features=3, bias=True)
  (relu4): ReLU()
  (fc2): Linear(in_features=3, out_features=1, bias=True)
  (sigmoid): Sigmoid()
)","[1, 2]",fc1,0.7329999804496765
184,"PyTorchCNN(
  (conv1): Conv2d(1, 16, kernel_size=(3, 3), stride=(1, 1), padding=(1, 1))
  (relu1): ReLU()
  (pool1): MaxPool2d(kernel_size=2, stride=2, padding=0, dilation=1, ceil_mode=False)
  (conv2): Conv2d(16, 32, kernel_size=(3, 3), stride=(1, 1), padding=(1, 1))
  (relu2): ReLU()
  (pool2): MaxPool2d(kernel_size=2, stride=2, padding=0, dilation=1, ceil_mode=False)
  (conv3): Conv2d(32, 64, kernel_size=(3, 3), stride=(1, 1), padding=(1, 1))
  (relu3): ReLU()
  (flatten): Flatten(start_dim=1, end_dim=-1)
  (fc1): Linear(in_features=3136, out_features=3, bias=True)
  (relu4): ReLU()
  (fc2): Linear(in_features=3, out_features=1, bias=True)
  (sigmoid): Sigmoid()
)",[0],conv1,0.9100000262260437
185,"PyTorchCNN(
  (conv1): Conv2d(1, 16, kernel_size=(3, 3), stride=(1, 1), padding=(1, 1))
  (relu1): ReLU()
  (pool1): MaxPool2d(kernel_size=2, stride=2, padding=0, dilation=1, ceil_mode=False)
  (conv2): Conv2d(16, 32, kernel_size=(3, 3), stride=(1, 1), padding=(1, 1))
  (relu2): ReLU()
  (pool2): MaxPool2d(kernel_size=2, stride=2, padding=0, dilation=1, ceil_mode=False)
  (conv3): Conv2d(32, 64, kernel_size=(3, 3), stride=(1, 1), padding=(1, 1))
  (relu3): ReLU()
  (flatten): Flatten(start_dim=1, end_dim=-1)
  (fc1): Linear(in_features=3136, out_features=3, bias=True)
  (relu4): ReLU()
  (fc2): Linear(in_features=3, out_features=1, bias=True)
  (sigmoid): Sigmoid()
)",[0],conv2,0.9039999842643738
186,"PyTorchCNN(
  (conv1): Conv2d(1, 16, kernel_size=(3, 3), stride=(1, 1), padding=(1, 1))
  (relu1): ReLU()
  (pool1): MaxPool2d(kernel_size=2, stride=2, padding=0, dilation=1, ceil_mode=False)
  (conv2): Conv2d(16, 32, kernel_size=(3, 3), stride=(1, 1), padding=(1, 1))
  (relu2): ReLU()
  (pool2): MaxPool2d(kernel_size=2, stride=2, padding=0, dilation=1, ceil_mode=False)
  (conv3): Conv2d(32, 64, kernel_size=(3, 3), stride=(1, 1), padding=(1, 1))
  (relu3): ReLU()
  (flatten): Flatten(start_dim=1, end_dim=-1)
  (fc1): Linear(in_features=3136, out_features=3, bias=True)
  (relu4): ReLU()
  (fc2): Linear(in_features=3, out_features=1, bias=True)
  (sigmoid): Sigmoid()
)",[0],conv3,0.8980000019073486
187,"PyTorchCNN(
  (conv1): Conv2d(1, 16, kernel_size=(3, 3), stride=(1, 1), padding=(1, 1))
  (relu1): ReLU()
  (pool1): MaxPool2d(kernel_size=2, stride=2, padding=0, dilation=1, ceil_mode=False)
  (conv2): Conv2d(16, 32, kernel_size=(3, 3), stride=(1, 1), padding=(1, 1))
  (relu2): ReLU()
  (pool2): MaxPool2d(kernel_size=2, stride=2, padding=0, dilation=1, ceil_mode=False)
  (conv3): Conv2d(32, 64, kernel_size=(3, 3), stride=(1, 1), padding=(1, 1))
  (relu3): ReLU()
  (flatten): Flatten(start_dim=1, end_dim=-1)
  (fc1): Linear(in_features=3136, out_features=3, bias=True)
  (relu4): ReLU()
  (fc2): Linear(in_features=3, out_features=1, bias=True)
  (sigmoid): Sigmoid()
)",[0],fc1,0.6589999794960022
188,"PyTorchCNN(
  (conv1): Conv2d(1, 16, kernel_size=(3, 3), stride=(1, 1), padding=(1, 1))
  (relu1): ReLU()
  (pool1): MaxPool2d(kernel_size=2, stride=2, padding=0, dilation=1, ceil_mode=False)
  (conv2): Conv2d(16, 32, kernel_size=(3, 3), stride=(1, 1), padding=(1, 1))
  (relu2): ReLU()
  (pool2): MaxPool2d(kernel_size=2, stride=2, padding=0, dilation=1, ceil_mode=False)
  (conv3): Conv2d(32, 64, kernel_size=(3, 3), stride=(1, 1), padding=(1, 1))
  (relu3): ReLU()
  (flatten): Flatten(start_dim=1, end_dim=-1)
  (fc1): Linear(in_features=3136, out_features=3, bias=True)
  (relu4): ReLU()
  (fc2): Linear(in_features=3, out_features=1, bias=True)
  (sigmoid): Sigmoid()
)",[1],conv1,0.9639999866485596
189,"PyTorchCNN(
  (conv1): Conv2d(1, 16, kernel_size=(3, 3), stride=(1, 1), padding=(1, 1))
  (relu1): ReLU()
  (pool1): MaxPool2d(kernel_size=2, stride=2, padding=0, dilation=1, ceil_mode=False)
  (conv2): Conv2d(16, 32, kernel_size=(3, 3), stride=(1, 1), padding=(1, 1))
  (relu2): ReLU()
  (pool2): MaxPool2d(kernel_size=2, stride=2, padding=0, dilation=1, ceil_mode=False)
  (conv3): Conv2d(32, 64, kernel_size=(3, 3), stride=(1, 1), padding=(1, 1))
  (relu3): ReLU()
  (flatten): Flatten(start_dim=1, end_dim=-1)
  (fc1): Linear(in_features=3136, out_features=3, bias=True)
  (relu4): ReLU()
  (fc2): Linear(in_features=3, out_features=1, bias=True)
  (sigmoid): Sigmoid()
)",[1],conv2,0.9490000009536743
190,"PyTorchCNN(
  (conv1): Conv2d(1, 16, kernel_size=(3, 3), stride=(1, 1), padding=(1, 1))
  (relu1): ReLU()
  (pool1): MaxPool2d(kernel_size=2, stride=2, padding=0, dilation=1, ceil_mode=False)
  (conv2): Conv2d(16, 32, kernel_size=(3, 3), stride=(1, 1), padding=(1, 1))
  (relu2): ReLU()
  (pool2): MaxPool2d(kernel_size=2, stride=2, padding=0, dilation=1, ceil_mode=False)
  (conv3): Conv2d(32, 64, kernel_size=(3, 3), stride=(1, 1), padding=(1, 1))
  (relu3): ReLU()
  (flatten): Flatten(start_dim=1, end_dim=-1)
  (fc1): Linear(in_features=3136, out_features=3, bias=True)
  (relu4): ReLU()
  (fc2): Linear(in_features=3, out_features=1, bias=True)
  (sigmoid): Sigmoid()
)",[1],conv3,0.9430000185966492
191,"PyTorchCNN(
  (conv1): Conv2d(1, 16, kernel_size=(3, 3), stride=(1, 1), padding=(1, 1))
  (relu1): ReLU()
  (pool1): MaxPool2d(kernel_size=2, stride=2, padding=0, dilation=1, ceil_mode=False)
  (conv2): Conv2d(16, 32, kernel_size=(3, 3), stride=(1, 1), padding=(1, 1))
  (relu2): ReLU()
  (pool2): MaxPool2d(kernel_size=2, stride=2, padding=0, dilation=1, ceil_mode=False)
  (conv3): Conv2d(32, 64, kernel_size=(3, 3), stride=(1, 1), padding=(1, 1))
  (relu3): ReLU()
  (flatten): Flatten(start_dim=1, end_dim=-1)
  (fc1): Linear(in_features=3136, out_features=3, bias=True)
  (relu4): ReLU()
  (fc2): Linear(in_features=3, out_features=1, bias=True)
  (sigmoid): Sigmoid()
)",[1],fc1,0.6299999952316284
192,"PyTorchCNN(
  (conv1): Conv2d(1, 16, kernel_size=(3, 3), stride=(1, 1), padding=(1, 1))
  (relu1): ReLU()
  (pool1): MaxPool2d(kernel_size=2, stride=2, padding=0, dilation=1, ceil_mode=False)
  (conv2): Conv2d(16, 32, kernel_size=(3, 3), stride=(1, 1), padding=(1, 1))
  (relu2): ReLU()
  (pool2): MaxPool2d(kernel_size=2, stride=2, padding=0, dilation=1, ceil_mode=False)
  (conv3): Conv2d(32, 64, kernel_size=(3, 3), stride=(1, 1), padding=(1, 1))
  (relu3): ReLU()
  (flatten): Flatten(start_dim=1, end_dim=-1)
  (fc1): Linear(in_features=3136, out_features=3, bias=True)
  (relu4): ReLU()
  (fc2): Linear(in_features=3, out_features=1, bias=True)
  (sigmoid): Sigmoid()
)",[2],conv1,0.9210000038146973
193,"PyTorchCNN(
  (conv1): Conv2d(1, 16, kernel_size=(3, 3), stride=(1, 1), padding=(1, 1))
  (relu1): ReLU()
  (pool1): MaxPool2d(kernel_size=2, stride=2, padding=0, dilation=1, ceil_mode=False)
  (conv2): Conv2d(16, 32, kernel_size=(3, 3), stride=(1, 1), padding=(1, 1))
  (relu2): ReLU()
  (pool2): MaxPool2d(kernel_size=2, stride=2, padding=0, dilation=1, ceil_mode=False)
  (conv3): Conv2d(32, 64, kernel_size=(3, 3), stride=(1, 1), padding=(1, 1))
  (relu3): ReLU()
  (flatten): Flatten(start_dim=1, end_dim=-1)
  (fc1): Linear(in_features=3136, out_features=3, bias=True)
  (relu4): ReLU()
  (fc2): Linear(in_features=3, out_features=1, bias=True)
  (sigmoid): Sigmoid()
)",[2],conv2,0.9380000233650208
194,"PyTorchCNN(
  (conv1): Conv2d(1, 16, kernel_size=(3, 3), stride=(1, 1), padding=(1, 1))
  (relu1): ReLU()
  (pool1): MaxPool2d(kernel_size=2, stride=2, padding=0, dilation=1, ceil_mode=False)
  (conv2): Conv2d(16, 32, kernel_size=(3, 3), stride=(1, 1), padding=(1, 1))
  (relu2): ReLU()
  (pool2): MaxPool2d(kernel_size=2, stride=2, padding=0, dilation=1, ceil_mode=False)
  (conv3): Conv2d(32, 64, kernel_size=(3, 3), stride=(1, 1), padding=(1, 1))
  (relu3): ReLU()
  (flatten): Flatten(start_dim=1, end_dim=-1)
  (fc1): Linear(in_features=3136, out_features=3, bias=True)
  (relu4): ReLU()
  (fc2): Linear(in_features=3, out_features=1, bias=True)
  (sigmoid): Sigmoid()
)",[2],conv3,0.9020000100135803
195,"PyTorchCNN(
  (conv1): Conv2d(1, 16, kernel_size=(3, 3), stride=(1, 1), padding=(1, 1))
  (relu1): ReLU()
  (pool1): MaxPool2d(kernel_size=2, stride=2, padding=0, dilation=1, ceil_mode=False)
  (conv2): Conv2d(16, 32, kernel_size=(3, 3), stride=(1, 1), padding=(1, 1))
  (relu2): ReLU()
  (pool2): MaxPool2d(kernel_size=2, stride=2, padding=0, dilation=1, ceil_mode=False)
  (conv3): Conv2d(32, 64, kernel_size=(3, 3), stride=(1, 1), padding=(1, 1))
  (relu3): ReLU()
  (flatten): Flatten(start_dim=1, end_dim=-1)
  (fc1): Linear(in_features=3136, out_features=3, bias=True)
  (relu4): ReLU()
  (fc2): Linear(in_features=3, out_features=1, bias=True)
  (sigmoid): Sigmoid()
)",[2],fc1,0.7179999947547913
196,"PyTorchCNN(
  (conv1): Conv2d(1, 16, kernel_size=(3, 3), stride=(1, 1), padding=(1, 1))
  (relu1): ReLU()
  (pool1): MaxPool2d(kernel_size=2, stride=2, padding=0, dilation=1, ceil_mode=False)
  (conv2): Conv2d(16, 32, kernel_size=(3, 3), stride=(1, 1), padding=(1, 1))
  (relu2): ReLU()
  (pool2): MaxPool2d(kernel_size=2, stride=2, padding=0, dilation=1, ceil_mode=False)
  (conv3): Conv2d(32, 64, kernel_size=(3, 3), stride=(1, 1), padding=(1, 1))
  (relu3): ReLU()
  (flatten): Flatten(start_dim=1, end_dim=-1)
  (fc1): Linear(in_features=3136, out_features=3, bias=True)
  (relu4): ReLU()
  (fc2): Linear(in_features=3, out_features=1, bias=True)
  (sigmoid): Sigmoid()
)","[0, 1, 2]",conv1,0.9359999895095825
197,"PyTorchCNN(
  (conv1): Conv2d(1, 16, kernel_size=(3, 3), stride=(1, 1), padding=(1, 1))
  (relu1): ReLU()
  (pool1): MaxPool2d(kernel_size=2, stride=2, padding=0, dilation=1, ceil_mode=False)
  (conv2): Conv2d(16, 32, kernel_size=(3, 3), stride=(1, 1), padding=(1, 1))
  (relu2): ReLU()
  (pool2): MaxPool2d(kernel_size=2, stride=2, padding=0, dilation=1, ceil_mode=False)
  (conv3): Conv2d(32, 64, kernel_size=(3, 3), stride=(1, 1), padding=(1, 1))
  (relu3): ReLU()
  (flatten): Flatten(start_dim=1, end_dim=-1)
  (fc1): Linear(in_features=3136, out_features=3, bias=True)
  (relu4): ReLU()
  (fc2): Linear(in_features=3, out_features=1, bias=True)
  (sigmoid): Sigmoid()
)","[0, 1, 2]",conv2,0.9459999799728394
198,"PyTorchCNN(
  (conv1): Conv2d(1, 16, kernel_size=(3, 3), stride=(1, 1), padding=(1, 1))
  (relu1): ReLU()
  (pool1): MaxPool2d(kernel_size=2, stride=2, padding=0, dilation=1, ceil_mode=False)
  (conv2): Conv2d(16, 32, kernel_size=(3, 3), stride=(1, 1), padding=(1, 1))
  (relu2): ReLU()
  (pool2): MaxPool2d(kernel_size=2, stride=2, padding=0, dilation=1, ceil_mode=False)
  (conv3): Conv2d(32, 64, kernel_size=(3, 3), stride=(1, 1), padding=(1, 1))
  (relu3): ReLU()
  (flatten): Flatten(start_dim=1, end_dim=-1)
  (fc1): Linear(in_features=3136, out_features=3, bias=True)
  (relu4): ReLU()
  (fc2): Linear(in_features=3, out_features=1, bias=True)
  (sigmoid): Sigmoid()
)","[0, 1, 2]",conv3,0.9589999914169312
199,"PyTorchCNN(
  (conv1): Conv2d(1, 16, kernel_size=(3, 3), stride=(1, 1), padding=(1, 1))
  (relu1): ReLU()
  (pool1): MaxPool2d(kernel_size=2, stride=2, padding=0, dilation=1, ceil_mode=False)
  (conv2): Conv2d(16, 32, kernel_size=(3, 3), stride=(1, 1), padding=(1, 1))
  (relu2): ReLU()
  (pool2): MaxPool2d(kernel_size=2, stride=2, padding=0, dilation=1, ceil_mode=False)
  (conv3): Conv2d(32, 64, kernel_size=(3, 3), stride=(1, 1), padding=(1, 1))
  (relu3): ReLU()
  (flatten): Flatten(start_dim=1, end_dim=-1)
  (fc1): Linear(in_features=3136, out_features=3, bias=True)
  (relu4): ReLU()
  (fc2): Linear(in_features=3, out_features=1, bias=True)
  (sigmoid): Sigmoid()
)","[0, 1, 2]",fc1,0.8889999985694885
200,"PyTorchCNN(
  (conv1): Conv2d(1, 16, kernel_size=(3, 3), stride=(1, 1), padding=(1, 1))
  (relu1): ReLU()
  (pool1): MaxPool2d(kernel_size=2, stride=2, padding=0, dilation=1, ceil_mode=False)
  (conv2): Conv2d(16, 32, kernel_size=(3, 3), stride=(1, 1), padding=(1, 1))
  (relu2): ReLU()
  (pool2): MaxPool2d(kernel_size=2, stride=2, padding=0, dilation=1, ceil_mode=False)
  (conv3): Conv2d(32, 64, kernel_size=(3, 3), stride=(1, 1), padding=(1, 1))
  (relu3): ReLU()
  (flatten): Flatten(start_dim=1, end_dim=-1)
  (fc1): Linear(in_features=3136, out_features=3, bias=True)
  (relu4): ReLU()
  (fc2): Linear(in_features=3, out_features=1, bias=True)
  (sigmoid): Sigmoid()
)","[0, 1]",conv1,0.9150000214576721
201,"PyTorchCNN(
  (conv1): Conv2d(1, 16, kernel_size=(3, 3), stride=(1, 1), padding=(1, 1))
  (relu1): ReLU()
  (pool1): MaxPool2d(kernel_size=2, stride=2, padding=0, dilation=1, ceil_mode=False)
  (conv2): Conv2d(16, 32, kernel_size=(3, 3), stride=(1, 1), padding=(1, 1))
  (relu2): ReLU()
  (pool2): MaxPool2d(kernel_size=2, stride=2, padding=0, dilation=1, ceil_mode=False)
  (conv3): Conv2d(32, 64, kernel_size=(3, 3), stride=(1, 1), padding=(1, 1))
  (relu3): ReLU()
  (flatten): Flatten(start_dim=1, end_dim=-1)
  (fc1): Linear(in_features=3136, out_features=3, bias=True)
  (relu4): ReLU()
  (fc2): Linear(in_features=3, out_features=1, bias=True)
  (sigmoid): Sigmoid()
)","[0, 1]",conv2,0.925000011920929
202,"PyTorchCNN(
  (conv1): Conv2d(1, 16, kernel_size=(3, 3), stride=(1, 1), padding=(1, 1))
  (relu1): ReLU()
  (pool1): MaxPool2d(kernel_size=2, stride=2, padding=0, dilation=1, ceil_mode=False)
  (conv2): Conv2d(16, 32, kernel_size=(3, 3), stride=(1, 1), padding=(1, 1))
  (relu2): ReLU()
  (pool2): MaxPool2d(kernel_size=2, stride=2, padding=0, dilation=1, ceil_mode=False)
  (conv3): Conv2d(32, 64, kernel_size=(3, 3), stride=(1, 1), padding=(1, 1))
  (relu3): ReLU()
  (flatten): Flatten(start_dim=1, end_dim=-1)
  (fc1): Linear(in_features=3136, out_features=3, bias=True)
  (relu4): ReLU()
  (fc2): Linear(in_features=3, out_features=1, bias=True)
  (sigmoid): Sigmoid()
)","[0, 1]",conv3,0.9150000214576721
203,"PyTorchCNN(
  (conv1): Conv2d(1, 16, kernel_size=(3, 3), stride=(1, 1), padding=(1, 1))
  (relu1): ReLU()
  (pool1): MaxPool2d(kernel_size=2, stride=2, padding=0, dilation=1, ceil_mode=False)
  (conv2): Conv2d(16, 32, kernel_size=(3, 3), stride=(1, 1), padding=(1, 1))
  (relu2): ReLU()
  (pool2): MaxPool2d(kernel_size=2, stride=2, padding=0, dilation=1, ceil_mode=False)
  (conv3): Conv2d(32, 64, kernel_size=(3, 3), stride=(1, 1), padding=(1, 1))
  (relu3): ReLU()
  (flatten): Flatten(start_dim=1, end_dim=-1)
  (fc1): Linear(in_features=3136, out_features=3, bias=True)
  (relu4): ReLU()
  (fc2): Linear(in_features=3, out_features=1, bias=True)
  (sigmoid): Sigmoid()
)","[0, 1]",fc1,0.753000020980835
204,"PyTorchCNN(
  (conv1): Conv2d(1, 16, kernel_size=(3, 3), stride=(1, 1), padding=(1, 1))
  (relu1): ReLU()
  (pool1): MaxPool2d(kernel_size=2, stride=2, padding=0, dilation=1, ceil_mode=False)
  (conv2): Conv2d(16, 32, kernel_size=(3, 3), stride=(1, 1), padding=(1, 1))
  (relu2): ReLU()
  (pool2): MaxPool2d(kernel_size=2, stride=2, padding=0, dilation=1, ceil_mode=False)
  (conv3): Conv2d(32, 64, kernel_size=(3, 3), stride=(1, 1), padding=(1, 1))
  (relu3): ReLU()
  (flatten): Flatten(start_dim=1, end_dim=-1)
  (fc1): Linear(in_features=3136, out_features=3, bias=True)
  (relu4): ReLU()
  (fc2): Linear(in_features=3, out_features=1, bias=True)
  (sigmoid): Sigmoid()
)","[0, 2]",conv1,0.9459999799728394
205,"PyTorchCNN(
  (conv1): Conv2d(1, 16, kernel_size=(3, 3), stride=(1, 1), padding=(1, 1))
  (relu1): ReLU()
  (pool1): MaxPool2d(kernel_size=2, stride=2, padding=0, dilation=1, ceil_mode=False)
  (conv2): Conv2d(16, 32, kernel_size=(3, 3), stride=(1, 1), padding=(1, 1))
  (relu2): ReLU()
  (pool2): MaxPool2d(kernel_size=2, stride=2, padding=0, dilation=1, ceil_mode=False)
  (conv3): Conv2d(32, 64, kernel_size=(3, 3), stride=(1, 1), padding=(1, 1))
  (relu3): ReLU()
  (flatten): Flatten(start_dim=1, end_dim=-1)
  (fc1): Linear(in_features=3136, out_features=3, bias=True)
  (relu4): ReLU()
  (fc2): Linear(in_features=3, out_features=1, bias=True)
  (sigmoid): Sigmoid()
)","[0, 2]",conv2,0.9430000185966492
206,"PyTorchCNN(
  (conv1): Conv2d(1, 16, kernel_size=(3, 3), stride=(1, 1), padding=(1, 1))
  (relu1): ReLU()
  (pool1): MaxPool2d(kernel_size=2, stride=2, padding=0, dilation=1, ceil_mode=False)
  (conv2): Conv2d(16, 32, kernel_size=(3, 3), stride=(1, 1), padding=(1, 1))
  (relu2): ReLU()
  (pool2): MaxPool2d(kernel_size=2, stride=2, padding=0, dilation=1, ceil_mode=False)
  (conv3): Conv2d(32, 64, kernel_size=(3, 3), stride=(1, 1), padding=(1, 1))
  (relu3): ReLU()
  (flatten): Flatten(start_dim=1, end_dim=-1)
  (fc1): Linear(in_features=3136, out_features=3, bias=True)
  (relu4): ReLU()
  (fc2): Linear(in_features=3, out_features=1, bias=True)
  (sigmoid): Sigmoid()
)","[0, 2]",conv3,0.9039999842643738
207,"PyTorchCNN(
  (conv1): Conv2d(1, 16, kernel_size=(3, 3), stride=(1, 1), padding=(1, 1))
  (relu1): ReLU()
  (pool1): MaxPool2d(kernel_size=2, stride=2, padding=0, dilation=1, ceil_mode=False)
  (conv2): Conv2d(16, 32, kernel_size=(3, 3), stride=(1, 1), padding=(1, 1))
  (relu2): ReLU()
  (pool2): MaxPool2d(kernel_size=2, stride=2, padding=0, dilation=1, ceil_mode=False)
  (conv3): Conv2d(32, 64, kernel_size=(3, 3), stride=(1, 1), padding=(1, 1))
  (relu3): ReLU()
  (flatten): Flatten(start_dim=1, end_dim=-1)
  (fc1): Linear(in_features=3136, out_features=3, bias=True)
  (relu4): ReLU()
  (fc2): Linear(in_features=3, out_features=1, bias=True)
  (sigmoid): Sigmoid()
)","[0, 2]",fc1,0.6930000185966492
208,"PyTorchCNN(
  (conv1): Conv2d(1, 16, kernel_size=(3, 3), stride=(1, 1), padding=(1, 1))
  (relu1): ReLU()
  (pool1): MaxPool2d(kernel_size=2, stride=2, padding=0, dilation=1, ceil_mode=False)
  (conv2): Conv2d(16, 32, kernel_size=(3, 3), stride=(1, 1), padding=(1, 1))
  (relu2): ReLU()
  (pool2): MaxPool2d(kernel_size=2, stride=2, padding=0, dilation=1, ceil_mode=False)
  (conv3): Conv2d(32, 64, kernel_size=(3, 3), stride=(1, 1), padding=(1, 1))
  (relu3): ReLU()
  (flatten): Flatten(start_dim=1, end_dim=-1)
  (fc1): Linear(in_features=3136, out_features=3, bias=True)
  (relu4): ReLU()
  (fc2): Linear(in_features=3, out_features=1, bias=True)
  (sigmoid): Sigmoid()
)","[1, 2]",conv1,0.9210000038146973
209,"PyTorchCNN(
  (conv1): Conv2d(1, 16, kernel_size=(3, 3), stride=(1, 1), padding=(1, 1))
  (relu1): ReLU()
  (pool1): MaxPool2d(kernel_size=2, stride=2, padding=0, dilation=1, ceil_mode=False)
  (conv2): Conv2d(16, 32, kernel_size=(3, 3), stride=(1, 1), padding=(1, 1))
  (relu2): ReLU()
  (pool2): MaxPool2d(kernel_size=2, stride=2, padding=0, dilation=1, ceil_mode=False)
  (conv3): Conv2d(32, 64, kernel_size=(3, 3), stride=(1, 1), padding=(1, 1))
  (relu3): ReLU()
  (flatten): Flatten(start_dim=1, end_dim=-1)
  (fc1): Linear(in_features=3136, out_features=3, bias=True)
  (relu4): ReLU()
  (fc2): Linear(in_features=3, out_features=1, bias=True)
  (sigmoid): Sigmoid()
)","[1, 2]",conv2,0.9279999732971191
210,"PyTorchCNN(
  (conv1): Conv2d(1, 16, kernel_size=(3, 3), stride=(1, 1), padding=(1, 1))
  (relu1): ReLU()
…
  (fc2): Linear(in_features=3, out_features=1, bias=True)
  (sigmoid): Sigmoid()
)","[1, 2]",conv2,0.9089999794960022
770,"PyTorchCNN(
  (conv1): Conv2d(1, 16, kernel_size=(3, 3), stride=(1, 1), padding=(1, 1))
  (relu1): ReLU()
  (pool1): MaxPool2d(kernel_size=2, stride=2, padding=0, dilation=1, ceil_mode=False)
  (conv2): Conv2d(16, 32, kernel_size=(3, 3), stride=(1, 1), padding=(1, 1))
  (relu2): ReLU()
  (pool2): MaxPool2d(kernel_size=2, stride=2, padding=0, dilation=1, ceil_mode=False)
  (conv3): Conv2d(32, 64, kernel_size=(3, 3), stride=(1, 1), padding=(1, 1))
  (relu3): ReLU()
  (flatten): Flatten(start_dim=1, end_dim=-1)
  (fc1): Linear(in_features=3136, out_features=3, bias=True)
  (relu4): ReLU()
  (fc2): Linear(in_features=3, out_features=1, bias=True)
  (sigmoid): Sigmoid()
)","[1, 2]",conv3,0.8510000109672546
771,"PyTorchCNN(
  (conv1): Conv2d(1, 16, kernel_size=(3, 3), stride=(1, 1), padding=(1, 1))
  (relu1): ReLU()
  (pool1): MaxPool2d(kernel_size=2, stride=2, padding=0, dilation=1, ceil_mode=False)
  (conv2): Conv2d(16, 32, kernel_size=(3, 3), stride=(1, 1), padding=(1, 1))
  (relu2): ReLU()
  (pool2): MaxPool2d(kernel_size=2, stride=2, padding=0, dilation=1, ceil_mode=False)
  (conv3): Conv2d(32, 64, kernel_size=(3, 3), stride=(1, 1), padding=(1, 1))
  (relu3): ReLU()
  (flatten): Flatten(start_dim=1, end_dim=-1)
  (fc1): Linear(in_features=3136, out_features=3, bias=True)
  (relu4): ReLU()
  (fc2): Linear(in_features=3, out_features=1, bias=True)
  (sigmoid): Sigmoid()
)","[1, 2]",fc1,0.6140000224113464
772,"PyTorchCNN(
  (conv1): Conv2d(1, 16, kernel_size=(3, 3), stride=(1, 1), padding=(1, 1))
  (relu1): ReLU()
  (pool1): MaxPool2d(kernel_size=2, stride=2, padding=0, dilation=1, ceil_mode=False)
  (conv2): Conv2d(16, 32, kernel_size=(3, 3), stride=(1, 1), padding=(1, 1))
  (relu2): ReLU()
  (pool2): MaxPool2d(kernel_size=2, stride=2, padding=0, dilation=1, ceil_mode=False)
  (conv3): Conv2d(32, 64, kernel_size=(3, 3), stride=(1, 1), padding=(1, 1))
  (relu3): ReLU()
  (flatten): Flatten(start_dim=1, end_dim=-1)
  (fc1): Linear(in_features=3136, out_features=3, bias=True)
  (relu4): ReLU()
  (fc2): Linear(in_features=3, out_features=1, bias=True)
  (sigmoid): Sigmoid()
)",[0],conv1,0.9110000133514404
773,"PyTorchCNN(
  (conv1): Conv2d(1, 16, kernel_size=(3, 3), stride=(1, 1), padding=(1, 1))
  (relu1): ReLU()
  (pool1): MaxPool2d(kernel_size=2, stride=2, padding=0, dilation=1, ceil_mode=False)
  (conv2): Conv2d(16, 32, kernel_size=(3, 3), stride=(1, 1), padding=(1, 1))
  (relu2): ReLU()
  (pool2): MaxPool2d(kernel_size=2, stride=2, padding=0, dilation=1, ceil_mode=False)
  (conv3): Conv2d(32, 64, kernel_size=(3, 3), stride=(1, 1), padding=(1, 1))
  (relu3): ReLU()
  (flatten): Flatten(start_dim=1, end_dim=-1)
  (fc1): Linear(in_features=3136, out_features=3, bias=True)
  (relu4): ReLU()
  (fc2): Linear(in_features=3, out_features=1, bias=True)
  (sigmoid): Sigmoid()
)",[0],conv2,0.9129999876022339
774,"PyTorchCNN(
  (conv1): Conv2d(1, 16, kernel_size=(3, 3), stride=(1, 1), padding=(1, 1))
  (relu1): ReLU()
  (pool1): MaxPool2d(kernel_size=2, stride=2, padding=0, dilation=1, ceil_mode=False)
  (conv2): Conv2d(16, 32, kernel_size=(3, 3), stride=(1, 1), padding=(1, 1))
  (relu2): ReLU()
  (pool2): MaxPool2d(kernel_size=2, stride=2, padding=0, dilation=1, ceil_mode=False)
  (conv3): Conv2d(32, 64, kernel_size=(3, 3), stride=(1, 1), padding=(1, 1))
  (relu3): ReLU()
  (flatten): Flatten(start_dim=1, end_dim=-1)
  (fc1): Linear(in_features=3136, out_features=3, bias=True)
  (relu4): ReLU()
  (fc2): Linear(in_features=3, out_features=1, bias=True)
  (sigmoid): Sigmoid()
)",[0],conv3,0.8880000114440918
775,"PyTorchCNN(
  (conv1): Conv2d(1, 16, kernel_size=(3, 3), stride=(1, 1), padding=(1, 1))
  (relu1): ReLU()
  (pool1): MaxPool2d(kernel_size=2, stride=2, padding=0, dilation=1, ceil_mode=False)
  (conv2): Conv2d(16, 32, kernel_size=(3, 3), stride=(1, 1), padding=(1, 1))
  (relu2): ReLU()
  (pool2): MaxPool2d(kernel_size=2, stride=2, padding=0, dilation=1, ceil_mode=False)
  (conv3): Conv2d(32, 64, kernel_size=(3, 3), stride=(1, 1), padding=(1, 1))
  (relu3): ReLU()
  (flatten): Flatten(start_dim=1, end_dim=-1)
  (fc1): Linear(in_features=3136, out_features=3, bias=True)
  (relu4): ReLU()
  (fc2): Linear(in_features=3, out_features=1, bias=True)
  (sigmoid): Sigmoid()
)",[0],fc1,0.6690000295639038
776,"PyTorchCNN(
  (conv1): Conv2d(1, 16, kernel_size=(3, 3), stride=(1, 1), padding=(1, 1))
  (relu1): ReLU()
  (pool1): MaxPool2d(kernel_size=2, stride=2, padding=0, dilation=1, ceil_mode=False)
  (conv2): Conv2d(16, 32, kernel_size=(3, 3), stride=(1, 1), padding=(1, 1))
  (relu2): ReLU()
  (pool2): MaxPool2d(kernel_size=2, stride=2, padding=0, dilation=1, ceil_mode=False)
  (conv3): Conv2d(32, 64, kernel_size=(3, 3), stride=(1, 1), padding=(1, 1))
  (relu3): ReLU()
  (flatten): Flatten(start_dim=1, end_dim=-1)
  (fc1): Linear(in_features=3136, out_features=3, bias=True)
  (relu4): ReLU()
  (fc2): Linear(in_features=3, out_features=1, bias=True)
  (sigmoid): Sigmoid()
)",[1],conv1,0.9589999914169312
777,"PyTorchCNN(
  (conv1): Conv2d(1, 16, kernel_size=(3, 3), stride=(1, 1), padding=(1, 1))
  (relu1): ReLU()
  (pool1): MaxPool2d(kernel_size=2, stride=2, padding=0, dilation=1, ceil_mode=False)
  (conv2): Conv2d(16, 32, kernel_size=(3, 3), stride=(1, 1), padding=(1, 1))
  (relu2): ReLU()
  (pool2): MaxPool2d(kernel_size=2, stride=2, padding=0, dilation=1, ceil_mode=False)
  (conv3): Conv2d(32, 64, kernel_size=(3, 3), stride=(1, 1), padding=(1, 1))
  (relu3): ReLU()
  (flatten): Flatten(start_dim=1, end_dim=-1)
  (fc1): Linear(in_features=3136, out_features=3, bias=True)
  (relu4): ReLU()
  (fc2): Linear(in_features=3, out_features=1, bias=True)
  (sigmoid): Sigmoid()
)",[1],conv2,0.9520000219345093
778,"PyTorchCNN(
  (conv1): Conv2d(1, 16, kernel_size=(3, 3), stride=(1, 1), padding=(1, 1))
  (relu1): ReLU()
  (pool1): MaxPool2d(kernel_size=2, stride=2, padding=0, dilation=1, ceil_mode=False)
  (conv2): Conv2d(16, 32, kernel_size=(3, 3), stride=(1, 1), padding=(1, 1))
  (relu2): ReLU()
  (pool2): MaxPool2d(kernel_size=2, stride=2, padding=0, dilation=1, ceil_mode=False)
  (conv3): Conv2d(32, 64, kernel_size=(3, 3), stride=(1, 1), padding=(1, 1))
  (relu3): ReLU()
  (flatten): Flatten(start_dim=1, end_dim=-1)
  (fc1): Linear(in_features=3136, out_features=3, bias=True)
  (relu4): ReLU()
  (fc2): Linear(in_features=3, out_features=1, bias=True)
  (sigmoid): Sigmoid()
)",[1],conv3,0.9369999766349792
779,"PyTorchCNN(
  (conv1): Conv2d(1, 16, kernel_size=(3, 3), stride=(1, 1), padding=(1, 1))
  (relu1): ReLU()
  (pool1): MaxPool2d(kernel_size=2, stride=2, padding=0, dilation=1, ceil_mode=False)
  (conv2): Conv2d(16, 32, kernel_size=(3, 3), stride=(1, 1), padding=(1, 1))
  (relu2): ReLU()
  (pool2): MaxPool2d(kernel_size=2, stride=2, padding=0, dilation=1, ceil_mode=False)
  (conv3): Conv2d(32, 64, kernel_size=(3, 3), stride=(1, 1), padding=(1, 1))
  (relu3): ReLU()
  (flatten): Flatten(start_dim=1, end_dim=-1)
  (fc1): Linear(in_features=3136, out_features=3, bias=True)
  (relu4): ReLU()
  (fc2): Linear(in_features=3, out_features=1, bias=True)
  (sigmoid): Sigmoid()
)",[1],fc1,0.7680000066757202
780,"PyTorchCNN(
  (conv1): Conv2d(1, 16, kernel_size=(3, 3), stride=(1, 1), padding=(1, 1))
  (relu1): ReLU()
  (pool1): MaxPool2d(kernel_size=2, stride=2, padding=0, dilation=1, ceil_mode=False)
  (conv2): Conv2d(16, 32, kernel_size=(3, 3), stride=(1, 1), padding=(1, 1))
  (relu2): ReLU()
  (pool2): MaxPool2d(kernel_size=2, stride=2, padding=0, dilation=1, ceil_mode=False)
  (conv3): Conv2d(32, 64, kernel_size=(3, 3), stride=(1, 1), padding=(1, 1))
  (relu3): ReLU()
  (flatten): Flatten(start_dim=1, end_dim=-1)
  (fc1): Linear(in_features=3136, out_features=3, bias=True)
  (relu4): ReLU()
  (fc2): Linear(in_features=3, out_features=1, bias=True)
  (sigmoid): Sigmoid()
)",[2],conv1,0.925000011920929
781,"PyTorchCNN(
  (conv1): Conv2d(1, 16, kernel_size=(3, 3), stride=(1, 1), padding=(1, 1))
  (relu1): ReLU()
  (pool1): MaxPool2d(kernel_size=2, stride=2, padding=0, dilation=1, ceil_mode=False)
  (conv2): Conv2d(16, 32, kernel_size=(3, 3), stride=(1, 1), padding=(1, 1))
  (relu2): ReLU()
  (pool2): MaxPool2d(kernel_size=2, stride=2, padding=0, dilation=1, ceil_mode=False)
  (conv3): Conv2d(32, 64, kernel_size=(3, 3), stride=(1, 1), padding=(1, 1))
  (relu3): ReLU()
  (flatten): Flatten(start_dim=1, end_dim=-1)
  (fc1): Linear(in_features=3136, out_features=3, bias=True)
  (relu4): ReLU()
  (fc2): Linear(in_features=3, out_features=1, bias=True)
  (sigmoid): Sigmoid()
)",[2],conv2,0.9350000023841858
782,"PyTorchCNN(
  (conv1): Conv2d(1, 16, kernel_size=(3, 3), stride=(1, 1), padding=(1, 1))
  (relu1): ReLU()
  (pool1): MaxPool2d(kernel_size=2, stride=2, padding=0, dilation=1, ceil_mode=False)
  (conv2): Conv2d(16, 32, kernel_size=(3, 3), stride=(1, 1), padding=(1, 1))
  (relu2): ReLU()
  (pool2): MaxPool2d(kernel_size=2, stride=2, padding=0, dilation=1, ceil_mode=False)
  (conv3): Conv2d(32, 64, kernel_size=(3, 3), stride=(1, 1), padding=(1, 1))
  (relu3): ReLU()
  (flatten): Flatten(start_dim=1, end_dim=-1)
  (fc1): Linear(in_features=3136, out_features=3, bias=True)
  (relu4): ReLU()
  (fc2): Linear(in_features=3, out_features=1, bias=True)
  (sigmoid): Sigmoid()
)",[2],conv3,0.8679999709129333
783,"PyTorchCNN(
  (conv1): Conv2d(1, 16, kernel_size=(3, 3), stride=(1, 1), padding=(1, 1))
  (relu1): ReLU()
  (pool1): MaxPool2d(kernel_size=2, stride=2, padding=0, dilation=1, ceil_mode=False)
  (conv2): Conv2d(16, 32, kernel_size=(3, 3), stride=(1, 1), padding=(1, 1))
  (relu2): ReLU()
  (pool2): MaxPool2d(kernel_size=2, stride=2, padding=0, dilation=1, ceil_mode=False)
  (conv3): Conv2d(32, 64, kernel_size=(3, 3), stride=(1, 1), padding=(1, 1))
  (relu3): ReLU()
  (flatten): Flatten(start_dim=1, end_dim=-1)
  (fc1): Linear(in_features=3136, out_features=3, bias=True)
  (relu4): ReLU()
  (fc2): Linear(in_features=3, out_features=1, bias=True)
  (sigmoid): Sigmoid()
)",[2],fc1,0.7269999980926514
784,"PyTorchCNN(
  (conv1): Conv2d(1, 16, kernel_size=(3, 3), stride=(1, 1), padding=(1, 1))
  (relu1): ReLU()
  (pool1): MaxPool2d(kernel_size=2, stride=2, padding=0, dilation=1, ceil_mode=False)
  (conv2): Conv2d(16, 32, kernel_size=(3, 3), stride=(1, 1), padding=(1, 1))
  (relu2): ReLU()
  (pool2): MaxPool2d(kernel_size=2, stride=2, padding=0, dilation=1, ceil_mode=False)
  (conv3): Conv2d(32, 64, kernel_size=(3, 3), stride=(1, 1), padding=(1, 1))
  (relu3): ReLU()
  (flatten): Flatten(start_dim=1, end_dim=-1)
  (fc1): Linear(in_features=3136, out_features=3, bias=True)
  (relu4): ReLU()
  (fc2): Linear(in_features=3, out_features=1, bias=True)
  (sigmoid): Sigmoid()
)","[0, 1, 2]",conv1,0.9369999766349792
785,"PyTorchCNN(
  (conv1): Conv2d(1, 16, kernel_size=(3, 3), stride=(1, 1), padding=(1, 1))
  (relu1): ReLU()
  (pool1): MaxPool2d(kernel_size=2, stride=2, padding=0, dilation=1, ceil_mode=False)
  (conv2): Conv2d(16, 32, kernel_size=(3, 3), stride=(1, 1), padding=(1, 1))
  (relu2): ReLU()
  (pool2): MaxPool2d(kernel_size=2, stride=2, padding=0, dilation=1, ceil_mode=False)
  (conv3): Conv2d(32, 64, kernel_size=(3, 3), stride=(1, 1), padding=(1, 1))
  (relu3): ReLU()
  (flatten): Flatten(start_dim=1, end_dim=-1)
  (fc1): Linear(in_features=3136, out_features=3, bias=True)
  (relu4): ReLU()
  (fc2): Linear(in_features=3, out_features=1, bias=True)
  (sigmoid): Sigmoid()
)","[0, 1, 2]",conv2,0.9340000152587891
786,"PyTorchCNN(
  (conv1): Conv2d(1, 16, kernel_size=(3, 3), stride=(1, 1), padding=(1, 1))
  (relu1): ReLU()
  (pool1): MaxPool2d(kernel_size=2, stride=2, padding=0, dilation=1, ceil_mode=False)
  (conv2): Conv2d(16, 32, kernel_size=(3, 3), stride=(1, 1), padding=(1, 1))
  (relu2): ReLU()
  (pool2): MaxPool2d(kernel_size=2, stride=2, padding=0, dilation=1, ceil_mode=False)
  (conv3): Conv2d(32, 64, kernel_size=(3, 3), stride=(1, 1), padding=(1, 1))
  (relu3): ReLU()
  (flatten): Flatten(start_dim=1, end_dim=-1)
  (fc1): Linear(in_features=3136, out_features=3, bias=True)
  (relu4): ReLU()
  (fc2): Linear(in_features=3, out_features=1, bias=True)
  (sigmoid): Sigmoid()
)","[0, 1, 2]",conv3,0.9639999866485596
787,"PyTorchCNN(
  (conv1): Conv2d(1, 16, kernel_size=(3, 3), stride=(1, 1), padding=(1, 1))
  (relu1): ReLU()
  (pool1): MaxPool2d(kernel_size=2, stride=2, padding=0, dilation=1, ceil_mode=False)
  (conv2): Conv2d(16, 32, kernel_size=(3, 3), stride=(1, 1), padding=(1, 1))
  (relu2): ReLU()
  (pool2): MaxPool2d(kernel_size=2, stride=2, padding=0, dilation=1, ceil_mode=False)
  (conv3): Conv2d(32, 64, kernel_size=(3, 3), stride=(1, 1), padding=(1, 1))
  (relu3): ReLU()
  (flatten): Flatten(start_dim=1, end_dim=-1)
  (fc1): Linear(in_features=3136, out_features=3, bias=True)
  (relu4): ReLU()
  (fc2): Linear(in_features=3, out_features=1, bias=True)
  (sigmoid): Sigmoid()
)","[0, 1, 2]",fc1,0.8429999947547913
788,"PyTorchCNN(
  (conv1): Conv2d(1, 16, kernel_size=(3, 3), stride=(1, 1), padding=(1, 1))
  (relu1): ReLU()
  (pool1): MaxPool2d(kernel_size=2, stride=2, padding=0, dilation=1, ceil_mode=False)
  (conv2): Conv2d(16, 32, kernel_size=(3, 3), stride=(1, 1), padding=(1, 1))
  (relu2): ReLU()
  (pool2): MaxPool2d(kernel_size=2, stride=2, padding=0, dilation=1, ceil_mode=False)
  (conv3): Conv2d(32, 64, kernel_size=(3, 3), stride=(1, 1), padding=(1, 1))
  (relu3): ReLU()
  (flatten): Flatten(start_dim=1, end_dim=-1)
  (fc1): Linear(in_features=3136, out_features=3, bias=True)
  (relu4): ReLU()
  (fc2): Linear(in_features=3, out_features=1, bias=True)
  (sigmoid): Sigmoid()
)","[0, 1]",conv1,0.9269999861717224
789,"PyTorchCNN(
  (conv1): Conv2d(1, 16, kernel_size=(3, 3), stride=(1, 1), padding=(1, 1))
  (relu1): ReLU()
  (pool1): MaxPool2d(kernel_size=2, stride=2, padding=0, dilation=1, ceil_mode=False)
  (conv2): Conv2d(16, 32, kernel_size=(3, 3), stride=(1, 1), padding=(1, 1))
  (relu2): ReLU()
  (pool2): MaxPool2d(kernel_size=2, stride=2, padding=0, dilation=1, ceil_mode=False)
  (conv3): Conv2d(32, 64, kernel_size=(3, 3), stride=(1, 1), padding=(1, 1))
  (relu3): ReLU()
  (flatten): Flatten(start_dim=1, end_dim=-1)
  (fc1): Linear(in_features=3136, out_features=3, bias=True)
  (relu4): ReLU()
  (fc2): Linear(in_features=3, out_features=1, bias=True)
  (sigmoid): Sigmoid()
)","[0, 1]",conv2,0.9120000004768372
790,"PyTorchCNN(
  (conv1): Conv2d(1, 16, kernel_size=(3, 3), stride=(1, 1), padding=(1, 1))
  (relu1): ReLU()
  (pool1): MaxPool2d(kernel_size=2, stride=2, padding=0, dilation=1, ceil_mode=False)
  (conv2): Conv2d(16, 32, kernel_size=(3, 3), stride=(1, 1), padding=(1, 1))
  (relu2): ReLU()
  (pool2): MaxPool2d(kernel_size=2, stride=2, padding=0, dilation=1, ceil_mode=False)
  (conv3): Conv2d(32, 64, kernel_size=(3, 3), stride=(1, 1), padding=(1, 1))
  (relu3): ReLU()
  (flatten): Flatten(start_dim=1, end_dim=-1)
  (fc1): Linear(in_features=3136, out_features=3, bias=True)
  (relu4): ReLU()
  (fc2): Linear(in_features=3, out_features=1, bias=True)
  (sigmoid): Sigmoid()
)","[0, 1]",conv3,0.8899999856948853
791,"PyTorchCNN(
  (conv1): Conv2d(1, 16, kernel_size=(3, 3), stride=(1, 1), padding=(1, 1))
  (relu1): ReLU()
  (pool1): MaxPool2d(kernel_size=2, stride=2, padding=0, dilation=1, ceil_mode=False)
  (conv2): Conv2d(16, 32, kernel_size=(3, 3), stride=(1, 1), padding=(1, 1))
  (relu2): ReLU()
  (pool2): MaxPool2d(kernel_size=2, stride=2, padding=0, dilation=1, ceil_mode=False)
  (conv3): Conv2d(32, 64, kernel_size=(3, 3), stride=(1, 1), padding=(1, 1))
  (relu3): ReLU()
  (flatten): Flatten(start_dim=1, end_dim=-1)
  (fc1): Linear(in_features=3136, out_features=3, bias=True)
  (relu4): ReLU()
  (fc2): Linear(in_features=3, out_features=1, bias=True)
  (sigmoid): Sigmoid()
)","[0, 1]",fc1,0.7049999833106995
792,"PyTorchCNN(
  (conv1): Conv2d(1, 16, kernel_size=(3, 3), stride=(1, 1), padding=(1, 1))
  (relu1): ReLU()
  (pool1): MaxPool2d(kernel_size=2, stride=2, padding=0, dilation=1, ceil_mode=False)
  (conv2): Conv2d(16, 32, kernel_size=(3, 3), stride=(1, 1), padding=(1, 1))
  (relu2): ReLU()
  (pool2): MaxPool2d(kernel_size=2, stride=2, padding=0, dilation=1, ceil_mode=False)
  (conv3): Conv2d(32, 64, kernel_size=(3, 3), stride=(1, 1), padding=(1, 1))
  (relu3): ReLU()
  (flatten): Flatten(start_dim=1, end_dim=-1)
  (fc1): Linear(in_features=3136, out_features=3, bias=True)
  (relu4): ReLU()
  (fc2): Linear(in_features=3, out_features=1, bias=True)
  (sigmoid): Sigmoid()
)","[0, 2]",conv1,0.9309999942779541
793,"PyTorchCNN(
  (conv1): Conv2d(1, 16, kernel_size=(3, 3), stride=(1, 1), padding=(1, 1))
  (relu1): ReLU()
  (pool1): MaxPool2d(kernel_size=2, stride=2, padding=0, dilation=1, ceil_mode=False)
  (conv2): Conv2d(16, 32, kernel_size=(3, 3), stride=(1, 1), padding=(1, 1))
  (relu2): ReLU()
  (pool2): MaxPool2d(kernel_size=2, stride=2, padding=0, dilation=1, ceil_mode=False)
  (conv3): Conv2d(32, 64, kernel_size=(3, 3), stride=(1, 1), padding=(1, 1))
  (relu3): ReLU()
  (flatten): Flatten(start_dim=1, end_dim=-1)
  (fc1): Linear(in_features=3136, out_features=3, bias=True)
  (relu4): ReLU()
  (fc2): Linear(in_features=3, out_features=1, bias=True)
  (sigmoid): Sigmoid()
)","[0, 2]",conv2,0.9340000152587891
794,"PyTorchCNN(
  (conv1): Conv2d(1, 16, kernel_size=(3, 3), stride=(1, 1), padding=(1, 1))
  (relu1): ReLU()
  (pool1): MaxPool2d(kernel_size=2, stride=2, padding=0, dilation=1, ceil_mode=False)
  (conv2): Conv2d(16, 32, kernel_size=(3, 3), stride=(1, 1), padding=(1, 1))
  (relu2): ReLU()
  (pool2): MaxPool2d(kernel_size=2, stride=2, padding=0, dilation=1, ceil_mode=False)
  (conv3): Conv2d(32, 64, kernel_size=(3, 3), stride=(1, 1), padding=(1, 1))
  (relu3): ReLU()
  (flatten): Flatten(start_dim=1, end_dim=-1)
  (fc1): Linear(in_features=3136, out_features=3, bias=True)
  (relu4): ReLU()
  (fc2): Linear(in_features=3, out_features=1, bias=True)
  (sigmoid): Sigmoid()
)","[0, 2]",conv3,0.9010000228881836
795,"PyTorchCNN(
  (conv1): Conv2d(1, 16, kernel_size=(3, 3), stride=(1, 1), padding=(1, 1))
  (relu1): ReLU()
  (pool1): MaxPool2d(kernel_size=2, stride=2, padding=0, dilation=1, ceil_mode=False)
  (conv2): Conv2d(16, 32, kernel_size=(3, 3), stride=(1, 1), padding=(1, 1))
  (relu2): ReLU()
  (pool2): MaxPool2d(kernel_size=2, stride=2, padding=0, dilation=1, ceil_mode=False)
  (conv3): Conv2d(32, 64, kernel_size=(3, 3), stride=(1, 1), padding=(1, 1))
  (relu3): ReLU()
  (flatten): Flatten(start_dim=1, end_dim=-1)
  (fc1): Linear(in_features=3136, out_features=3, bias=True)
  (relu4): ReLU()
  (fc2): Linear(in_features=3, out_features=1, bias=True)
  (sigmoid): Sigmoid()
)","[0, 2]",fc1,0.7120000123977661
796,"PyTorchCNN(
  (conv1): Conv2d(1, 16, kernel_size=(3, 3), stride=(1, 1), padding=(1, 1))
  (relu1): ReLU()
  (pool1): MaxPool2d(kernel_size=2, stride=2, padding=0, dilation=1, ceil_mode=False)
  (conv2): Conv2d(16, 32, kernel_size=(3, 3), stride=(1, 1), padding=(1, 1))
  (relu2): ReLU()
  (pool2): MaxPool2d(kernel_size=2, stride=2, padding=0, dilation=1, ceil_mode=False)
  (conv3): Conv2d(32, 64, kernel_size=(3, 3), stride=(1, 1), padding=(1, 1))
  (relu3): ReLU()
  (flatten): Flatten(start_dim=1, end_dim=-1)
  (fc1): Linear(in_features=3136, out_features=3, bias=True)
  (relu4): ReLU()
  (fc2): Linear(in_features=3, out_features=1, bias=True)
  (sigmoid): Sigmoid()
)","[1, 2]",conv1,0.9440000057220459
797,"PyTorchCNN(
  (conv1): Conv2d(1, 16, kernel_size=(3, 3), stride=(1, 1), padding=(1, 1))
  (relu1): ReLU()
  (pool1): MaxPool2d(kernel_size=2, stride=2, padding=0, dilation=1, ceil_mode=False)
  (conv2): Conv2d(16, 32, kernel_size=(3, 3), stride=(1, 1), padding=(1, 1))
  (relu2): ReLU()
  (pool2): MaxPool2d(kernel_size=2, stride=2, padding=0, dilation=1, ceil_mode=False)
  (conv3): Conv2d(32, 64, kernel_size=(3, 3), stride=(1, 1), padding=(1, 1))
  (relu3): ReLU()
  (flatten): Flatten(start_dim=1, end_dim=-1)
  (fc1): Linear(in_features=3136, out_features=3, bias=True)
  (relu4): ReLU()
  (fc2): Linear(in_features=3, out_features=1, bias=True)
  (sigmoid): Sigmoid()
)","[1, 2]",conv2,0.9300000071525574
798,"PyTorchCNN(
  (conv1): Conv2d(1, 16, kernel_size=(3, 3), stride=(1, 1), padding=(1, 1))
  (relu1): ReLU()
  (pool1): MaxPool2d(kernel_size=2, stride=2, padding=0, dilation=1, ceil_mode=False)
  (conv2): Conv2d(16, 32, kernel_size=(3, 3), stride=(1, 1), padding=(1, 1))
  (relu2): ReLU()
  (pool2): MaxPool2d(kernel_size=2, stride=2, padding=0, dilation=1, ceil_mode=False)
  (conv3): Conv2d(32, 64, kernel_size=(3, 3), stride=(1, 1), padding=(1, 1))
  (relu3): ReLU()
  (flatten): Flatten(start_dim=1, end_dim=-1)
  (fc1): Linear(in_features=3136, out_features=3, bias=True)
  (relu4): ReLU()
  (fc2): Linear(in_features=3, out_features=1, bias=True)
  (sigmoid): Sigmoid()
)","[1, 2]",conv3,0.8709999918937683
799,"PyTorchCNN(
  (conv1): Conv2d(1, 16, kernel_size=(3, 3), stride=(1, 1), padding=(1, 1))
  (relu1): ReLU()
  (pool1): MaxPool2d(kernel_size=2, stride=2, padding=0, dilation=1, ceil_mode=False)
  (conv2): Conv2d(16, 32, kernel_size=(3, 3), stride=(1, 1), padding=(1, 1))
  (relu2): ReLU()
  (pool2): MaxPool2d(kernel_size=2, stride=2, padding=0, dilation=1, ceil_mode=False)
  (conv3): Conv2d(32, 64, kernel_size=(3, 3), stride=(1, 1), padding=(1, 1))
  (relu3): ReLU()
  (flatten): Flatten(start_dim=1, end_dim=-1)
  (fc1): Linear(in_features=3136, out_features=3, bias=True)
  (relu4): ReLU()
  (fc2): Linear(in_features=3, out_features=1, bias=True)
  (sigmoid): Sigmoid()
)","[1, 2]",fc1,0.6579999923706055
800,"PyTorchCNN(
  (conv1): Conv2d(1, 16, kernel_size=(3, 3), stride=(1, 1), padding=(1, 1))
  (relu1): ReLU()
  (pool1): MaxPool2d(kernel_size=2, stride=2, padding=0, dilation=1, ceil_mode=False)
  (conv2): Conv2d(16, 32, kernel_size=(3, 3), stride=(1, 1), padding=(1, 1))
  (relu2): ReLU()
  (pool2): MaxPool2d(kernel_size=2, stride=2, padding=0, dilation=1, ceil_mode=False)
  (conv3): Conv2d(32, 64, kernel_size=(3, 3), stride=(1, 1), padding=(1, 1))
  (relu3): ReLU()
  (flatten): Flatten(start_dim=1, end_dim=-1)
  (fc1): Linear(in_features=3136, out_features=3, bias=True)
  (relu4): ReLU()
  (fc2): Linear(in_features=3, out_features=1, bias=True)
  (sigmoid): Sigmoid()
)",[0],conv1,0.9309999942779541
801,"PyTorchCNN(
  (conv1): Conv2d(1, 16, kernel_size=(3, 3), stride=(1, 1), padding=(1, 1))
  (relu1): ReLU()
  (pool1): MaxPool2d(kernel_size=2, stride=2, padding=0, dilation=1, ceil_mode=False)
  (conv2): Conv2d(16, 32, kernel_size=(3, 3), stride=(1, 1), padding=(1, 1))
  (relu2): ReLU()
  (pool2): MaxPool2d(kernel_size=2, stride=2, padding=0, dilation=1, ceil_mode=False)
  (conv3): Conv2d(32, 64, kernel_size=(3, 3), stride=(1, 1), padding=(1, 1))
  (relu3): ReLU()
  (flatten): Flatten(start_dim=1, end_dim=-1)
  (fc1): Linear(in_features=3136, out_features=3, bias=True)
  (relu4): ReLU()
  (fc2): Linear(in_features=3, out_features=1, bias=True)
  (sigmoid): Sigmoid()
)",[0],conv2,0.921999990940094
802,"PyTorchCNN(
  (conv1): Conv2d(1, 16, kernel_size=(3, 3), stride=(1, 1), padding=(1, 1))
  (relu1): ReLU()
  (pool1): MaxPool2d(kernel_size=2, stride=2, padding=0, dilation=1, ceil_mode=False)
  (conv2): Conv2d(16, 32, kernel_size=(3, 3), stride=(1, 1), padding=(1, 1))
  (relu2): ReLU()
  (pool2): MaxPool2d(kernel_size=2, stride=2, padding=0, dilation=1, ceil_mode=False)
  (conv3): Conv2d(32, 64, kernel_size=(3, 3), stride=(1, 1), padding=(1, 1))
  (relu3): ReLU()
  (flatten): Flatten(start_dim=1, end_dim=-1)
  (fc1): Linear(in_features=3136, out_features=3, bias=True)
  (relu4): ReLU()
  (fc2): Linear(in_features=3, out_features=1, bias=True)
  (sigmoid): Sigmoid()
)",[0],conv3,0.8989999890327454
803,"PyTorchCNN(
  (conv1): Conv2d(1, 16, kernel_size=(3, 3), stride=(1, 1), padding=(1, 1))
  (relu1): ReLU()
  (pool1): MaxPool2d(kernel_size=2, stride=2, padding=0, dilation=1, ceil_mode=False)
  (conv2): Conv2d(16, 32, kernel_size=(3, 3), stride=(1, 1), padding=(1, 1))
  (relu2): ReLU()
  (pool2): MaxPool2d(kernel_size=2, stride=2, padding=0, dilation=1, ceil_mode=False)
  (conv3): Conv2d(32, 64, kernel_size=(3, 3), stride=(1, 1), padding=(1, 1))
  (relu3): ReLU()
  (flatten): Flatten(start_dim=1, end_dim=-1)
  (fc1): Linear(in_features=3136, out_features=3, bias=True)
  (relu4): ReLU()
  (fc2): Linear(in_features=3, out_features=1, bias=True)
  (sigmoid): Sigmoid()
)",[0],fc1,0.7820000052452087
804,"PyTorchCNN(
  (conv1): Conv2d(1, 16, kernel_size=(3, 3), stride=(1, 1), padding=(1, 1))
  (relu1): ReLU()
  (pool1): MaxPool2d(kernel_size=2, stride=2, padding=0, dilation=1, ceil_mode=False)
  (conv2): Conv2d(16, 32, kernel_size=(3, 3), stride=(1, 1), padding=(1, 1))
  (relu2): ReLU()
  (pool2): MaxPool2d(kernel_size=2, stride=2, padding=0, dilation=1, ceil_mode=False)
  (conv3): Conv2d(32, 64, kernel_size=(3, 3), stride=(1, 1), padding=(1, 1))
  (relu3): ReLU()
  (flatten): Flatten(start_dim=1, end_dim=-1)
  (fc1): Linear(in_features=3136, out_features=3, bias=True)
  (relu4): ReLU()
  (fc2): Linear(in_features=3, out_features=1, bias=True)
  (sigmoid): Sigmoid()
)",[1],conv1,0.9520000219345093
805,"PyTorchCNN(
  (conv1): Conv2d(1, 16, kernel_size=(3, 3), stride=(1, 1), padding=(1, 1))
  (relu1): ReLU()
  (pool1): MaxPool2d(kernel_size=2, stride=2, padding=0, dilation=1, ceil_mode=False)
  (conv2): Conv2d(16, 32, kernel_size=(3, 3), stride=(1, 1), padding=(1, 1))
  (relu2): ReLU()
  (pool2): MaxPool2d(kernel_size=2, stride=2, padding=0, dilation=1, ceil_mode=False)
  (conv3): Conv2d(32, 64, kernel_size=(3, 3), stride=(1, 1), padding=(1, 1))
  (relu3): ReLU()
  (flatten): Flatten(start_dim=1, end_dim=-1)
  (fc1): Linear(in_features=3136, out_features=3, bias=True)
  (relu4): ReLU()
  (fc2): Linear(in_features=3, out_features=1, bias=True)
  (sigmoid): Sigmoid()
)",[1],conv2,0.9769999980926514
806,"PyTorchCNN(
  (conv1): Conv2d(1, 16, kernel_size=(3, 3), stride=(1, 1), padding=(1, 1))
  (relu1): ReLU()
  (pool1): MaxPool2d(kernel_size=2, stride=2, padding=0, dilation=1, ceil_mode=False)
  (conv2): Conv2d(16, 32, kernel_size=(3, 3), stride=(1, 1), padding=(1, 1))
  (relu2): ReLU()
  (pool2): MaxPool2d(kernel_size=2, stride=2, padding=0, dilation=1, ceil_mode=False)
  (conv3): Conv2d(32, 64, kernel_size=(3, 3), stride=(1, 1), padding=(1, 1))
  (relu3): ReLU()
  (flatten): Flatten(start_dim=1, end_dim=-1)
  (fc1): Linear(in_features=3136, out_features=3, bias=True)
  (relu4): ReLU()
  (fc2): Linear(in_features=3, out_features=1, bias=True)
  (sigmoid): Sigmoid()
)",[1],conv3,0.9319999814033508
807,"PyTorchCNN(
  (conv1): Conv2d(1, 16, kernel_size=(3, 3), stride=(1, 1), padding=(1, 1))
  (relu1): ReLU()
  (pool1): MaxPool2d(kernel_size=2, stride=2, padding=0, dilation=1, ceil_mode=False)
  (conv2): Conv2d(16, 32, kernel_size=(3, 3), stride=(1, 1), padding=(1, 1))
  (relu2): ReLU()
  (pool2): MaxPool2d(kernel_size=2, stride=2, padding=0, dilation=1, ceil_mode=False)
  (conv3): Conv2d(32, 64, kernel_size=(3, 3), stride=(1, 1), padding=(1, 1))
  (relu3): ReLU()
  (flatten): Flatten(start_dim=1, end_dim=-1)
  (fc1): Linear(in_features=3136, out_features=3, bias=True)
  (relu4): ReLU()
  (fc2): Linear(in_features=3, out_features=1, bias=True)
  (sigmoid): Sigmoid()
)",[1],fc1,0.6259999871253967
808,"PyTorchCNN(
  (conv1): Conv2d(1, 16, kernel_size=(3, 3), stride=(1, 1), padding=(1, 1))
  (relu1): ReLU()
  (pool1): MaxPool2d(kernel_size=2, stride=2, padding=0, dilation=1, ceil_mode=False)
  (conv2): Conv2d(16, 32, kernel_size=(3, 3), stride=(1, 1), padding=(1, 1))
  (relu2): ReLU()
  (pool2): MaxPool2d(kernel_size=2, stride=2, padding=0, dilation=1, ceil_mode=False)
  (conv3): Conv2d(32, 64, kernel_size=(3, 3), stride=(1, 1), padding=(1, 1))
  (relu3): ReLU()
  (flatten): Flatten(start_dim=1, end_dim=-1)
  (fc1): Linear(in_features=3136, out_features=3, bias=True)
  (relu4): ReLU()
  (fc2): Linear(in_features=3, out_features=1, bias=True)
  (sigmoid): Sigmoid()
)",[2],conv1,0.9440000057220459
809,"PyTorchCNN(
  (conv1): Conv2d(1, 16, kernel_size=(3, 3), stride=(1, 1), padding=(1, 1))
  (relu1): ReLU()
  (pool1): MaxPool2d(kernel_size=2, stride=2, padding=0, dilation=1, ceil_mode=False)
  (conv2): Conv2d(16, 32, kernel_size=(3, 3), stride=(1, 1), padding=(1, 1))
  (relu2): ReLU()
  (pool2): MaxPool2d(kernel_size=2, stride=2, padding=0, dilation=1, ceil_mode=False)
  (conv3): Conv2d(32, 64, kernel_size=(3, 3), stride=(1, 1), padding=(1, 1))
  (relu3): ReLU()
  (flatten): Flatten(start_dim=1, end_dim=-1)
  (fc1): Linear(in_features=3136, out_features=3, bias=True)
  (relu4): ReLU()
  (fc2): Linear(in_features=3, out_features=1, bias=True)
  (sigmoid): Sigmoid()
)",[2],conv2,0.9169999957084656
810,"PyTorchCNN(
  (conv1): Conv2d(1, 16, kernel_size=(3, 3), stride=(1, 1), padding=(1, 1))
  (relu1): ReLU()
  (pool1): MaxPool2d(kernel_size=2, stride=2, padding=0, dilation=1, ceil_mode=False)
  (conv2): Conv2d(16, 32, kernel_size=(3, 3), stride=(1, 1), padding=(1, 1))
  (relu2): ReLU()
  (pool2): MaxPool2d(kernel_size=2, stride=2, padding=0, dilation=1, ceil_mode=False)
  (conv3): Conv2d(32, 64, kernel_size=(3, 3), stride=(1, 1), padding=(1, 1))
  (relu3): ReLU()
  (flatten): Flatten(start_dim=1, end_dim=-1)
  (fc1): Linear(in_features=3136, out_features=3, bias=True)
  (relu4): ReLU()
  (fc2): Linear(in_features=3, out_features=1, bias=True)
  (sigmoid): Sigmoid()
)",[2],conv3,0.8970000147819519
811,"PyTorchCNN(
  (conv1): Conv2d(1, 16, kernel_size=(3, 3), stride=(1, 1), padding=(1, 1))
  (relu1): ReLU()
  (pool1): MaxPool2d(kernel_size=2, stride=2, padding=0, dilation=1, ceil_mode=False)
  (conv2): Conv2d(16, 32, kernel_size=(3, 3), stride=(1, 1), padding=(1, 1))
  (relu2): ReLU()
  (pool2): MaxPool2d(kernel_size=2, stride=2, padding=0, dilation=1, ceil_mode=False)
  (conv3): Conv2d(32, 64, kernel_size=(3, 3), stride=(1, 1), padding=(1, 1))
  (relu3): ReLU()
  (flatten): Flatten(start_dim=1, end_dim=-1)
  (fc1): Linear(in_features=3136, out_features=3, bias=True)
  (relu4): ReLU()
  (fc2): Linear(in_features=3, out_features=1, bias=True)
  (sigmoid): Sigmoid()
)",[2],fc1,0.7149999737739563
812,"PyTorchCNN(
  (conv1): Conv2d(1, 16, kernel_size=(3, 3), stride=(1, 1), padding=(1, 1))
  (relu1): ReLU()
  (pool1): MaxPool2d(kernel_size=2, stride=2, padding=0, dilation=1, ceil_mode=False)
  (conv2): Conv2d(16, 32, kernel_size=(3, 3), stride=(1, 1), padding=(1, 1))
  (relu2): ReLU()
  (pool2): MaxPool2d(kernel_size=2, stride=2, padding=0, dilation=1, ceil_mode=False)
  (conv3): Conv2d(32, 64, kernel_size=(3, 3), stride=(1, 1), padding=(1, 1))
  (relu3): ReLU()
  (flatten): Flatten(start_dim=1, end_dim=-1)
  (fc1): Linear(in_features=3136, out_features=3, bias=True)
  (relu4): ReLU()
  (fc2): Linear(in_features=3, out_features=1, bias=True)
  (sigmoid): Sigmoid()
)","[0, 1, 2]",conv1,0.9369999766349792
813,"PyTorchCNN(
  (conv1): Conv2d(1, 16, kernel_size=(3, 3), stride=(1, 1), padding=(1, 1))
  (relu1): ReLU()
  (pool1): MaxPool2d(kernel_size=2, stride=2, padding=0, dilation=1, ceil_mode=False)
  (conv2): Conv2d(16, 32, kernel_size=(3, 3), stride=(1, 1), padding=(1, 1))
  (relu2): ReLU()
  (pool2): MaxPool2d(kernel_size=2, stride=2, padding=0, dilation=1, ceil_mode=False)
  (conv3): Conv2d(32, 64, kernel_size=(3, 3), stride=(1, 1), padding=(1, 1))
  (relu3): ReLU()
  (flatten): Flatten(start_dim=1, end_dim=-1)
  (fc1): Linear(in_features=3136, out_features=3, bias=True)
  (relu4): ReLU()
  (fc2): Linear(in_features=3, out_features=1, bias=True)
  (sigmoid): Sigmoid()
)","[0, 1, 2]",conv2,0.9470000267028809
814,"PyTorchCNN(
  (conv1): Conv2d(1, 16, kernel_size=(3, 3), stride=(1, 1), padding=(1, 1))
  (relu1): ReLU()
  (pool1): MaxPool2d(kernel_size=2, stride=2, padding=0, dilation=1, ceil_mode=False)
  (conv2): Conv2d(16, 32, kernel_size=(3, 3), stride=(1, 1), padding=(1, 1))
  (relu2): ReLU()
  (pool2): MaxPool2d(kernel_size=2, stride=2, padding=0, dilation=1, ceil_mode=False)
  (conv3): Conv2d(32, 64, kernel_size=(3, 3), stride=(1, 1), padding=(1, 1))
  (relu3): ReLU()
  (flatten): Flatten(start_dim=1, end_dim=-1)
  (fc1): Linear(in_features=3136, out_features=3, bias=True)
  (relu4): ReLU()
  (fc2): Linear(in_features=3, out_features=1, bias=True)
  (sigmoid): Sigmoid()
)","[0, 1, 2]",conv3,0.9160000085830688
815,"PyTorchCNN(
  (conv1): Conv2d(1, 16, kernel_size=(3, 3), stride=(1, 1), padding=(1, 1))
  (relu1): ReLU()
  (pool1): MaxPool2d(kernel_size=2, stride=2, padding=0, dilation=1, ceil_mode=False)
  (conv2): Conv2d(16, 32, kernel_size=(3, 3), stride=(1, 1), padding=(1, 1))
  (relu2): ReLU()
  (pool2): MaxPool2d(kernel_size=2, stride=2, padding=0, dilation=1, ceil_mode=False)
  (conv3): Conv2d(32, 64, kernel_size=(3, 3), stride=(1, 1), padding=(1, 1))
  (relu3): ReLU()
  (flatten): Flatten(start_dim=1, end_dim=-1)
  (fc1): Linear(in_features=3136, out_features=3, bias=True)
  (relu4): ReLU()
  (fc2): Linear(in_features=3, out_features=1, bias=True)
  (sigmoid): Sigmoid()
)","[0, 1, 2]",fc1,0.765999972820282
816,"PyTorchCNN(
  (conv1): Conv2d(1, 16, kernel_size=(3, 3), stride=(1, 1), padding=(1, 1))
  (relu1): ReLU()
  (pool1): MaxPool2d(kernel_size=2, stride=2, padding=0, dilation=1, ceil_mode=False)
  (conv2): Conv2d(16, 32, kernel_size=(3, 3), stride=(1, 1), padding=(1, 1))
  (relu2): ReLU()
  (pool2): MaxPool2d(kernel_size=2, stride=2, padding=0, dilation=1, ceil_mode=False)
  (conv3): Conv2d(32, 64, kernel_size=(3, 3), stride=(1, 1), padding=(1, 1))
  (relu3): ReLU()
  (flatten): Flatten(start_dim=1, end_dim=-1)
  (fc1): Linear(in_features=3136, out_features=3, bias=True)
  (relu4): ReLU()
  (fc2): Linear(in_features=3, out_features=1, bias=True)
  (sigmoid): Sigmoid()
)","[0, 1]",conv1,0.9150000214576721
817,"PyTorchCNN(
  (conv1): Conv2d(1, 16, kernel_size=(3, 3), stride=(1, 1), padding=(1, 1))
  (relu1): ReLU()
  (pool1): MaxPool2d(kernel_size=2, stride=2, padding=0, dilation=1, ceil_mode=False)
  (conv2): Conv2d(16, 32, kernel_size=(3, 3), stride=(1, 1), padding=(1, 1))
  (relu2): ReLU()
  (pool2): MaxPool2d(kernel_size=2, stride=2, padding=0, dilation=1, ceil_mode=False)
  (conv3): Conv2d(32, 64, kernel_size=(3, 3), stride=(1, 1), padding=(1, 1))
  (relu3): ReLU()
  (flatten): Flatten(start_dim=1, end_dim=-1)
  (fc1): Linear(in_features=3136, out_features=3, bias=True)
  (relu4): ReLU()
  (fc2): Linear(in_features=3, out_features=1, bias=True)
  (sigmoid): Sigmoid()
)","[0, 1]",conv2,0.9190000295639038
818,"PyTorchCNN(
  (conv1): Conv2d(1, 16, kernel_size=(3, 3), stride=(1, 1), padding=(1, 1))
  (relu1): ReLU()
  (pool1): MaxPool2d(kernel_size=2, stride=2, padding=0, dilation=1, ceil_mode=False)
  (conv2): Conv2d(16, 32, kernel_size=(3, 3), stride=(1, 1), padding=(1, 1))
  (relu2): ReLU()
  (pool2): MaxPool2d(kernel_size=2, stride=2, padding=0, dilation=1, ceil_mode=False)
  (conv3): Conv2d(32, 64, kernel_size=(3, 3), stride=(1, 1), padding=(1, 1))
  (relu3): ReLU()
  (flatten): Flatten(start_dim=1, end_dim=-1)
  (fc1): Linear(in_features=3136, out_features=3, bias=True)
  (relu4): ReLU()
  (fc2): Linear(in_features=3, out_features=1, bias=True)
  (sigmoid): Sigmoid()
)","[0, 1]",conv3,0.906000018119812
819,"PyTorchCNN(
  (conv1): Conv2d(1, 16, kernel_size=(3, 3), stride=(1, 1), padding=(1, 1))
  (relu1): ReLU()
  (pool1): MaxPool2d(kernel_size=2, stride=2, padding=0, dilation=1, ceil_mode=False)
  (conv2): Conv2d(16, 32, kernel_size=(3, 3), stride=(1, 1), padding=(1, 1))
  (relu2): ReLU()
  (pool2): MaxPool2d(kernel_size=2, stride=2, padding=0, dilation=1, ceil_mode=False)
  (conv3): Conv2d(32, 64, kernel_size=(3, 3), stride=(1, 1), padding=(1, 1))
  (relu3): ReLU()
  (flatten): Flatten(start_dim=1, end_dim=-1)
  (fc1): Linear(in_features=3136, out_features=3, bias=True)
  (relu4): ReLU()
  (fc2): Linear(in_features=3, out_features=1, bias=True)
  (sigmoid): Sigmoid()
)","[0, 1]",fc1,0.6919999718666077
820,"PyTorchCNN(
  (conv1): Conv2d(1, 16, kernel_size=(3, 3), stride=(1, 1), padding=(1, 1))
  (relu1): ReLU()
  (pool1): MaxPool2d(kernel_size=2, stride=2, padding=0, dilation=1, ceil_mode=False)
  (conv2): Conv2d(16, 32, kernel_size=(3, 3), stride=(1, 1), padding=(1, 1))
  (relu2): ReLU()
  (pool2): MaxPool2d(kernel_size=2, stride=2, padding=0, dilation=1, ceil_mode=False)
  (conv3): Conv2d(32, 64, kernel_size=(3, 3), stride=(1, 1), padding=(1, 1))
  (relu3): ReLU()
  (flatten): Flatten(start_dim=1, end_dim=-1)
  (fc1): Linear(in_features=3136, out_features=3, bias=True)
  (relu4): ReLU()
  (fc2): Linear(in_features=3, out_features=1, bias=True)
  (sigmoid): Sigmoid()
)","[0, 2]",conv1,0.925000011920929
821,"PyTorchCNN(
  (conv1): Conv2d(1, 16, kernel_size=(3, 3), stride=(1, 1), padding=(1, 1))
  (relu1): ReLU()
  (pool1): MaxPool2d(kernel_size=2, stride=2, padding=0, dilation=1, ceil_mode=False)
  (conv2): Conv2d(16, 32, kernel_size=(3, 3), stride=(1, 1), padding=(1, 1))
  (relu2): ReLU()
  (pool2): MaxPool2d(kernel_size=2, stride=2, padding=0, dilation=1, ceil_mode=False)
  (conv3): Conv2d(32, 64, kernel_size=(3, 3), stride=(1, 1), padding=(1, 1))
  (relu3): ReLU()
  (flatten): Flatten(start_dim=1, end_dim=-1)
  (fc1): Linear(in_features=3136, out_features=3, bias=True)
  (relu4): ReLU()
  (fc2): Linear(in_features=3, out_features=1, bias=True)
  (sigmoid): Sigmoid()
)","[0, 2]",conv2,0.9390000104904175
822,"PyTorchCNN(
  (conv1): Conv2d(1, 16, kernel_size=(3, 3), stride=(1, 1), padding=(1, 1))
  (relu1): ReLU()
  (pool1): MaxPool2d(kernel_size=2, stride=2, padding=0, dilation=1, ceil_mode=False)
  (conv2): Conv2d(16, 32, kernel_size=(3, 3), stride=(1, 1), padding=(1, 1))
  (relu2): ReLU()
  (pool2): MaxPool2d(kernel_size=2, stride=2, padding=0, dilation=1, ceil_mode=False)
  (conv3): Conv2d(32, 64, kernel_size=(3, 3), stride=(1, 1), padding=(1, 1))
  (relu3): ReLU()
  (flatten): Flatten(start_dim=1, end_dim=-1)
  (fc1): Linear(in_features=3136, out_features=3, bias=True)
  (relu4): ReLU()
  (fc2): Linear(in_features=3, out_features=1, bias=True)
  (sigmoid): Sigmoid()
)","[0, 2]",conv3,0.9039999842643738
823,"PyTorchCNN(
  (conv1): Conv2d(1, 16, kernel_size=(3, 3), stride=(1, 1), padding=(1, 1))
  (relu1): ReLU()
  (pool1): MaxPool2d(kernel_size=2, stride=2, padding=0, dilation=1, ceil_mode=False)
  (conv2): Conv2d(16, 32, kernel_size=(3, 3), stride=(1, 1), padding=(1, 1))
  (relu2): ReLU()
  (pool2): MaxPool2d(kernel_size=2, stride=2, padding=0, dilation=1, ceil_mode=False)
  (conv3): Conv2d(32, 64, kernel_size=(3, 3), stride=(1, 1), padding=(1, 1))
  (relu3): ReLU()
  (flatten): Flatten(start_dim=1, end_dim=-1)
  (fc1): Linear(in_features=3136, out_features=3, bias=True)
  (relu4): ReLU()
  (fc2): Linear(in_features=3, out_features=1, bias=True)
  (sigmoid): Sigmoid()
)","[0, 2]",fc1,0.6140000224113464
824,"PyTorchCNN(
  (conv1): Conv2d(1, 16, kernel_size=(3, 3), stride=(1, 1), padding=(1, 1))
  (relu1): ReLU()
  (pool1): MaxPool2d(kernel_size=2, stride=2, padding=0, dilation=1, ceil_mode=False)
  (conv2): Conv2d(16, 32, kernel_size=(3, 3), stride=(1, 1), padding=(1, 1))
  (relu2): ReLU()
  (pool2): MaxPool2d(kernel_size=2, stride=2, padding=0, dilation=1, ceil_mode=False)
  (conv3): Conv2d(32, 64, kernel_size=(3, 3), stride=(1, 1), padding=(1, 1))
  (relu3): ReLU()
  (flatten): Flatten(start_dim=1, end_dim=-1)
  (fc1): Linear(in_features=3136, out_features=3, bias=True)
  (relu4): ReLU()
  (fc2): Linear(in_features=3, out_features=1, bias=True)
  (sigmoid): Sigmoid()
)","[1, 2]",conv1,0.9419999718666077
825,"PyTorchCNN(
  (conv1): Conv2d(1, 16, kernel_size=(3, 3), stride=(1, 1), padding=(1, 1))
  (relu1): ReLU()
  (pool1): MaxPool2d(kernel_size=2, stride=2, padding=0, dilation=1, ceil_mode=False)
  (conv2): Conv2d(16, 32, kernel_size=(3, 3), stride=(1, 1), padding=(1, 1))
  (relu2): ReLU()
  (pool2): MaxPool2d(kernel_size=2, stride=2, padding=0, dilation=1, ceil_mode=False)
  (conv3): Conv2d(32, 64, kernel_size=(3, 3), stride=(1, 1), padding=(1, 1))
  (relu3): ReLU()
  (flatten): Flatten(start_dim=1, end_dim=-1)
  (fc1): Linear(in_features=3136, out_features=3, bias=True)
  (relu4): ReLU()
  (fc2): Linear(in_features=3, out_features=1, bias=True)
  (sigmoid): Sigmoid()
)","[1, 2]",conv2,0.9290000200271606
826,"PyTorchCNN(
  (conv1): Conv2d(1, 16, kernel_size=(3, 3), stride=(1, 1), padding=(1, 1))
  (relu1): ReLU()
  (pool1): MaxPool2d(kernel_size=2, stride=2, padding=0, dilation=1, ceil_mode=False)
  (conv2): Conv2d(16, 32, kernel_size=(3, 3), stride=(1, 1), padding=(1, 1))
  (relu2): ReLU()
  (pool2): MaxPool2d(kernel_size=2, stride=2, padding=0, dilation=1, ceil_mode=False)
  (conv3): Conv2d(32, 64, kernel_size=(3, 3), stride=(1, 1), padding=(1, 1))
  (relu3): ReLU()
  (flatten): Flatten(start_dim=1, end_dim=-1)
  (fc1): Linear(in_features=3136, out_features=3, bias=True)
  (relu4): ReLU()
  (fc2): Linear(in_features=3, out_features=1, bias=True)
  (sigmoid): Sigmoid()
)","[1, 2]",conv3,0.8690000176429749
827,"PyTorchCNN(
  (conv1): Conv2d(1, 16, kernel_size=(3, 3), stride=(1, 1), padding=(1, 1))
  (relu1): ReLU()
  (pool1): MaxPool2d(kernel_size=2, stride=2, padding=0, dilation=1, ceil_mode=False)
  (conv2): Conv2d(16, 32, kernel_size=(3, 3), stride=(1, 1), padding=(1, 1))
  (relu2): ReLU()
  (pool2): MaxPool2d(kernel_size=2, stride=2, padding=0, dilation=1, ceil_mode=False)
  (conv3): Conv2d(32, 64, kernel_size=(3, 3), stride=(1, 1), padding=(1, 1))
  (relu3): ReLU()
  (flatten): Flatten(start_dim=1, end_dim=-1)
  (fc1): Linear(in_features=3136, out_features=3, bias=True)
  (relu4): ReLU()
  (fc2): Linear(in_features=3, out_features=1, bias=True)
  (sigmoid): Sigmoid()
)","[1, 2]",fc1,0.6610000133514404
828,"PyTorchCNN(
  (conv1): Conv2d(1, 16, kernel_size=(3, 3), stride=(1, 1), padding=(1, 1))
  (relu1): ReLU()
  (pool1): MaxPool2d(kernel_size=2, stride=2, padding=0, dilation=1, ceil_mode=False)
  (conv2): Conv2d(16, 32, kernel_size=(3, 3), stride=(1, 1), padding=(1, 1))
  (relu2): ReLU()
  (pool2): MaxPool2d(kernel_size=2, stride=2, padding=0, dilation=1, ceil_mode=False)
  (conv3): Conv2d(32, 64, kernel_size=(3, 3), stride=(1, 1), padding=(1, 1))
  (relu3): ReLU()
  (flatten): Flatten(start_dim=1, end_dim=-1)
  (fc1): Linear(in_features=3136, out_features=3, bias=True)
  (relu4): ReLU()
  (fc2): Linear(in_features=3, out_features=1, bias=True)
  (sigmoid): Sigmoid()
)",[0],conv1,0.9079999923706055
829,"PyTorchCNN(
  (conv1): Conv2d(1, 16, kernel_size=(3, 3), stride=(1, 1), padding=(1, 1))
  (relu1): ReLU()
  (pool1): MaxPool2d(kernel_size=2, stride=2, padding=0, dilation=1, ceil_mode=False)
  (conv2): Conv2d(16, 32, kernel_size=(3, 3), stride=(1, 1), padding=(1, 1))
  (relu2): ReLU()
  (pool2): MaxPool2d(kernel_size=2, stride=2, padding=0, dilation=1, ceil_mode=False)
  (conv3): Conv2d(32, 64, kernel_size=(3, 3), stride=(1, 1), padding=(1, 1))
  (relu3): ReLU()
  (flatten): Flatten(start_dim=1, end_dim=-1)
  (fc1): Linear(in_features=3136, out_features=3, bias=True)
  (relu4): ReLU()
  (fc2): Linear(in_features=3, out_features=1, bias=True)
  (sigmoid): Sigmoid()
)",[0],conv2,0.8939999938011169
830,"PyTorchCNN(
  (conv1): Conv2d(1, 16, kernel_size=(3, 3), stride=(1, 1), padding=(1, 1))
  (relu1): ReLU()
  (pool1): MaxPool2d(kernel_size=2, stride=2, padding=0, dilation=1, ceil_mode=False)
  (conv2): Conv2d(16, 32, kernel_size=(3, 3), stride=(1, 1), padding=(1, 1))
  (relu2): ReLU()
  (pool2): MaxPool2d(kernel_size=2, stride=2, padding=0, dilation=1, ceil_mode=False)
  (conv3): Conv2d(32, 64, kernel_size=(3, 3), stride=(1, 1), padding=(1, 1))
  (relu3): ReLU()
  (flatten): Flatten(start_dim=1, end_dim=-1)
  (fc1): Linear(in_features=3136, out_features=3, bias=True)
  (relu4): ReLU()
  (fc2): Linear(in_features=3, out_features=1, bias=True)
  (sigmoid): Sigmoid()
)",[0],conv3,0.859000027179718
831,"PyTorchCNN(
  (conv1): Conv2d(1, 16, kernel_size=(3, 3), stride=(1, 1), padding=(1, 1))
  (relu1): ReLU()
  (pool1): MaxPool2d(kernel_size=2, stride=2, padding=0, dilation=1, ceil_mode=False)
  (conv2): Conv2d(16, 32, kernel_size=(3, 3), stride=(1, 1), padding=(1, 1))
  (relu2): ReLU()
  (pool2): MaxPool2d(kernel_size=2, stride=2, padding=0, dilation=1, ceil_mode=False)
  (conv3): Conv2d(32, 64, kernel_size=(3, 3), stride=(1, 1), padding=(1, 1))
  (relu3): ReLU()
  (flatten): Flatten(start_dim=1, end_dim=-1)
  (fc1): Linear(in_features=3136, out_features=3, bias=True)
  (relu4): ReLU()
  (fc2): Linear(in_features=3, out_features=1, bias=True)
  (sigmoid): Sigmoid()
)",[0],fc1,0.6650000214576721
832,"PyTorchCNN(
  (conv1): Conv2d(1, 16, kernel_size=(3, 3), stride=(1, 1), padding=(1, 1))
  (relu1): ReLU()
  (pool1): MaxPool2d(kernel_size=2, stride=2, padding=0, dilation=1, ceil_mode=False)
  (conv2): Conv2d(16, 32, kernel_size=(3, 3), stride=(1, 1), padding=(1, 1))
  (relu2): ReLU()
  (pool2): MaxPool2d(kernel_size=2, stride=2, padding=0, dilation=1, ceil_mode=False)
  (conv3): Conv2d(32, 64, kernel_size=(3, 3), stride=(1, 1), padding=(1, 1))
  (relu3): ReLU()
  (flatten): Flatten(start_dim=1, end_dim=-1)
  (fc1): Linear(in_features=3136, out_features=3, bias=True)
  (relu4): ReLU()
  (fc2): Linear(in_features=3, out_features=1, bias=True)
  (sigmoid): Sigmoid()
)",[1],conv1,0.9610000252723694
833,"PyTorchCNN(
  (conv1): Conv2d(1, 16, kernel_size=(3, 3), stride=(1, 1), padding=(1, 1))
  (relu1): ReLU()
  (pool1): MaxPool2d(kernel_size=2, stride=2, padding=0, dilation=1, ceil_mode=False)
  (conv2): Conv2d(16, 32, kernel_size=(3, 3), stride=(1, 1), padding=(1, 1))
  (relu2): ReLU()
  (pool2): MaxPool2d(kernel_size=2, stride=2, padding=0, dilation=1, ceil_mode=False)
  (conv3): Conv2d(32, 64, kernel_size=(3, 3), stride=(1, 1), padding=(1, 1))
  (relu3): ReLU()
  (flatten): Flatten(start_dim=1, end_dim=-1)
  (fc1): Linear(in_features=3136, out_features=3, bias=True)
  (relu4): ReLU()
  (fc2): Linear(in_features=3, out_features=1, bias=True)
  (sigmoid): Sigmoid()
)",[1],conv2,0.9549999833106995
834,"PyTorchCNN(
  (conv1): Conv2d(1, 16, kernel_size=(3, 3), stride=(1, 1), padding=(1, 1))
  (relu1): ReLU()
  (pool1): MaxPool2d(kernel_size=2, stride=2, padding=0, dilation=1, ceil_mode=False)
  (conv2): Conv2d(16, 32, kernel_size=(3, 3), stride=(1, 1), padding=(1, 1))
  (relu2): ReLU()
  (pool2): MaxPool2d(kernel_size=2, stride=2, padding=0, dilation=1, ceil_mode=False)
  (conv3): Conv2d(32, 64, kernel_size=(3, 3), stride=(1, 1), padding=(1, 1))
  (relu3): ReLU()
  (flatten): Flatten(start_dim=1, end_dim=-1)
  (fc1): Linear(in_features=3136, out_features=3, bias=True)
  (relu4): ReLU()
  (fc2): Linear(in_features=3, out_features=1, bias=True)
  (sigmoid): Sigmoid()
)",[1],conv3,0.9300000071525574
835,"PyTorchCNN(
  (conv1): Conv2d(1, 16, kernel_size=(3, 3), stride=(1, 1), padding=(1, 1))
  (relu1): ReLU()
  (pool1): MaxPool2d(kernel_size=2, stride=2, padding=0, dilation=1, ceil_mode=False)
  (conv2): Conv2d(16, 32, kernel_size=(3, 3), stride=(1, 1), padding=(1, 1))
  (relu2): ReLU()
  (pool2): MaxPool2d(kernel_size=2, stride=2, padding=0, dilation=1, ceil_mode=False)
  (conv3): Conv2d(32, 64, kernel_size=(3, 3), stride=(1, 1), padding=(1, 1))
  (relu3): ReLU()
  (flatten): Flatten(start_dim=1, end_dim=-1)
  (fc1): Linear(in_features=3136, out_features=3, bias=True)
  (relu4): ReLU()
  (fc2): Linear(in_features=3, out_features=1, bias=True)
  (sigmoid): Sigmoid()
)",[1],fc1,0.7480000257492065
836,"PyTorchCNN(
  (conv1): Conv2d(1, 16, kernel_size=(3, 3), stride=(1, 1), padding=(1, 1))
  (relu1): ReLU()
  (pool1): MaxPool2d(kernel_size=2, stride=2, padding=0, dilation=1, ceil_mode=False)
  (conv2): Conv2d(16, 32, kernel_size=(3, 3), stride=(1, 1), padding=(1, 1))
  (relu2): ReLU()
  (pool2): MaxPool2d(kernel_size=2, stride=2, padding=0, dilation=1, ceil_mode=False)
  (conv3): Conv2d(32, 64, kernel_size=(3, 3), stride=(1, 1), padding=(1, 1))
  (relu3): ReLU()
  (flatten): Flatten(start_dim=1, end_dim=-1)
  (fc1): Linear(in_features=3136, out_features=3, bias=True)
  (relu4): ReLU()
  (fc2): Linear(in_features=3, out_features=1, bias=True)
  (sigmoid): Sigmoid()
)",[2],conv1,0.9309999942779541
837,"PyTorchCNN(
  (conv1): Conv2d(1, 16, kernel_size=(3, 3), stride=(1, 1), padding=(1, 1))
  (relu1): ReLU()
  (pool1): MaxPool2d(kernel_size=2, stride=2, padding=0, dilation=1, ceil_mode=False)
  (conv2): Conv2d(16, 32, kernel_size=(3, 3), stride=(1, 1), padding=(1, 1))
  (relu2): ReLU()
  (pool2): MaxPool2d(kernel_size=2, stride=2, padding=0, dilation=1, ceil_mode=False)
  (conv3): Conv2d(32, 64, kernel_size=(3, 3), stride=(1, 1), padding=(1, 1))
  (relu3): ReLU()
  (flatten): Flatten(start_dim=1, end_dim=-1)
  (fc1): Linear(in_features=3136, out_features=3, bias=True)
  (relu4): ReLU()
  (fc2): Linear(in_features=3, out_features=1, bias=True)
  (sigmoid): Sigmoid()
)",[2],conv2,0.9589999914169312
838,"PyTorchCNN(
  (conv1): Conv2d(1, 16, kernel_size=(3, 3), stride=(1, 1), padding=(1, 1))
  (relu1): ReLU()
  (pool1): MaxPool2d(kernel_size=2, stride=2, padding=0, dilation=1, ceil_mode=False)
  (conv2): Conv2d(16, 32, kernel_size=(3, 3), stride=(1, 1), padding=(1, 1))
  (relu2): ReLU()
  (pool2): MaxPool2d(kernel_size=2, stride=2, padding=0, dilation=1, ceil_mode=False)
  (conv3): Conv2d(32, 64, kernel_size=(3, 3), stride=(1, 1), padding=(1, 1))
  (relu3): ReLU()
  (flatten): Flatten(start_dim=1, end_dim=-1)
  (fc1): Linear(in_features=3136, out_features=3, bias=True)
  (relu4): ReLU()
  (fc2): Linear(in_features=3, out_features=1, bias=True)
  (sigmoid): Sigmoid()
)",[2],conv3,0.9350000023841858
839,"PyTorchCNN(
  (conv1): Conv2d(1, 16, kernel_size=(3, 3), stride=(1, 1), padding=(1, 1))
  (relu1): ReLU()
  (pool1): MaxPool2d(kernel_size=2, stride=2, padding=0, dilation=1, ceil_mode=False)
  (conv2): Conv2d(16, 32, kernel_size=(3, 3), stride=(1, 1), padding=(1, 1))
  (relu2): ReLU()
  (pool2): MaxPool2d(kernel_size=2, stride=2, padding=0, dilation=1, ceil_mode=False)
  (conv3): Conv2d(32, 64, kernel_size=(3, 3), stride=(1, 1), padding=(1, 1))
  (relu3): ReLU()
  (flatten): Flatten(start_dim=1, end_dim=-1)
  (fc1): Linear(in_features=3136, out_features=3, bias=True)
  (relu4): ReLU()
  (fc2): Linear(in_features=3, out_features=1, bias=True)
  (sigmoid): Sigmoid()
)",[2],fc1,0.7950000166893005
